experiments/lstm/final_model_s998244353.pt (torch, 449045 bytes, 90 tensors)

pre_model.start_conv.weight f4 [32, 2, 1, 1]
000000 9e 7a 9d 3e 6b f0 99 3e d0 39 0c be 24 13 c2 bc
       0.30757612 0.30066237 -0.13693929 -0.023690768
000010 48 a1 ec 3e a4 77 13 3f ad 6e 18 3e 09 e7 20 bf
       0.46216798 0.5760443 0.1488597 -0.6285253
000020 34 30 e0 3e ba e2 f4 3e 43 11 9d 3d 42 b9 0c be
       0.43786776 0.4782923 0.07669308 -0.13742545
000030 48 2c 1f 3f 78 5d fa 3e 21 62 55 be 5b 8e 91 bd
       0.6217694 0.48899436 -0.20838214 -0.0710723
000040 7d 2a cd be e5 54 18 bf 7b e1 9c 3e b2 ff a0 be
       -0.40071478 -0.5950454 0.30640778 -0.3144508
000050 7f 78 38 bf bb 05 f9 3d 99 9b dc be b0 44 1d be
       -0.7205886 0.12159296 -0.43087462 -0.15358233
000060 07 e2 15 bf 31 d4 57 bd a9 60 eb bc d1 f9 ee 3e
       -0.58548015 -0.052692596 -0.028732615 0.4667497
000070 44 e8 3c bf e7 d8 fc 3e 2b bd 71 3e 03 0c 31 bf
       -0.7379191 0.49384233 0.23607318 -0.69158953
000080 11 eb 46 bf f9 54 05 3f d2 6d e1 3e a4 e0 91 3e
       -0.7770243 0.52082783 0.440291 0.284917
000090 a5 5a 33 bf c0 e3 b2 be 32 10 ce be 4c 06 d9 3d
       -0.7006019 -0.34939384 -0.4024673 0.10596904
0000a0 80 c0 db bd c2 34 6d 3e d8 70 21 bf 76 c8 b9 bd
       -0.10730076 0.23164657 -0.6306281 -0.09071438
0000b0 a7 58 1f 3e b4 38 12 bf cc 4a 34 be 37 b6 a5 be
       0.15561162 -0.5711777 -0.17606658 -0.3236558
0000c0 79 df 3a bd 6c 78 8e 3e bd 76 d5 3e af 0b eb 3e
       -0.045623276 0.2782625 0.41692153 0.4590735
0000d0 86 56 1e bf 87 49 f2 be e8 f8 e2 3e 5d 28 f4 be
       -0.61850774 -0.47321722 0.44330525 -0.47687045
0000e0 9d e0 63 be 42 36 d2 be 6e f3 27 3e 40 d3 cc be
       -0.22253652 -0.4105702 0.16401455 -0.4000492
0000f0 b4 3d 09 3f a8 55 14 3c 20 09 81 3e 32 11 91 3e
       0.53609776 0.009053625 0.25202274 0.2833343

pre_model.start_conv.bias f4 [32]
000000 02 05 e3 bc 1e ae 77 3c ed b5 22 bf c0 bc 16 3e
       -0.027712349 0.015117196 -0.63558847 0.1472044
000010 52 6e f3 3d 84 81 18 bf b3 e3 0a 3f 79 c5 1e 3f
       0.11886276 -0.59572625 0.5425369 0.6202007
000020 f1 d2 98 3d 26 9b b6 3e 45 56 0d bf 37 d1 93 3e
       0.07462109 0.35665244 -0.5520976 0.28870556
000030 4c f6 d9 3e 26 36 eb 3e dc 21 10 3f ae af 03 3e
       0.42570722 0.4593975 0.56301665 0.12859985
000040 ef 11 0c bf a0 d5 f2 3e fc 9d b3 3e 0e 34 4a 3e
       -0.54714864 0.47428608 0.3508147 0.1974642
000050 49 98 81 3e 95 e4 c3 3e 19 be 22 3f fd 46 b0 be
       0.25311497 0.38260332 0.63571316 -0.3442916
000060 38 be db 3e b1 6e 95 3e 2c 8d a2 be 0a c6 3e 3e
       0.42918563 0.29186013 -0.3174833 0.18630233
000070 ea cf 0b 3f 36 bf ad 3e 02 30 b9 3e 40 4e aa 3d
       0.54614127 0.33934945 0.3616944 0.08315706

pre_model.lstm.weight_ih_l0 f4 [256, 32]
000000 04 31 d5 bc 37 f9 91 3c d5 8c 96 bd 9b d0 1a bd
       -0.026024349 0.01781903 -0.0735108 -0.037796598
000010 d8 45 ab bc 09 f9 82 bd 63 65 b0 bb b0 86 8e 3d
       -0.020907328 -0.06395156 -0.00538318 0.06959283
000020 4d db d9 3c 4f 66 d0 bc ac 9b 44 3d 7c 33 85 3d
       0.026593829 -0.02543941 0.048000023 0.065039605
000030 a0 e5 c7 3d 5e 10 85 3d 54 c4 1b 3e 5e 4a 58 bd
       0.09760594 0.064972624 0.15211612 -0.052805297
000040 fc bb 97 3d c4 5c cf ba e6 f6 b5 3d 8f fc 89 3d
       0.07408902 -0.0015820493 0.08884983 0.06737625
000050 40 65 38 3d 82 6d c6 3d b9 64 2b 3b 81 2a b3 bc
       0.045018435 0.09688856 0.0026152565 -0.021870853
000060 1c 17 62 3d b5 1f a6 bb 59 fb d1 3c ea a7 7c bd
       0.05519782 -0.0050696977 0.025632547 -0.061683573
000070 ec f2 46 3d c8 a5 5c bc 91 8b 13 bd 9d 9e 39 bc
       0.048571512 -0.01346726 -0.036021773 -0.01132932
000080 6a c3 22 3d 0d 6c 57 bc b6 c3 00 3d e7 16 49 bb
       0.039737143 -0.01314832 0.031436644 -0.0030683817
000090 2f 1d 8d 3d 7d 88 0b bd 0c eb e2 3d a3 a6 54 3c
       0.06890332 -0.034065712 0.11079988 0.012979182
0000a0 95 92 6d bd 78 e3 19 3d 00 44 be bd cd 37 ef bc
       -0.05800112 0.037570447 -0.09290314 -0.029201413
0000b0 24 5c e8 bc 68 fa 3a 3d 7e 9c 0b bd 1a ce 9a 3a
       -0.028364249 0.045648962 -0.03408479 0.0011810691
0000c0 39 ab a3 bd c7 b0 a8 3d 00 3d 72 bd 3e 57 a4 bc
       -0.079916425 0.082368426 -0.059140205 -0.020061132
0000d0 f2 27 80 3c ca 2f 19 bd 21 0a 04 3d c5 84 50 bd
       0.015644047 -0.03739909 0.032236222 -0.05090787
0000e0 52 21 0b 3d d9 47 9d 3d 1d df c8 bd 87 56 08 3d
       0.033967324 0.076797195 -0.098081805 0.033285644
0000f0 27 7a 9a bb 29 59 a9 3c 0c e8 91 3d f5 d7 23 3d
       -0.0047142687 0.020672398 0.071243376 0.040000875
000100 89 05 10 3d 3f 0d 65 bc e6 dc db 3c 94 97 3e 3c
       0.03516153 -0.013980209 0.026838731 0.011632819
000110 12 68 69 3d db c2 87 bc f3 2b b9 3d 38 53 f9 3a
       0.056984015 -0.016572407 0.09041586 0.0019021994
000120 90 d3 3e bd 09 b7 2a 3d a9 85 be bd d4 e5 0a bd
       -0.04658848 0.041678462 -0.093028374 -0.033910587
000130 60 d9 33 bd 8f 33 a7 3c bd ac 76 bd 90 ec a2 3c
       -0.043908477 0.020410327 -0.06022333 0.019888192
000140 81 e3 c4 bd ef b4 8c 3d 87 9a 71 bd 59 dc fe bc
       -0.096137054 0.06870448 -0.05898526 -0.03111093
000150 ed 3a 49 3b cf 70 4d bd 86 e3 0e 3d 0d 81 1b bd
       0.0030705289 -0.05015641 0.034884952 -0.03796487
000160 cd 74 80 3c 5c 49 7e 3d 52 d8 a6 bd ff 65 41 3d
       0.015680695 0.06208168 -0.081467286 0.04721641
000170 3b de ad bb d6 d3 cd 3c 81 d6 8d 3d b3 bb 0b 3d
       -0.005306033 0.025125425 0.06925679 0.03411455
000180 24 df 9c bc c0 0e 5f 3c 53 fe 01 bd 7d 60 2c bd
       -0.01914937 0.0136143565 -0.031736683 -0.042084206
000190 6f e6 bb bc 6b 1b bd bc 27 7d 14 bd 91 92 e5 3c
       -0.022937028 -0.023084363 -0.036252167 0.02802399
0001a0 2c cc 87 3c eb fa 27 bd 9a 76 95 3d 61 6c 2e 3d
       0.016576849 -0.04101078 0.07298012 0.042583827
0001b0 4c 39 84 3d 0f 6a f5 3c fd f8 ce 3d db 12 5e bd
       0.06456241 0.0299578 0.101060845 -0.0542172
0001c0 38 e1 c5 3d 3d 3b d9 bc 55 32 7d 3d c9 e0 4a 3d
       0.09662098 -0.026517505 0.06181558 0.049530778
0001d0 eb b5 d5 3c 8f 78 88 3d 9b d4 04 bd b1 63 89 ba
       0.026087722 0.0666362 -0.03242932 -0.0010481981
0001e0 1c 12 c7 3c 7f 50 a0 bc 5a 1c 23 3d ab ed 85 bd
       0.024300627 -0.019569634 0.03982196 -0.06539472
0001f0 98 92 56 3c 32 9a f5 bc b8 70 4e bd 49 b2 4c bc
       0.013096474 -0.029980753 -0.050400466 -0.012493678
000200 29 89 c7 bd d4 10 1a 3d 29 93 0d bd f1 7a c0 bc
       -0.09742958 0.037613705 -0.03456417 -0.023496123
000210 c8 fe 2e be 23 e5 bb 3d 49 2b 93 be c7 e0 7d bd
       -0.17089379 0.09174564 -0.2874396 -0.061981943
000220 e3 c1 06 3e 0e 88 01 be 01 f9 8f 3e 48 d2 72 3d
       0.131599 -0.12649557 0.28119662 0.05928257
000230 28 d9 71 3d b8 86 04 be 08 2b 6d bc f7 8e 19 bd
       0.059044987 -0.12942016 -0.0144755915 -0.037489858
000240 59 eb 8b 3e 7f aa 60 be 4b bd 05 3e ca 8b 60 3d
       0.27327994 -0.21940039 0.13060491 0.054820813
000250 ee e6 13 bd 6e c5 b5 3d de 7b f1 bd 08 30 06 3e
       -0.036108904 0.08875547 -0.11791204 0.1310426
000260 d5 c7 be bd fa a5 45 be bf fe 7d 3e 48 f6 e6 bd
       -0.09315459 -0.19301596 0.24804209 -0.11277443
000270 1c 2d f6 bc 56 75 9f bd 0a a5 56 be 8d 05 cf bd
       -0.030050807 -0.07786052 -0.20961395 -0.101084806
000280 97 a4 ac bb bb e8 24 bc bc a4 8a bd b1 29 d1 3d
       -0.005268644 -0.010065253 -0.06769702 0.1021303
000290 c0 2f 0c 3d 33 5e c8 bd 4d ae 04 3e f4 75 aa 3d
       0.034225225 -0.09783592 0.12957115 0.08323279
0002a0 f5 b7 86 3c 9d ff 10 3e 4d 9c 1c be fd fd 6c 3d
       0.01644514 0.14160009 -0.15293999 0.05785941
0002b0 a8 9c 97 ba 14 54 8a 3d 60 c1 82 3b 50 8a c6 3d
       -0.0011567073 0.06754318 0.0039903373 0.0969435
0002c0 3f 7e 4f be ae bf e7 3d bc b6 8b 3d ed b4 ac 3c
       -0.20263003 0.11315857 0.06821963 0.021082366
0002d0 f2 a4 0e 3d 31 60 0d 3c ab 68 74 3e a8 a3 98 bd
       0.034825273 0.008628891 0.23868053 -0.0745309
0002e0 1c fb 69 3d e7 68 96 3d 7d 60 c7 bd fe 1a ec 3d
       0.057124242 0.07344227 -0.097352006 0.11528586
0002f0 ae 3d f6 3d de 0e 13 3e 06 83 dd 3d a1 76 98 3c
       0.12023483 0.1436114 0.10816006 0.018611254
000300 44 a3 21 bc 73 68 04 3c 9d a8 5e bd c8 36 b7 bc
       -0.009865586 0.008081543 -0.05436002 -0.022364989
000310 66 0a da ba c5 06 5b bd 05 94 80 3c cd 1f 64 3d
       -0.0016635179 -0.053473253 0.015695581 0.05569439
000320 14 ea 0b 3c cd db b5 bb 5f e0 5c 3c 9b 5f 30 3d
       0.008539695 -0.005549884 0.013481229 0.043059926
000330 3d d7 8a 3d 5e fb 58 3d b0 9c df 3d 7e ff 02 bd
       0.06779335 0.052974097 0.10918558 -0.031981938
000340 f5 2f 07 3d d2 01 81 3c b0 4a 70 3d 85 f8 35 3d
       0.03300472 0.015747938 0.058664978 0.04442646
000350 51 e9 0b 3d e2 8a 87 3d 56 bc 6a 3c 10 37 d2 bc
       0.034158055 0.06618287 0.014327129 -0.025661021
000360 f4 18 37 3d e0 11 36 3c 6c 60 f3 39 23 2c 09 bd
       0.04470153 0.01111266 0.00046420412 -0.033489358
000370 27 86 1c 3d 81 28 12 ba cd c2 11 bc 99 b4 8f 3a
       0.038213875 -0.00055754936 -0.008896542 0.0010963856
000380 56 db 2f 3d 63 91 36 3b 80 70 06 bd 27 3c ac bd
       0.042933784 0.0027857653 -0.032822132 -0.08409911
000390 4e 37 d8 3d 98 b2 23 be 49 26 43 3e 6f ff 00 3e
       0.105574235 -0.15986097 0.19057573 0.1259744
0003a0 9e e5 ae bd ab 61 6c 3c 5c 5e a4 bd 15 93 0f 3d
       -0.0853989 0.014427583 -0.0802581 0.035052378
0003b0 9d c7 c0 3d b8 6f 40 3e 00 99 5f 3e 79 6e cf bd
       0.09413073 0.18792617 0.21835709 -0.10128493
0003c0 67 af ad bb 71 55 13 3e fb b9 64 3c 32 76 86 3d
       -0.0053004506 0.14388062 0.013960357 0.06565513
0003d0 e2 c2 d7 3d 07 83 91 3d 60 99 06 3d 81 44 03 be
       0.10535218 0.071050696 0.032861114 -0.12819101
0003e0 08 1f 1b 3e 31 ae 0d 3e b2 8c 10 be ee 79 44 bd
       0.15148556 0.1383598 -0.14116171 -0.047967844
0003f0 3f 7c 45 3d 46 c1 09 bb b0 7d 92 3d c9 38 7c 3d
       0.048214193 -0.002101974 0.07152879 0.061577592

pre_model.lstm.weight_hh_l0 f4 [256, 64]
000000 39 19 17 3d f8 96 15 3c 79 0d fe bb 56 e3 76 bc
       0.03688929 0.009130232 -0.007753071 -0.01506885
000010 2e 18 a5 bb 48 e7 88 3c 7c 8e 9e bc b1 44 4e 3d
       -0.005038283 0.016711846 -0.019355051 0.050358478
000020 29 59 49 3c ab 4d 2b 3c 4f d2 93 3b b5 26 38 3c
       0.012289324 0.010455529 0.0045111547 0.011239697
000030 ee 25 30 3c 82 cb d0 bb 1b 3e ae 3b 3a bf 41 bc
       0.010751231 -0.0063719163 0.005317462 -0.011825377
000040 72 2d 01 bc c6 9b 82 bb 2a d2 16 bc 98 1d 8e bc
       -0.00788437 -0.003985855 -0.00920538 -0.017348096
000050 b6 d7 3d bc 21 0a b0 ba 13 6a 2a 3c 0c 56 bf 3b
       -0.011587074 -0.0013430753 0.010401267 0.005839115
000060 99 9b d1 bb 2a 59 9a bc 41 ba 91 bc 8f f6 1d 3a
       -0.0063967225 -0.018841345 -0.017789008 0.0006025815
000070 0a 9d 8c bc 4f 5b 3b 3c e9 ec 1c 3c 05 c5 63 3b
       -0.017164726 0.011435344 0.009577968 0.0034754884
000080 5d 63 07 bc f7 04 a5 3c 92 0e dd 3c 92 e6 d1 3b
       -0.008263436 0.020143969 0.026984487 0.00640566
000090 f7 c3 9d bc 18 0d 6c bc c3 71 30 3c 85 be 0f bb
       -0.019258482 -0.014407419 0.01076931 -0.0021933627
0000a0 28 34 05 3b 2d d9 94 3a 2f 52 1e 3c a4 fc 76 3c
       0.0020325277 0.0011356227 0.009663149 0.015074883
0000b0 fd 06 8d bc 00 e0 bf bc 68 dc c8 3b e6 55 04 bb
       -0.017215246 -0.023422241 0.00612979 -0.00201928
0000c0 e7 3f ee bc 3c 01 33 bc 92 2c 8f bc f9 57 31 3c
       -0.029083205 -0.010925587 -0.017477307 0.010824197
0000d0 e4 a9 cd bc 77 61 03 3c f9 9e e4 3b f4 ba 3f ba
       -0.025105424 0.008018843 0.006976959 -0.000731393
0000e0 7a 0c 35 bc e4 fc 34 bd 0f 74 8c 3a 9c 7a ab bb
       -0.011050338 -0.044186488 0.001071574 -0.005233122
0000f0 0a 94 49 bc 86 5b 31 3c d0 72 30 3c da 8e 60 bc
       -0.012303362 0.010825044 0.010769561 -0.0137059335
000100 ce 14 11 3c f2 b3 48 38 a1 c8 04 b9 21 02 ac 3c
       0.008855058 4.7851303e-05 -0.00012663241 0.020997109
000110 6b ee cd bc 51 48 cb 3c 8d 9e d3 3b fb 8d 26 3c
       -0.0251381 0.024814757 0.0064581097 0.010165687
000120 c3 ba c8 bb 32 fb 46 3b b0 0a bf 3b bb d1 ad 38
       -0.0061257794 0.0030362126 0.0058301315 8.288348e-05
000130 83 6c 19 bb d0 c1 2b ba 68 94 4a 3c 5b f9 15 39
       -0.0023410625 -0.00065520126 0.012364484 0.0001430264
000140 5f ca f9 ba c8 39 90 3a 45 85 57 3c bc b3 de 3a
       -0.0019057504 0.0011003548 0.0131543325 0.0016990821
000150 ac cc a2 b9 a3 70 23 3c b8 a1 fb ba 4e dc c1 bb
       -0.0003105154 0.009975585 -0.0019197976 -0.005916155
000160 8b da 4c 3c 1a 52 3d ba 84 50 dd 3a 01 97 8b 3b
       0.012503277 -0.0007222012 0.0016884957 0.0042599444
000170 1e 25 93 bb fd 8b 3d 3b 2e ef b2 3a 98 82 bc b9
       -0.0044905087 0.002892255 0.0013651603 -0.00035955454
000180 cc ce ec ba b9 cb eb 3b 7d 1e fc bb 8e b7 24 bc
       -0.0018067001 0.0071959165 -0.007694064 -0.0100535285
000190 8c 92 c4 3b 59 fd 2d bb 56 cd 21 bc 0a 8f 93 3a
       0.005998915 -0.0026548712 -0.009875616 0.0011257839
0001a0 e7 96 5d 3c 17 ed 35 3a 7d d2 8f 3a a9 68 4a bc
       0.013524747 0.0006939931 0.0010972765 -0.0123540545
0001b0 24 7e f2 3b d7 c2 c7 bb 5a 47 e2 3a e2 04 b8 b9
       0.007400291 -0.0060962248 0.0017263696 -0.00035098853
0001c0 19 c8 21 bc f6 fd 2d 3b 63 eb 98 bb 18 92 1f 3a
       -0.009874367 0.0026549078 -0.004666732 0.00060871383
0001d0 cf ed db 3b ec 4c f6 3a 51 f2 8f 37 12 cd 37 bb
       0.0067116986 0.0018791235 1.7159766e-05 -0.0028045815
0001e0 fd 93 b3 3b 59 dc 0d 3d 52 64 f9 3b a4 6b 49 3b
       0.005480288 0.034633968 0.007610836 0.0030734325
0001f0 59 3b 3d bc dd 53 c0 bb 65 ec f5 bb 12 ac b3 3b
       -0.011549794 -0.0058693723 -0.007504987 0.005483159
000200 f0 a4 54 bb a1 a5 1b 3b a5 cc 22 ba c2 42 50 3c
       -0.0032446943 0.0023749846 -0.0006210304 0.012711229
000210 6a 50 c0 3b 49 e1 27 3c 96 2e b3 3b 3f cf 74 3c
       0.005868961 0.010246583 0.0054682 0.014941989
000220 57 29 df bb a2 5e 2a 3b db e0 39 3b d7 2a 48 3b
       -0.006810348 0.0025996347 0.0028362784 0.0030543113
000230 47 f6 49 bb cf 54 87 3b 47 18 be 3b 84 27 98 ba
       -0.0030816959 0.004129983 0.005801234 -0.0011608456
000240 15 a8 6b bb 9c 64 30 3b 9f d8 0b 3c bc 24 16 3c
       -0.003595834 0.0026915437 0.008535533 0.009164032
000250 82 a5 95 ba 89 c9 34 3c 24 52 56 3a dc 6c ec bb
       -0.0011417123 0.011034378 0.0008175692 -0.0072151255
000260 e3 45 13 3c 75 47 e3 bb 54 17 13 bc 0c 4e d2 3b
       0.00898883 -0.0069360086 -0.00897773 0.0064179953
000270 64 f7 c4 bb c8 a3 a5 3b e5 22 9b 3b 0d f7 16 3b
       -0.0060109366 0.0050549246 0.0047343844 0.0023035437
000280 b1 65 7f bc db f3 0b 3c 01 05 92 bb 24 6d 0f bc
       -0.01558821 0.008542026 -0.004456163 -0.0087540485
000290 cc bd 91 3b 63 9b 86 bc 95 3a f1 bb c1 01 60 3c
       0.0044476744 -0.016431516 -0.00736172 0.013672293
0002a0 eb 43 51 3c cc 26 c7 3b e6 48 67 3b cc da d9 bb
       0.012772541 0.006077623 0.0035291254 -0.006648397
0002b0 7e 52 88 3b 7c 02 2b bc 53 cb 92 3b 7b a9 5f bb
       0.0041602245 -0.010437604 0.0044798045 -0.0034128118
0002c0 18 be 53 bb 6e 75 de 3a 1d 34 e8 bb 3d cf 2a 3b
       -0.003230935 0.0016972253 -0.0070862905 0.0026063465
0002d0 34 65 cc 3b 77 7e bb 3b 8a a7 42 3b 47 00 10 bb
       0.0062376503 0.005721863 0.0029701912 -0.0021972822
0002e0 22 76 96 3b f0 01 45 3c 9b b0 bb 3a 6f 3c f7 3a
       0.0045917192 0.012024388 0.00143196 0.0018862615
0002f0 98 fc e6 bc 3f f0 9c bb 67 68 ac bb d3 a5 09 3b
       -0.028196618 -0.0047893818 -0.005261469 0.002100338
000300 cb c3 ef 3c d6 9f a5 bb 27 04 40 3b 72 28 1d 3b
       0.029268166 -0.0050544543 0.002929935 0.0023980406
000310 bd 36 51 3c e5 88 73 bb bf d9 91 bc bb e8 8c 3d
       0.012769398 -0.0037160453 -0.017804025 0.06880327
000320 b0 39 ba 3c 4c 26 22 bc 72 6b 2b bc b7 1b d7 bb
       0.022732586 -0.009896826 -0.010462629 -0.006564583
000330 72 26 a8 bb 01 d4 ef 3b 89 72 8b bc e1 06 34 bc
       -0.005131536 0.007318974 -0.017022388 -0.010987968
000340 03 41 c9 3b 48 47 7e 3b ae 82 5e bc 0d 68 0e bc
       0.006141783 0.003879981 -0.013580961 -0.0086918
000350 e5 b6 b3 3b a9 64 c8 bb 4e 2d 7a bb 76 25 23 3c
       0.005484449 -0.0061155153 -0.0038173976 0.009957662
000360 d3 5f 5a ba f3 18 fc bc 97 27 16 3a d1 dd d9 bb
       -0.0008330319 -0.030773615 0.0005727945 -0.006648757
000370 90 30 f9 3b a7 3a e6 bb f9 0b bd bb 99 f3 12 bc
       0.007604666 -0.007026035 -0.0057692495 -0.008969211
000380 1f 01 1e 3c 5c 40 f9 b9 27 b5 50 3c 2e 57 ff 3b
       0.009643822 -0.00047540932 0.012738503 0.007792375
000390 57 ff 4f bc 89 2c 3b 3c d0 f1 4a 3c 8a e4 db bb
       -0.012695155 0.011424192 0.012386754 -0.0067105936
0003a0 d8 2e fd bb 9b 1f 9c bc 8b f7 be bb 85 a4 e8 3b
       -0.0077265315 -0.01905804 -0.0058278493 0.0070996904
0003b0 72 27 90 bc 2f 59 0a 3c ff 82 4b bc c5 05 f5 bc
       -0.017596934 0.008444115 -0.012421369 -0.029909978
0003c0 ab ca d4 3b 64 47 8a 3b 75 d2 c6 3b 7e 79 d6 bb
       0.0064938865 0.004219936 0.006067569 -0.0065452447
0003d0 1a 34 cc bc 84 50 40 bc 13 75 50 bb 6a 3b 22 3c
       -0.024927188 -0.011737946 -0.0031808063 0.009901861
0003e0 a7 26 1d bc a4 ea 97 bc 82 ad 83 bb b7 51 75 bc
       -0.009591735 -0.018544503 -0.0040184865 -0.014973096
0003f0 68 70 87 3c 5a 5a 36 3c 7a 89 2e 3c db d9 ec bb
       0.016533092 0.01112994 0.010652894 -0.007228119

pre_model.lstm.bias_ih_l0 f4 [256]
000000 f6 74 a0 3d 4e 97 6f 3d fa 72 19 3d cc 88 66 3c
       0.078348085 0.058493905 0.037463166 0.014070701
000010 8a 45 4a be 96 d4 5c 3e f2 b2 92 3d bd ad 54 3e
       -0.1975309 0.2156547 0.07163037 0.20769401
000020 36 89 a3 3d 91 d0 d6 3d 7d 48 bf 3d d5 70 7a 3d
       0.07985155 0.10489 0.09339998 0.06114276
000030 d4 dc e3 3c 05 3a c4 bc 69 59 cd 3d 72 9c a5 3d
       0.02781526 -0.023953447 0.10026819 0.0808648
000040 90 2e 7c 3d 02 a2 eb 3c 12 6a 95 3d d5 0a b0 bd
       0.061567843 0.028763775 0.07295622 -0.08595816
000050 ad 42 8e 3d 96 f5 87 3d 26 28 5c 3d b0 c8 b2 3d
       0.06946311 0.06638639 0.053749226 0.08729684
000060 76 b3 a7 3d f8 b5 72 bb 7f a2 6d 3d 79 2e 98 3d
       0.08188526 -0.0037034731 0.058016296 0.07430739
000070 ed fa 94 3d 51 7e 57 3d 5a f3 86 3d d8 0a d5 3d
       0.07274423 0.0526107 0.065893844 0.10402459
000080 ae 66 cd 3c 1d 2f 84 3d 2d c6 91 3d de 6d ad 3d
       0.025073376 0.06454299 0.07117877 0.08468221
000090 65 2c a4 3d 0b 1e d3 3d 5f 63 1a 3d 95 49 41 3d
       0.0801628 0.103084646 0.037692424 0.047189314
0000a0 6f 28 6e 3d e2 27 10 3e 8f 9c 5d 3d 86 ab dc 3b
       0.05814403 0.14077714 0.054104384 0.0067343144
0000b0 1e 0d 98 3d 69 4c be 3d 2b 4c e5 3d 89 8f 5c 3c
       0.07424377 0.09291918 0.111961685 0.013461956
0000c0 8c 47 d7 3d 73 4b 8b 3d 85 38 b1 3d 15 f8 8c 3d
       0.10511693 0.068015 0.08653358 0.068832554
0000d0 d6 fa e7 3d 20 e8 fb 3d 5d ce 22 3d aa 8b b6 3d
       0.1132714 0.12300134 0.039747585 0.089133576
0000e0 48 33 8d 3d a1 cc 46 3e 83 2f ac 3b fa 60 4d 3d
       0.06894547 0.19413997 0.0052546873 0.050141312
0000f0 a6 50 8d 39 84 83 a3 3d 64 73 8e 3d 30 09 be bc
       0.00026953703 0.07984069 0.06955603 -0.02319774
000100 b2 0e 1f bd e7 e0 23 bd 09 1e 14 bd d1 55 34 bd
       -0.038832374 -0.040009405 -0.036161456 -0.044027153
000110 48 e9 9d bd 1a 37 9c 3d d3 9c 6c bd 9d 69 82 3e
       -0.077105105 0.07627697 -0.057766747 0.25471202
000120 e7 23 b4 bc ed 5d 82 bc a3 9f 92 bc 40 3f 08 bd
       -0.021989776 -0.015913928 -0.017898386 -0.033263445
000130 bf ca 1e bc d7 18 13 ba 47 d0 03 3d 3c fe f8 3c
       -0.009691893 -0.00056113064 0.03218105 0.030394666
000140 74 d5 28 bd 6b 33 d5 bc 10 12 58 bd 5a b6 25 3e
       -0.04121919 -0.026025495 -0.0527516 0.16182843
000150 49 91 2b bd 4a 6e 2b 3c 06 38 f8 bc 53 44 0e bd
       -0.0418866 0.010463307 -0.030300152 -0.034733128
000160 65 17 e9 3c 91 c3 aa 3c 33 10 eb 3c cd 59 5f bd
       0.028453538 0.020845206 0.028694248 -0.054529
000170 8c 31 33 bd 28 7f 10 bd b3 5e 2a bd 2e 35 5d bc
       -0.043748423 -0.035277516 -0.04159422 -0.013501449
000180 be c9 86 3c 85 ec 18 bd 74 cb 25 bc 03 8c eb bc
       0.01645362 -0.037334938 -0.010119308 -0.028753286
000190 28 01 15 bd ee ed 88 bc 2c 84 88 bd 89 19 03 3b
       -0.036378056 -0.016715016 -0.06665835 0.0020004234
0001a0 50 f7 56 bd 8b 55 11 bd 9a b6 23 bd 7e 2d 61 bd
       -0.05248195 -0.03548197 -0.039969064 -0.054975025
0001b0 1a cf f8 bc 57 ea 96 bd d1 a6 82 bc d3 35 f1 ba
       -0.030372191 -0.073689155 -0.015948685 -0.0018402882
0001c0 50 ac c4 ba d5 40 fc bc 2c f3 4e bd 7c 32 1e bd
       -0.0015004966 -0.030792633 -0.050524876 -0.038622364
0001d0 2a f0 b8 3c 4c 37 d2 bc 1a 9d 14 bd 29 96 94 bc
       0.022575457 -0.025661133 -0.036282636 -0.018138008
0001e0 1f 96 6f bd 4b cf 30 3e fe d6 7e 3d df 12 33 bd
       -0.058492776 0.17266576 0.06221675 -0.04371917
0001f0 e0 6f c7 3b 47 12 04 bd a4 53 4b bd c7 a8 57 bd
       0.0060863346 -0.032243993 -0.049640313 -0.052651193
000200 a6 3a 6d bd 36 f5 25 bd e7 7f db 3c 0a 34 52 bd
       -0.05791726 -0.040517054 0.026794387 -0.05131916
000210 f1 11 57 be 99 49 2a bc 90 4d 42 bd 7c 4d 00 be
       -0.21002938 -0.010393524 -0.04743725 -0.12529558
000220 29 3e a9 3d 89 a0 ab bd 3a 4a aa bd 48 45 03 3c
       0.08263809 -0.08380229 -0.08314939 0.008012123
000230 cb ce d1 bd 8a 20 4f 3d af f1 11 bd 1a 8c 8d bd
       -0.10244521 0.05056814 -0.035630878 -0.06911488
000240 b6 21 8c bd 79 a1 9e bd fa 59 48 3d 67 71 ac bc
       -0.06842367 -0.07745642 0.048913933 -0.021050168
000250 25 35 89 bd db 78 c6 3d 79 a5 d8 bd 88 f9 c5 bd
       -0.0669959 0.0969102 -0.105784364 -0.09666735
000260 e1 7e 87 3c 41 19 cb 3d 30 df 87 3d 98 cd 54 3d
       0.016539993 0.09916926 0.066343665 0.051953882
000270 34 a6 a0 3d eb 73 e6 bd 6d 8a db bd 39 88 94 3d
       0.07844201 -0.11252578 -0.10719762 0.07252545
000280 de a0 ff bd cd b8 4f 3d 72 74 9d 3d 03 f9 9d bd
       -0.12481855 0.05071335 0.07688226 -0.07713511
000290 80 6f 76 3d 58 58 e7 bc 22 83 ba bd 63 fe 8a 3c
       0.06016493 -0.028240368 -0.09107043 0.016967004
0002a0 6b d6 00 bd 2c 11 2f 3c a7 9e a7 3b 9b 14 3b bd
       -0.031454485 0.010685246 0.0051153484 -0.045673948
0002b0 81 66 46 bd 6d c9 9b bc 4a 9f 3a 3d a9 4a b9 bc
       -0.0484376 -0.019016946 0.045562066 -0.022618609
0002c0 01 93 fe bc 6b f6 66 3d ec 10 9b 3c 1f f5 d2 bd
       -0.031075956 0.056387346 0.018928967 -0.103006594
0002d0 9c bf 75 bd 32 99 da bc ea 10 b3 3d 61 e6 7b bd
       -0.059997186 -0.026684377 0.087434605 -0.061499003
0002e0 1d 20 a8 3d 6c 81 85 bd 00 40 97 3c 1f 52 e6 bc
       0.0820925 -0.06518826 0.018463135 -0.02811533
0002f0 e6 65 f9 bb b4 fd 82 bd 7f da 5f bd 47 52 08 3e
       -0.007611024 -0.06396046 -0.054651733 0.13312636
000300 74 d6 af 3d 3b 19 92 3d 3c 80 50 3d 58 d1 ca 3b
       0.085858256 0.071337186 0.050903544 0.0061895065
000310 9a ea a2 bd 86 b0 41 3e 33 c8 93 3d c4 79 5a 3d
       -0.07954903 0.18914995 0.07215919 0.05333878
000320 3b d6 aa 3d cb d3 f4 3d 7b 32 d1 3d 7c ad 9a 3d
       0.083416425 0.11954459 0.102147065 0.07552621
000330 47 4e 61 3d 25 2f 9d 3d f9 f3 a0 3d 55 c0 a4 3d
       0.05500629 0.07675008 0.07859034 0.08044497
000340 29 60 a5 3d 44 ae 6c 3d 79 76 9a 3d 24 62 56 3e
       0.08074982 0.05778338 0.07542128 0.20935875
000350 cc 67 b2 3d 28 7c 9e 3d 16 4c 95 3d ca 00 ca 3d
       0.08711204 0.07738525 0.07289903 0.09863432
000360 1f 8b a1 3d da 7e 90 3c e0 8f 03 3d 3b 4b 9e 3d
       0.07887863 0.017638613 0.03211963 0.07729193
000370 9c 67 a0 3d 8f 99 7f 3d a6 51 a0 3d 91 7d 02 3e
       0.07832262 0.062402304 0.07828073 0.12743212
000380 ed 12 14 3d 76 33 83 3d 52 b7 50 3d b2 d8 b2 3d
       0.03615086 0.064063 0.050956078 0.087327376
000390 a4 6b 9e 3d 42 54 94 3d 77 a0 1e 3d 52 9c 8a 3d
       0.077353746 0.072426334 0.03872725 0.06768097
0003a0 fa df 73 3d 44 e0 16 3e 01 c6 87 3d e7 39 71 ba
       0.059539773 0.14733988 0.06629563 -0.00092020485
0003b0 87 3b 99 3d d8 75 cf 3d 97 12 04 3e 7c 75 51 3c
       0.07482057 0.10129899 0.12897716 0.012784358
0003c0 7e 54 e9 3d 71 2f aa 3d cd fc bd 3d fc 89 a2 3d
       0.11393069 0.0830983 0.092767335 0.07936475
0003d0 51 d9 c4 3d 32 46 10 3e 38 e6 4d 3d 6f f5 e0 3d
       0.09611762 0.14089277 0.05026838 0.10984313
0003e0 77 8d 88 3d 30 3f 29 3d fd 90 9c 3c 8c 4d 14 3d
       0.06667607 0.041320026 0.019112105 0.036206767
0003f0 94 c8 a4 3d ef 6f a7 3d 6f f3 90 3d e0 22 b7 bd
       0.0804607 0.081756465 0.07077681 -0.08942199

pre_model.lstm.bias_hh_l0 f4 [256]
000000 25 59 9f 3d 78 9a 6e 3d f7 6d 17 3d ac 7b 63 3c
       0.07780675 0.05825278 0.036970105 0.013884466
000010 f0 a7 56 be ff e8 40 3e 37 b1 92 3d cb 99 54 3e
       -0.209625 0.18838881 0.07162707 0.20761792
000020 10 78 a3 3d 1b 03 d7 3d 37 63 b8 3d ef a4 7d 3d
       0.079818845 0.10498639 0.09003299 0.06192487
000030 2d 9d e3 3c 27 09 bd bc f3 f4 cc 3d 6a 64 a5 3d
       0.027784908 -0.023075653 0.10007658 0.08075793
000040 ed 5b 87 3d d4 4d 06 3d e4 71 95 3d 97 37 b3 bd
       0.0660933 0.032789066 0.072971135 -0.08750837
000050 4a fe 92 3d 57 ff 9e 3d ce c2 5f 3d a8 ab b2 3d
       0.07177408 0.07763546 0.05462914 0.08724147
000060 42 c3 a7 3d 33 6a 82 bb 88 f6 1a 3e 20 42 a0 3d
       0.08191539 -0.003979945 0.15133107 0.07825112
000070 65 83 8d 3d 84 47 59 3d da 91 88 3d 64 43 c5 3d
       0.06909827 0.05304672 0.06668444 0.09631994
000080 67 54 03 3d 3d 3f 7c 3d 5d bc 91 3d d6 41 ad 3d
       0.032062914 0.061583746 0.071160056 0.08459823
000090 fc 2b a4 3d 79 2e 37 3e c8 fc 19 3d 33 1c 57 3d
       0.08016202 0.17888822 0.037594587 0.052517127
0000a0 5f 2c 6e 3d 23 81 1a 3e ee d1 54 3d 35 3a da 3b
       0.058147784 0.15088324 0.051958017 0.006659771
0000b0 23 0d 98 3d e5 1e 90 3d 8b 79 b7 3d f8 22 55 3c
       0.07424381 0.07037143 0.08958729 0.0130088255
0000c0 ba b6 bc 3d ea 97 84 3d 0c 04 a1 3d 3f 96 8e 3d
       0.0921454 0.06474288 0.078621 0.06962251
0000d0 5e 75 e8 3d 30 a7 01 3e 71 e3 26 3d 12 ae c4 3d
       0.11350511 0.12661433 0.04074425 0.09603514
0000e0 fe dd 8c 3d c5 c1 46 3e 68 0d 3e 3c 2e 41 52 3d
       0.06878279 0.19409855 0.011599876 0.05133169
0000f0 56 53 d3 3b 2f 84 a3 3d 6f 73 8e 3d 44 1a bd bc
       0.0064491434 0.079841964 0.06955611 -0.023083813
000100 28 d7 11 bd 62 c3 21 bd e9 88 15 bd c5 c9 33 bd
       -0.03560558 -0.039492972 -0.03650752 -0.043893594
000110 ba dc 04 be 83 16 9d 3d b7 b9 6b bd 3d 40 83 3e
       -0.12974826 0.076703094 -0.05755016 0.25634947
000120 7d 1a b4 bc c6 d5 8b bc f4 dd 84 bc d0 d2 0c bd
       -0.021985287 -0.017069709 -0.016219117 -0.034380734
000130 22 8c 68 bb 67 0a 90 3c d3 ff 01 3d e9 47 f9 3c
       -0.0035483916 0.017583085 0.031738114 0.030429797
000140 21 d4 23 bd 3c 5f 85 bc 08 0c 58 bd fe da f3 3d
       -0.039997224 -0.016280763 -0.05274585 0.11907004
000150 47 7a 2b bd e5 b6 40 3c 27 dd f8 bc 03 04 0e bd
       -0.04186466 0.011762355 -0.030378891 -0.034671795
000160 d3 4b e6 3c 25 aa a7 3c b1 97 15 3d 14 5b 65 bd
       0.028112328 0.020466873 0.036521617 -0.055995062
000170 be 92 33 bd 95 38 11 bd 0d 73 2a bd aa 36 49 bc
       -0.043841116 -0.03545435 -0.041613627 -0.012281099
000180 22 58 a3 3c 06 6b 17 bd b3 f6 29 bc 54 da eb bc
       0.019939486 -0.0369673 -0.010373759 -0.02879063
000190 e9 b7 14 bd e4 80 45 3c 6a 33 88 bd 26 82 3c bd
       -0.036308203 0.012054656 -0.066504315 -0.046022557
0001a0 85 f7 56 bd 74 ca 1a bd d3 ac 24 bd c4 e3 6e bd
       -0.052482147 -0.03779073 -0.04020388 -0.058322683
0001b0 af d1 f8 bc e0 a4 4f bd a4 98 ca bc 9d 88 3b bb
       -0.030373422 -0.050694346 -0.024730988 -0.0028615363
0001c0 30 22 99 bc 68 8f 01 bd 75 bb 4e bd f1 0b 1f bd
       -0.01869306 -0.031630903 -0.05047174 -0.038829748
0001d0 36 88 c7 3c 73 ac d1 bc 84 18 15 bd 9d 19 9f bc
       0.024356943 -0.025594926 -0.036400333 -0.019421393
0001e0 84 82 6d bd ea 36 31 3e d5 af 43 3d d8 66 34 bd
       -0.057985798 0.17306104 0.04777511 -0.044043392
0001f0 d5 91 b6 3c 94 2d 04 bd 5b 34 4b bd e9 cf 58 bd
       0.022286335 -0.03227003 -0.049610477 -0.052932654
000200 6c f8 d8 bc 59 ec 72 bd cf d1 60 3d c9 26 c0 3b
       -0.026485644 -0.05930743 0.05488759 0.0058639986
000210 57 27 2d bd 68 36 64 3d 5d e4 66 bd d7 76 1c be
       -0.042273846 0.05571595 -0.056370128 -0.15279709
000220 62 ad a2 3c 1d 66 86 bd 0a 0f 07 3d 51 e3 66 3b
       0.019858066 -0.06562445 0.032973327 0.0035230706
000230 bf ee 88 3d 1d 78 e0 3d ad 17 a6 ba 23 35 cf 3d
       0.06686162 0.1096041 -0.0012671851 0.10117557
000240 b4 bb 33 3d 53 41 80 3d 2f d3 06 3d 7c 79 5c 3d
       0.04388018 0.062624596 0.032916244 0.053826794
000250 68 24 56 3d 66 a4 ae bd d3 dc 85 bd af 59 cb 3c
       0.052280813 -0.0852745 -0.065362595 0.024823038
000260 ca aa 72 3d 4b 8a 22 bd da 8f 90 bd 07 66 97 bd
       0.05924491 -0.039682668 -0.070586875 -0.07392507
000270 0c 62 87 bd dd e9 b1 3c ae 19 6d 3d 3e 09 51 bc
       -0.06610498 0.02171796 0.05788582 -0.012758551
000280 ff 6e eb bc de 1d 53 bc 7c 80 84 bc 8a 82 02 bb
       -0.02873945 -0.012885539 -0.016174547 -0.0019914233
000290 73 f6 25 3d 05 b9 ca bd fb 04 bc bd e0 cf 8f 3d
       0.040518235 -0.09898571 -0.091806374 0.07022071
0002a0 6e f7 81 3d 8f 0b 1a 3d 5b 09 35 3b 47 57 d7 3c
       0.063460216 0.03760868 0.0027623984 0.026286734
0002b0 d3 74 94 bd 99 2e f7 3c db 03 bb 3d fb f4 91 3d
       -0.07248845 0.030173587 0.09131595 0.071268044
0002c0 75 32 00 3d fc af a4 3d a9 7d 9b 3d a1 a6 8d bd
       0.03129812 0.08041379 0.07592327 -0.069165476
0002d0 9d da 8a 3d 42 a9 e7 3c cb 54 ae bd f4 70 30 3c
       0.067799784 0.02827895 -0.08512267 0.010769118
0002e0 96 01 a2 3d 0e 26 e6 bd 76 e3 c0 bd ff 64 3f 3d
       0.07910459 -0.11237727 -0.09418385 0.046727177
0002f0 63 b5 71 bd 66 1d 06 3d b4 ca 2a 3d fe e6 7e 3d
       -0.059010874 0.03274288 0.04169722 0.06223201
000300 2a e0 b0 3d c8 d8 95 3d f8 bd 51 3d 9a 3b be 3b
       0.08636506 0.07316738 0.05120656 0.005805445
000310 de be 8d bd 63 19 24 3e 80 d5 93 3d 5b f6 2d 3d
       -0.06921171 0.1602531 0.07218456 0.04247127
000320 de ba aa 3d 83 a0 f5 3d 3f f4 d1 3d 41 6b 9a 3d
       0.08336423 0.11993506 0.10251664 0.07539988
000330 55 86 65 3d c4 69 a0 3d 53 c5 a0 3d fb 90 a3 3d
       0.056036312 0.07832673 0.078501366 0.07986637
000340 24 7c 9c 3d 4b 8e 75 3d 0b 78 9a 3d 6e e4 59 3e
       0.076408654 0.059950154 0.07542428 0.21278545
000350 e5 1b b1 3d 78 bb 9a 3d 44 c5 9c 3d fa 02 ca 3d
       0.086478986 0.07555288 0.07654813 0.09863849
000360 3b 80 a1 3d af 07 9b 3c 09 5d 05 3e aa 85 94 3d
       0.07885786 0.018924562 0.13023771 0.07252057
000370 e3 51 98 3d e3 8f 76 3d 0b 33 a1 3d 08 57 01 3e
       0.07437494 0.060195815 0.07871064 0.12630856
000380 0b 4d 7c 3d 0a 80 87 3d c2 b7 50 3d 2a d1 b2 3d
       0.06159691 0.066162184 0.050956495 0.08731301
000390 df 6f 9e 3d 28 5f 63 3d e9 96 1e 3d cf ac 26 3d
       0.077361815 0.05551067 0.038718138 0.040692147
0003a0 b1 e7 73 3d cc ef 16 3e 2b c0 86 3d 91 52 b5 ba
       0.05954713 0.14739913 0.06579622 -0.0013833811
0003b0 7d 3b 99 3d ac c3 cd 3d 10 b0 02 3e a2 ac 2e 3c
       0.074820496 0.10047087 0.12762475 0.010661276
0003c0 d1 f5 b7 3d 8b 97 bb 3d 60 a6 bf 3d 36 a8 a3 3d
       0.08982433 0.09159764 0.093579054 0.07991068
0003d0 a6 a8 c3 3d ff c5 0f 3e 9c 77 4e 3d b3 4f e0 3d
       0.095536515 0.14040373 0.050407037 0.109527014
0003e0 15 9b 88 3d d2 ee 1f 3d 83 27 3c 3d d4 95 08 3d
       0.066702046 0.039046116 0.04593612 0.033346012
0003f0 1e 00 8e 3d 21 6b a7 3d 4a f3 90 3d 23 68 b7 bd
       0.06933616 0.0817473 0.07077654 -0.089554094

pre_model.lstm.weight_ih_l1 f4 [256, 64]
000000 23 34 d4 bb 8e 3e ce ba 1d f8 2d 3b 80 b8 4d 3b
       -0.0064759417 -0.0015735195 0.0026545592 0.0031390488
000010 1d 6f c1 ba 1b 35 69 3b 7e 15 72 3b 6c 39 b4 bb
       -0.0014757846 0.0035584632 0.003693908 -0.0055000093
000020 48 29 96 ba 2b 33 0f ba ea 78 59 3a 8b c9 0a bb
       -0.0011456395 -0.0005462642 0.00082959107 -0.0021177258
000030 5c b4 19 bb 96 c8 73 3b f4 21 bc 3b ef f7 b9 3b
       -0.002345345 0.0037198416 0.005741352 0.005675308
000040 fb 47 95 3a 79 29 64 3b df 72 c2 3b 31 55 81 3b
       0.001138925 0.0034814759 0.005934104 0.003946923
000050 dc b6 16 3b d1 00 d5 3a 43 82 0d bb a9 84 42 bb
       0.0022997176 0.0016250854 -0.0021592535 -0.0029681122
000060 cf 61 ea 3b 9f d0 8c b8 8a 2d 3d ba f3 d8 31 3b
       0.007152773 -6.714579e-05 -0.00072165637 0.0027137368
000070 35 2b 5e 3a 3e 7d 08 bb 58 9a 17 bb c2 30 46 ba
       0.0008475066 -0.0020826603 -0.0023132768 -0.0007560366
000080 05 07 03 bc 8c cd 9b ba 66 66 79 ba 5f c5 dd bb
       -0.007997279 -0.0011886819 -0.0009513855 -0.0067679132
000090 e4 4d 9e 3b fa 3b 99 bb 4f b4 97 bb 59 3e 3d 3b
       0.0048310626 -0.004676339 -0.0046296488 0.0028876273
0000a0 b4 7f d8 3a 14 84 33 3b 91 58 43 bb 71 f3 74 bb
       0.0016517551 0.0027391957 -0.0029807428 -0.0037376548
0000b0 df f6 3c 3b c2 73 ab 39 f2 b8 0d 3b b7 f2 3c 3b
       0.002883367 0.00032701908 0.0021625129 0.0028831193
0000c0 77 5c 47 3b 21 82 22 3b 18 c6 07 3b cf d8 16 bb
       0.0030420104 0.00247968 0.0020717438 -0.0023017412
0000d0 46 1a dd b9 cf 5c dd 3a 93 6d d9 ba a4 cc 51 b9
       -0.0004217198 0.0016888621 -0.0016588442 -0.00020008028
0000e0 81 8d 82 3b 51 0c 57 3b a1 51 60 bb 22 ab b6 3b
       0.0039841537 0.0032813738 -0.0034228342 0.0055746
0000f0 b5 64 de bb ab 66 41 bb 2f f5 ad bb 09 1c 96 3b
       -0.0067869076 -0.0029510658 -0.005308769 0.004580979
000100 e5 b2 e7 3b cc 64 2a ba 52 80 0a 3b 79 6f 99 bb
       0.0070708864 -0.0006500005 0.0021133614 -0.004682478
000110 a8 70 73 ba a4 b9 1e bb 9c 64 98 ba 8b 54 1f bc
       -0.00092865014 -0.0024219537 -0.0011626664 -0.009724746
000120 28 6a 7c 3a 62 db 8a b9 af a0 cb ba 17 80 cc ba
       0.00096288556 -0.00026484864 -0.0015535558 -0.0015602139
000130 6a 9e aa ba 4c 96 c4 3a fc 11 97 3b 04 cb af bb
       -0.0013017182 0.0014998405 0.004610298 -0.0053647775
000140 4c 88 b6 3a 29 d3 4b 3b ad 8a 1e ba 8e a6 bc 3b
       0.0013926118 0.0031101203 -0.0006047886 0.0057571596
000150 62 18 9f b9 73 90 d3 ba b3 7f 8f 3a 10 3f 9b b8
       -0.0003034501 -0.0016141072 0.0010948092 -7.402722e-05
000160 32 e0 92 bb 30 d4 8e ba 00 ef b7 3a 66 14 b4 3a
       -0.0044822926 -0.0010896977 0.001403302 0.0013738989
000170 a3 19 ad ba 93 12 2c ba 7b 62 90 39 0f 8d 67 3a
       -0.0013206493 -0.0006564047 0.00027539194 0.000883297
000180 3c 7e 1e bb 78 0d aa ba 63 c2 35 3b f9 a1 24 bb
       -0.0024184128 -0.0012973985 0.0027734272 -0.0025120957
000190 14 58 3b ba 56 2b aa ba 4f e3 4c 3a bf 59 b2 bb
       -0.00071466086 -0.0012982886 0.0007815854 -0.0054428275
0001a0 da 1b b1 ba 67 1f c3 39 97 10 8e ba f1 b6 4b 3b
       -0.0013512329 0.00037216695 -0.0010838684 0.0031084383
0001b0 a3 72 bb ba 0c d5 08 bb 74 51 2f ba e4 cf a5 ba
       -0.0014301132 -0.002087894 -0.00066878577 -0.0012650457
0001c0 e8 f4 c4 3a 91 66 d9 b9 6e ec 9e b9 48 41 de ba
       0.0015026601 -0.00041465883 -0.00030312262 -0.0016956711
0001d0 b0 40 0a bb ab 44 1e 3a 69 7b f2 ba e1 fa 99 ba
       -0.0021095686 0.0006037454 -0.0018499914 -0.0011747741
0001e0 10 eb 61 ba 8e e5 0c bc 23 97 51 bb bf 84 69 bb
       -0.0008618096 -0.008599652 -0.0031980954 -0.0035632101
0001f0 ae 64 cd 3b 89 bb c1 b8 dc 09 b1 ba 98 ba 3b 3b
       0.0062681055 -9.237888e-05 -0.0013506967 0.0028645154
000200 d4 16 b6 bc 89 24 98 bb 81 d3 0e 3c eb 79 8c 3b
       -0.022227682 -0.004643027 0.008717419 0.0042869947
000210 91 41 96 bc 94 1a 79 3d 48 7d 66 3c b5 c2 20 bd
       -0.018341811 0.060816363 0.014067955 -0.039248187
000220 94 ee 88 bc 7a 1b 58 bc 74 bd 72 bc e7 89 7d bb
       -0.016715325 -0.013190145 -0.014815677 -0.0038686933
000230 74 d5 d4 bb 6d 3d 59 3c 76 db 8f bb f7 61 c4 bb
       -0.006495172 0.013259274 -0.0043901755 -0.0059931236
000240 cb 25 92 3b 83 25 a5 3c 56 ec d7 3b 29 0b 6b 3c
       0.0044600717 0.020159489 0.0065894527 0.0143459225
000250 71 f7 c2 3b f5 f3 0f 3d 9f c6 0c bb 0f 38 0b 3c
       0.0059499075 0.035144765 -0.0021480692 0.008497252
000260 f6 ef 7d 3b ac 52 75 3c fc 47 f4 bb a1 e2 9f b8
       0.0038747764 0.014973324 -0.0074548703 -7.623924e-05
000270 9a 1d c7 3a fe 90 4f bb 72 29 80 ba 45 4e 49 bc
       0.0015191317 -0.0031672115 -0.0009777977 -0.012286727
000280 d5 fc 4a bd b0 17 54 3b 49 a6 2b bc 78 c4 8b 3c
       -0.049557526 0.0032362752 -0.010476657 0.017061457
000290 98 cf 4c 3c dc 01 2e bb be ce cc bb e6 be 6b 3c
       0.012500666 -0.0026551401 -0.0062502315 0.014388775
0002a0 d1 8c 9b 3b e7 c7 9e bc 16 99 9e bb f9 fd d1 bb
       0.0047470112 -0.01938243 -0.0048400266 -0.0064084497
0002b0 cd 0d 11 3c 1a 0b 62 bb a9 9f 5a bc 48 36 a4 3c
       0.008853388 -0.003449148 -0.01334373 0.020045415
0002c0 8e 40 4e 3c 68 97 47 3c da 0b 27 3b 80 47 0e bc
       0.012588633 0.012182094 0.0025489242 -0.008684039
0002d0 1e 62 a8 3c 3a c8 5d bc 51 14 ba bb 97 4c 51 3c
       0.020554598 -0.013536507 -0.0056786914 0.012774608
0002e0 b1 09 5d ba 5d 18 58 3b 86 79 9b bc 36 57 ab 3b
       -0.0008431925 0.0032973506 -0.018978845 0.005228902
0002f0 a3 11 28 bd 7e 4e 7a bc bf 8d be b8 af 1f b2 3c
       -0.041032445 -0.015277503 -9.086308e-05 0.021743624
000300 70 ec eb ba 11 41 80 b9 02 f5 e5 3a 78 e7 2e 3b
       -0.0017999541 -0.0002446254 0.0017544331 0.002668826
000310 3d ea 0c ba 84 ae 4d 3b 1b e5 b0 39 0c ea bb 3a
       -0.00053754804 0.0031384537 0.00033740033 0.0014336719
000320 13 da c2 39 83 b6 53 39 3b d4 29 ba 71 28 15 38
       0.0003716504 0.00020190519 -0.0006478463 3.5562032e-05
000330 20 eb e3 ba c0 d2 a0 3a ad be ab 3a a1 b9 a6 3a
       -0.0017388798 0.001226984 0.001310309 0.0012720117
000340 fd 4c c1 38 95 c4 df 3a 1c 23 21 3a 1d 1e 87 3a
       9.217297e-05 0.0017072136 0.00061468943 0.0010308657
000350 bc 6c 3b 3a 62 93 65 3a a8 d7 59 ba f6 1c 23 ba
       0.00071496866 0.00087576185 -0.00083100284 -0.0006222272
000360 01 f2 73 3b 31 f2 57 ba fd 6e ba 3a 28 1a 29 3a
       0.0037223103 -0.00082376885 0.0014223751 0.0006450736
000370 dd 0a d8 38 16 73 fb b9 a1 5e 8c 39 5d d0 2b b9
       0.00010301706 -0.00047960196 0.00026773385 -0.00016385452
000380 4e da 8b ba 7e c5 e6 b9 37 97 77 3a 7f 75 9a ba
       -0.0010669918 -0.00044016162 0.0009444835 -0.0011784284
000390 63 d3 ed 3a 56 9a 92 ba ba 75 68 ba 77 47 11 ba
       0.0018144663 -0.0011184912 -0.000886764 -0.000554196
0003a0 95 ce 44 3a ca 93 8f 3a c8 85 8f ba 79 bf 21 bb
       0.000750759 0.0010954079 -0.0010949904 -0.0024680777
0003b0 8a a9 9e 39 66 4b 94 3a 15 44 8d 3a be b0 01 3b
       0.00030262425 0.0011313974 0.0010777736 0.0019789184
0003c0 bb dd 6d 3b bd 15 f0 38 83 91 de 3a 32 37 95 ba
       0.0036295492 0.00011448141 0.0016980622 -0.0011384247
0003d0 29 1f 96 ba a7 d4 c8 39 a4 0c 04 3a 76 69 45 3a
       -0.0011453378 0.0003830541 0.0005037284 0.00075306685
0003e0 12 e4 7b 3a ba 2e f2 ba c1 b3 72 ba 33 ef 35 3b
       0.0009608875 -0.001847706 -0.0009258353 0.0027760982
0003f0 ff 20 fc ba 61 46 2d ba a8 82 cc b9 c1 75 fa 3a
       -0.0019235908 -0.00066099135 -0.0003900726 0.001910858

pre_model.lstm.weight_hh_l1 f4 [256, 64]
000000 75 01 fa b9 21 35 2d ba 82 90 21 ba 4a ff f4 b7
       -0.000476848 -0.0006607343 -0.0006163196 -2.9205945e-05
000010 68 31 4e b9 7e be d0 39 a7 fe c4 3a a6 50 20 3b
       -0.00019664096 0.0003981478 0.0015029506 0.0024462133
000020 d8 58 aa 39 47 77 70 3b 27 d7 3c 38 53 e4 8b bb
       0.0003249112 0.0036692189 4.502307e-05 -0.0042691617
000030 50 f0 17 3b 43 fe ee b9 83 64 4b b9 b2 33 3f ba
       0.002318401 -0.00045584337 -0.00019397032 -0.0007293775
000040 f4 eb ce 3a 52 08 21 3b d5 69 03 b9 40 bb 5b 39
       0.0015786872 0.002457161 -0.00012532559 0.00020955224
000050 8b 8e b3 b8 ed 92 94 ba 5d ff 05 bb 57 13 99 39
       -8.561936e-05 -0.0011335291 -0.0020446398 0.00029196843
000060 91 3a 09 bb 4b 3b c5 38 d3 8f e1 3a 50 6a f9 39
       -0.002093945 9.404736e-05 0.0017209001 0.0004757219
000070 ff cd d2 ba aa 0f 09 ba 5b 3a 3b 39 22 1a 85 3a
       -0.001608312 -0.00052284694 0.00017855449 0.0010154883
000080 5f ff c7 ba c9 29 e2 ba 2c 10 cd 3a 21 e9 5c ba
       -0.0015258602 -0.0017254885 0.0015645078 -0.0008427073
000090 75 b5 51 b9 88 9b 06 bb b7 68 1c 39 a3 46 25 3a
       -0.00019999391 -0.0020539481 0.00014916329 0.0006304776
0000a0 6d 25 01 3b 86 cd b2 ba c5 e3 9a b8 05 bf 0f b9
       0.0019706145 -0.0013641573 -7.3857176e-05 -0.00013708703
0000b0 60 18 c7 ba 55 69 2b 37 61 1f 31 3a 67 1a 18 ba
       -0.001518976 1.0216919e-05 0.000675669 -0.0005802274
0000c0 7e e2 24 3b 8b 15 0f 39 68 54 62 bb 04 5d 41 39
       0.0025159414 0.00013645568 -0.0034535173 0.00018440565
0000d0 95 75 c5 39 f4 d7 c7 b7 52 4b 35 3a 79 dc c3 b9
       0.00037662374 -2.382321e-05 0.00069158257 -0.00037357563
0000e0 05 14 a9 bb fc f2 d4 b7 a3 3d 10 b9 9a 8d c4 37
       -0.005159857 -2.5385518e-05 -0.00013755872 2.343096e-05
0000f0 46 15 43 b9 ba 8d 93 ba bb 95 6c bb b3 ef a4 ba
       -0.00018604574 -0.0011257448 -0.0036099989 -0.0012583643
000100 f3 73 d1 b9 7c d2 93 ba 99 47 b4 3a 8a 7a 8d b8
       -0.00039949975 -0.0011277939 0.0013754248 -6.7462286e-05
000110 48 f0 d2 39 a8 80 38 3a 99 24 1d 3b bf ae b7 ba
       0.00040233345 0.0007038214 0.0023978113 -0.001401387
000120 1a 2e a7 39 cf 53 ee ba f5 05 03 3b b1 4e 98 ba
       0.0003188707 -0.0018182936 0.0019992564 -0.0011620132
000130 2b d5 75 39 23 c1 c6 ba 65 89 48 ba 14 03 4a ba
       0.00023444432 -0.001516376 -0.0007649868 -0.0007706147
000140 c7 de da ba bc 03 5c 3a e6 f1 44 b9 7c 49 f7 39
       -0.0016698473 0.00083928904 -0.00018782131 0.0004716626
000150 ba 1c 95 b9 f0 89 82 39 31 16 66 3a 03 c0 3c ba
       -0.00028440898 0.00024898304 0.00087771105 -0.0007200243
000160 80 f4 5a bb 26 15 15 3a 82 cc 8f 3a 4c 4c 35 3a
       -0.0033409894 0.000568705 0.0010970982 0.0006915971
000170 f8 ee 75 39 f2 4b e7 ba 5c c2 41 39 1e 6f ce ba
       0.00023454044 -0.0017646535 0.00018478319 -0.0015749668
000180 e8 0b 99 39 43 c6 06 bb 1b a6 ea 3a e8 40 e7 3a
       0.00029191305 -0.002056495 0.0017902286 0.0017643245
000190 79 36 07 3a 7d a1 40 ba 0a ba 69 39 9d e5 00 bb
       0.00051579584 -0.00073482824 0.00022289917 -0.001966811
0001a0 b0 ab 14 3b 03 5d c9 3b a3 e5 15 ba f3 f0 eb ba
       0.0022685342 0.006145121 -0.00057181175 -0.0018000886
0001b0 97 ff 39 bb d1 53 ee 3a 65 62 cc 3a bb 28 32 ba
       -0.0028381103 0.0018182938 0.0015593289 -0.00067962304
0001c0 4a bb 8d 3b c8 36 25 b9 02 e4 98 bb 05 f0 a0 ba
       0.004325305 -0.00015756034 -0.0046658525 -0.0012278563
0001d0 23 01 2a 39 d1 6c b5 39 db 46 e6 39 ec 76 14 bb
       0.00016212887 0.00034604085 0.0004392181 -0.002265389
0001e0 ad d4 37 39 cb 01 30 bb 41 34 61 3a ad e1 d3 39
       0.00017531468 -0.0026856537 0.0008590855 0.00040413198
0001f0 9a f9 eb b9 e1 1f a0 ba 03 5e 27 ba 16 a1 4e bb
       -0.0004500866 -0.0012216532 -0.0006384553 -0.003152912
000200 3e 65 74 3a 12 21 41 3a 21 cd ad 3b fd de 32 ba
       0.00093229476 0.00073672936 0.0053039943 -0.0006823389
000210 b9 75 b8 3a ec 03 db 3b 53 66 1a 3a 34 4e 2e bc
       0.001407317 0.006683817 0.0005889881 -0.010638762
000220 22 5f 54 bb de e8 d0 3c aa 46 40 3c 31 12 2d bc
       -0.0032405336 0.025501665 0.011735598 -0.010563419
000230 94 f7 55 bc a4 d3 8f 3b fb d0 6d 3a 48 68 09 3b
       -0.0130595155 0.004389243 0.0009071973 0.0020966697
000240 22 63 17 3c eb 38 4f 3c 3e 0b fc ba ec f2 a2 ba
       0.009239944 0.012647848 -0.0019229425 -0.0012432016
000250 7e 8a 93 3b 9f 46 a4 3b e4 46 89 bc de 46 39 ba
       0.0045025935 0.0050133015 -0.016757436 -0.000706775
000260 dc bd a2 ba b7 0f 54 3b d1 af 5f 3b 43 12 95 39
       -0.0012416202 0.0032358 0.0034131894 0.000284331
000270 b7 28 c1 3b 51 41 54 3c f7 e0 96 ba 44 b5 df bb
       0.005894746 0.012955026 -0.0011511137 -0.0068270285
000280 91 f6 71 3b 6b 9c 91 3b 3a c7 93 3a eb 79 a1 39
       0.0036920647 0.0044436953 0.0011274584 0.0003079915
000290 78 2c 4d b8 0e 26 dc 3c 84 83 75 ba e7 14 30 ba
       -4.8917223e-05 0.026873615 -0.00093656057 -0.0006716982
0002a0 47 8c 1e bc 64 db 1a 3c 05 e3 c4 3a 71 97 40 38
       -0.009676999 0.009451721 0.001502127 4.5917408e-05
0002b0 3e 60 53 bc 9d 6e 90 ba df e6 6e bc e8 d3 bc ba
       -0.012901364 -0.0011019293 -0.014581411 -0.0014406415
0002c0 65 a9 75 bc 94 f2 61 3a cf 70 02 3c 73 57 c4 bb
       -0.014994 0.0008619216 0.007961466 -0.00599187
0002d0 54 69 d8 ba 69 cf b8 39 76 80 52 3b da b4 39 bc
       -0.0016510882 0.00035249747 0.0032120026 -0.011334622
0002e0 97 23 46 3c 8b b7 6e bc fd c2 ab 3a 2d ec ca ba
       0.012093446 -0.014570127 0.0013104376 -0.0015481763
0002f0 9f f4 08 ba fd f6 a3 3b 03 94 91 3b d6 4d 93 bc
       -0.00052244397 0.0050038085 0.004442693 -0.017981451
000300 e0 c3 fa b8 99 5f 8f b9 f8 98 92 39 bf 60 b2 b9
       -0.000119574135 -0.0002734631 0.0002796126 -0.00034022887
000310 d9 0b f5 38 90 34 7d 39 cb 13 e4 3a b5 8c 7d 3a
       0.00011684717 0.00024147541 0.0017400918 0.0009672151
000320 26 d1 e5 38 70 b9 b2 3a fb a6 9e 38 94 8b 1a bb
       0.00010958528 0.0013635587 7.5651296e-05 -0.002358173
000330 4e 91 5a 3a 72 05 15 ba 93 88 f2 b9 43 57 e0 39
       0.0008337692 -0.00056847103 -0.00046259593 0.00042789624
000340 3d ca ee 3a f0 24 bf 3a e7 c6 c2 b8 14 4e a4 39
       0.0018218231 0.0014583152 -9.287689e-05 0.0003133869
000350 08 68 a0 b9 9c 7c f1 39 b8 90 8d ba 7c 2f 5b 39
       -0.00030595087 0.00046059943 -0.0010800576 0.00020903157
000360 39 84 d5 b9 79 d8 44 3a e4 39 e4 ba df 49 88 39
       -0.0004072504 0.00075090636 -0.0017412272 0.0002599498
000370 d7 91 9f ba d3 be 51 39 72 be 78 b9 29 2f af ba
       -0.0012174201 0.00020002881 -0.0002372207 -0.0013365495
000380 dd 9c 3a 39 8d e0 82 b9 7b dc 99 3a e8 72 8f ba
       0.00017796778 -0.00024962836 0.0011738682 -0.0010944279
000390 8e 89 4a 39 ae 10 95 ba ca 98 e5 b9 dc ea 12 3a
       0.00019315464 -0.0011372769 -0.0004379212 0.0005604455
0003a0 2b 09 2c 39 78 7d e2 b9 8c 8f 32 b8 c6 42 04 3a
       0.00016406614 -0.0004319956 -4.2572196e-05 0.00050453504
0003b0 7d 51 ad b9 cd b0 e8 b9 d0 51 ea 39 60 f9 38 37
       -0.00033057845 -0.00044382215 0.00044692913 1.1025317e-05
0003c0 87 bd 72 3a c4 e0 78 39 4c 8a 83 bb d8 5f 23 3a
       0.0009259809 0.00023734855 -0.004014289 0.00062322384
0003d0 d4 af 0b b9 38 dd 39 b8 af fb 02 3a 88 0a dd 38
       -0.00013321574 -4.4313463e-05 0.000499661 0.00010540063
0003e0 91 81 2e bb a4 0a 05 ba 5a 44 81 ba c3 3b b6 b9
       -0.002662752 -0.0005075133 -0.0009862289 -0.0003475827
0003f0 e3 93 27 ba 06 f8 0f 37 b9 49 d2 ba e1 13 4a 39
       -0.0006392581 8.581212e-06 -0.00160437 0.00019271627
