experiments/lstm/final_model_s1.pt (torch, 408006 bytes, 33 tensors)

pre_model.start_conv.weight f4 [32, 2, 1, 1]
0.35351798 -0.31120527 -0.1434121 0.64438844 -0.6076141 0.5383823 -0.097092554 0.50526035
0.045970663 0.13387886 0.16159485 0.039897308 0.26530704 -0.47196215 -0.0689282 0.09581368
0.18023664 -0.04231251 0.61679786 0.32821926 -0.26194578 -0.56681305 -0.057049982 -0.52070576
-0.21552745 0.20002933 0.44988406 0.5297668 -0.7104308 0.5300667 0.26458773 0.74820334
0.46452662 -0.6448463 -0.70867586 -0.4337136 0.57230306 -0.17343259 0.23486818 -0.37759268
0.6884788 -0.32484183 0.4990317 0.18332794 -0.4317318 0.47795895 -0.2674064 0.088106774
-0.09729739 0.0065304935 -0.6695393 -0.47385934 0.37116674 -0.29383683 0.6910057 0.81180316
-0.037907623 -0.828249 0.43279755 0.2132492 -0.47184193 0.63007087 0.42422894 0.8271358
00000000: 4f00 b53e 4c56 9fbe 9fda 12be a4f6 243f
00000010: 998c 1bbf 6cd3 093f 76d8 c6bd be58 013f
00000020: bc4b 3c3d 8a17 093e 1f79 253e 5c6b 233d
00000030: 53d6 873e 06a5 f1be 3a2a 8dbd f639 c43d
00000040: f48f 383e e24f 2dbd 77e6 1d3f 5b0c a83e
00000050: c21d 86be a91a 11bf 3ead 69bd f94c 05bf
00000060: 3ab3 5cbe 7dd4 4c3e 3457 e63e cc9e 073f
00000070: cbde 35bf 74b2 073f 0b78 873e 418a 3f3f
00000080: 6fd6 ed3e a614 25bf c86b 35bf b50f debe
00000090: 7482 123f 5098 31be 4981 703e d453 c1be
000000a0: 2640 303f ab51 a6be 1581 ff3e 52ba 3b3e
000000b0: f30b ddbe 09b7 f43e 7ee9 88be 5371 b43d
000000c0: db43 c7bd c0fd d53b ed66 2bbf b19d f2be
000000d0: 9109 be3e c871 96be c0e5 303f 55d2 4f3f
000000e0: 0645 1bbd 2008 54bf a497 dd3e 005e 5a3e
000000f0: 4495 f1be 534c 213f 8934 d93e 2cbf 533f

pre_model.start_conv.bias f4 [32]
-0.23618978 -0.20107277 -0.087696835 -0.010710197 -0.3632071 -0.4146516 0.40844545 -0.09417487
0.30185887 0.0422415 0.2693585 0.1850875 0.14454745 0.2728148 -0.7098364 0.34823897
-0.4002002 -0.53877676 0.09420318 0.012239628 0.43886426 -0.33212572 -0.6892526 0.2631075
-0.06184907 0.35827902 0.2977335 -0.5331347 0.17882189 0.17762099 -0.53079545 -0.31626466
00000000: bcdb 71be 05e6 4dbe 669a b3bd d279 2fbc
00000010: 48f6 b9be 374d d4be c31f d13e c1de c0bd
00000020: 3f8d 9a3e 6c05 2d3d 5be9 893e 9487 3d3e
00000030: 3f04 143e 62ae 8b3e d7b7 35bf 614c b23e
00000040: 0ae7 ccbe 46ed 09bf 99ed c03d b888 483c
00000050: d1b2 e03e 620c aabe dc72 30bf 07b6 863e
00000060: 7355 7dbd 5970 b73e 8670 983e 847b 08bf
00000070: 161d 373e 47e2 353e 36e2 07bf 71ed a1be

pre_model.lstm.weight_ih_l0 f4 [256, 32]
-0.027436858 0.009583641 -0.008210331 0.024030628 -0.036231544 -0.042454753 0.031388104 -0.009657228
0.039539468 0.033184137 -0.0019300511 -0.008015192 0.02263398 0.061268117 -0.08200748 0.067719534
-0.031298764 -0.09158405 0.021411056 -0.013407358 0.059699107 -0.010188439 -0.07086484 0.026591238
-0.011089985 0.00086527877 0.031031646 -0.016164158 -0.021440545 0.041432604 -0.044817343 0.0078406595
-0.090629935 0.011894284 0.044906028 0.042237703 -0.07239966 -0.095186196 0.044601783 -0.011251042
0.05888117 0.017067512 0.02140046 0.0002126282 0.055884887 0.09061103 -0.09190095 0.13152616
-0.1590623 -0.1334413 -0.011587862 -0.03565867 0.049132332 -0.07530602 -0.100762166 0.07543704
-0.010726596 0.06238889 0.030941145 -0.07387251 -0.026988281 0.04386307 -0.051973633 -0.015614447
-0.014654128 -0.010697365 -0.014685289 0.004631967 -0.025538541 -0.02723541 0.034407854 -0.0074346624
0.028608685 0.027043398 0.0047653387 0.005628599 0.00868722 0.043420687 -0.06654497 0.047862865
-0.02890119 -0.0680767 0.021371434 0.001782342 0.048863154 -0.008097092 -0.05871961 0.015281347
-0.007386965 0.00063413545 0.03015962 -0.006548149 -0.00069813314 0.030018486 -0.04713561 0.0019164896
-0.1005408 0.018854473 0.05561679 0.049546737 -0.07615225 -0.10164865 0.042323574 -0.011417784
0.061322715 0.015956083 0.019906014 -0.0043914528 0.061994582 0.09620461 -0.08867991 0.1423322
-0.17550752 -0.13855776 -0.017500639 -0.042009603 0.044880442 -0.08187033 -0.10036862 0.082501
-0.011671447 0.06733898 0.028192867 -0.077392206 -0.035365757 0.045010675 -0.04731404 -0.013629096
-0.060185 0.007231591 0.015461092 0.031620014 -0.053836044 -0.06851454 0.04135282 -0.010161352
0.051570367 0.0384808 0.0033764222 -0.0046222904 0.036643818 0.090398744 -0.0967183 0.11588486
-0.112607665 -0.13348906 0.01195968 -0.021165503 0.06347165 -0.040338594 -0.092001155 0.050631654
-0.011641398 0.02406747 0.036008887 -0.032326214 -0.026050387 0.051837742 -0.054901503 0.0074773403
0.016826691 -0.02595265 -0.04032015 -0.017683024 -0.004475639 -0.0017727329 0.02892491 -0.0063269613
0.016413126 -0.01328647 0.024489647 0.019573463 -0.0054311813 -0.021620313 -0.036161344 -0.00072495145
0.031910382 0.030366778 0.016516514 0.01605033 0.0087908935 0.0006811301 -0.05615046 -0.0035773194
-0.0052971006 0.014254794 0.03744639 -0.012838074 0.033454046 -0.0037084615 -0.065058835 -0.012856117
-0.10455827 0.029242488 0.055432588 0.059699193 -0.080572195 -0.105385974 0.03674381 -0.009047307
0.06301184 0.026022447 0.012912673 -0.010621831 0.06893316 0.108489774 -0.08663351 0.16069828
-0.16598293 -0.1529105 -0.015567872 -0.051249534 0.0454467 -0.07079017 -0.09854151 0.08820556
-0.011011986 0.044549525 0.024296843 -0.0531334 -0.047771536 0.05033947 -0.04017402 -0.00073462125
-0.005524406 -0.01909119 -0.028578844 -0.003333263 -0.025404852 -0.025389422 0.03915073 -0.008880974
0.0283824 0.022426661 0.0106753865 0.010929642 0.004254109 0.030133473 -0.072020374 0.026950942
-0.011226611 -0.057458445 0.026746185 0.008192525 0.05220633 -0.0074743996 -0.06480704 0.011713959
-0.008107205 0.003272884 0.034330312 -0.0174348 0.011654791 0.026461435 -0.054601602 -0.00973508
00000000: 43c3 e0bc b404 1d3c a084 06bc e1db c43c
00000010: 8767 14bd 09e5 2dbd d090 003d 5a39 1ebc
00000020: 23f4 213d 17ec 073d c5f9 fcba 2752 03bc
00000030: e56a b93c 47f4 7a3d 8af3 a7bd 8ab0 8a3d
00000040: 2233 00bd 6b90 bbbd 3d66 af3c 89aa 5bbc
00000050: 0d87 743d 69ed 26bc 9621 91bd ded5 d93c
00000060: c5b2 35bc e0d3 623a 1436 fe3c b26a 84bc
00000070: 15a4 afbc 3cb5 293d 6492 37bd 1c76 003c
00000080: 309c b9bd 3ee0 423c 62ef 373d 7101 2d3d
00000090: 4646 94bd fbf0 c2bd 5cb0 363d 4a56 38bc
000000a0: 622d 713d 2bd1 8b3c 0450 af3c f3f4 5e39
000000b0: 8de7 643d 4792 b93d 9136 bcbd cbae 063e
000000c0: 3ae1 22be d6a4 08be 04db 3dbc d30e 12bd
000000d0: fc3e 493d 0b3a 9abd 655c cebd bc7e 9a3d
000000e0: 9bbe 2fbc 7e8b 7f3d 4978 fd3c 784a 97bd
000000f0: 8716 ddbc c3a9 333d 4ee2 54bd bdd3 7fbc
00000100: de17 70bc 0044 2fbc 919a 70bc c1c7 973b
00000110: 3436 d1bc cb1c dfbc 40ef 0c3d 789e f3bb
00000120: c35c ea3c 1e8a dd3c 8f26 9c3b 1c70 b83b
00000130: d754 0e3c e4d9 313d bb48 88bd da0b 443d
00000140: 30c2 ecbc cc6b 8bbd 2513 af3c 799d e93a
00000150: bb24 483d aaa9 04bc f983 70bd 9d5e 7a3c
00000160: 5b0e f2bb 1c3c 263a 4f11 f73c db91 d6bb
00000170: ec02 37ba 54e9 f53c 4511 41bd b832 fb3a
00000180: 56e8 cdbd b274 9a3c 6ece 633d 85f1 4a3d
00000190: b6f5 9bbd 2b2d d0bd 7c5b 2d3d a811 3bbc
000001a0: 872d 7b3d 55b6 823c f011 a33c 2de6 8fbb
000001b0: 08ee 7d3d ec06 c53d d09d b5bd 88bf 113e
000001c0: 3eb8 33be 16e2 0dbe 805d 8fbc 4312 2cbd
000001d0: 8ed4 373d a2ab a7bd 108e cdbd 49f6 a83d
000001e0: 9939 3fbc 05e9 893d baf4 e63c ce7f 9ebd
000001f0: afdb 10bd 1d5d 383d 5ecc 41bd 924c 5fbc
00000200: 8c84 76bd fbf6 ec3b 8550 7d3c fd83 013d
00000210: 2f83 5cbd 5a51 8cbd 9361 293d cd7b 26bc
00000220: 733b 533d 0b9e 1d3d f746 5d3b 9576 97bb
00000230: d417 163d fa22 b93d 3e14 c6bd 0b55 ed3d
00000240: d99e e6bd 5bb1 08be 89f2 433c 4763 adbc
00000250: 6dfd 813d 153a 25bd 1a6b bcbd 2363 4f3d
00000260: 90bb 3ebc 2529 c53c 0e7e 133d 7e68 04bd
00000270: 9f67 d5bc d053 543d 66e0 60bd 7a04 f53b
00000280: 21d8 893c a79a d4bc be26 25bd fddb 90bc
00000290: 62a8 92bb 0c5b e8ba eff3 ec3c 6652 cfbb
000002a0: d274 863c 7faf 59bc 839e c83c 8758 a03c
000002b0: 0df8 b1bb 151d b1bc eb1d 14bd ab0a 3eba
000002c0: 76b4 023d c0c3 f83c a44d 873c fb7b 833c
000002d0: ae07 103c de8d 323a 06fe 65bd 7671 6abb
000002e0: 4d93 adbb f18c 693c 6361 193d c956 52bc
000002f0: 1c07 093d a909 73bb 913d 85bd 77a2 52bc
00000300: a522 d6bd f18d ef3c 480d 633d 2487 743d
00000310: 0903 a5bd 9ad4 d7bd ad80 163d 283b 14bc
00000320: 5a0c 813d 072d d53c ad8f 533c 3007 2ebc
00000330: d42c 8d3d e32f de3d e96c b1bd 178e 243e
00000340: 6ef7 29be 9294 1cbe 6310 7fbc 08eb 51bd
00000350: 5226 3a3d 70fa 90bd 22d0 c9bd 1ea5 b43d
00000360: 9e6b 34bc 9079 363d 2c0a c73c 68a2 59bd
00000370: 16ac 43bd c330 4e3d 838d 24bd 9993 40ba
00000380: 1406 b5bb 2165 9cbc 2e1e eabc e072 5abb
00000390: d61d d0bc 7afd cfbc 845c 203d 8181 11bc
000003a0: 3582 e83c 1eb8 b73c d1e7 2e3c 3e12 333c
000003b0: 0e66 8b3b 79da f63c 6b7f 93bd 39c8 dc3c
000003c0: d2ef 37bc 8c59 6bbd d11a db3c f139 063c
000003d0: 4ed6 553d cfeb f4bb 8eb9 84bd e8eb 3f3c
000003e0: 15d4 04bc e27d 563b f19d 0c3d 6dd3 8ebc
000003f0: bdf3 3e3c a7c5 d83c eea5 5fbd e37f 1fbc

pre_model.lstm.weight_hh_l0 f4 [256, 64]
0.03857465 0.004186282 0.047022495 0.006330909 0.060147572 -0.014121064 -0.0053441375 -0.04299753
0.0055650775 0.014017057 -0.004296401 -0.013231619 -0.038520817 0.013055565 0.015770271 -0.03870186
-0.040287968 -0.039103113 -0.0017295989 0.012007368 0.008242405 -0.013315939 -0.0057972413 -0.00064821815
-0.0058113635 -0.0065942234 -0.02619973 0.023738297 0.056573845 -0.0018892227 -0.026014771 0.020946292
0.04968286 -0.031877797 -0.035254132 -0.002697913 0.0041649584 0.018732196 0.00440786 0.016659852
-0.0036387853 0.012438166 0.022846328 -0.05229723 0.059049226 0.0067124153 0.015163209 0.0016934548
0.0051186853 -0.007415054 -0.021866005 0.020739019 -0.0034967829 -0.0037311113 0.04506708 -0.01411668
0.021170113 -0.018399114 -0.029988224 0.010211494 -0.00042534102 -0.020276118 -0.03743731 0.059380006
-0.025174584 0.0036223086 -0.012936382 -0.00021935413 0.0090051545 0.0022194667 -0.0015956872 0.012264352
-0.015495851 -0.05373868 0.008495617 -0.015062808 0.011991987 -0.011061318 -0.008623436 -0.08763635
0.05285606 0.01150568 0.017407658 0.0033767652 0.017052703 -0.051992804 -0.004210999 -0.0068932776
0.0039701094 -0.066745825 -0.027263382 0.0063811294 -0.036871266 -0.030209044 -0.032293737 0.04908659
-0.01994221 0.0045747217 0.0070733535 -0.0031460377 -0.0020798314 0.056592576 0.014791612 0.014173546
0.001020533 0.0045118653 -0.0004538313 0.06933816 -0.04153834 -0.007067832 0.005780072 0.0038275812
-0.021502692 0.001189248 -0.014157694 0.015821353 0.013922782 0.0034957824 -0.014423302 0.009331493
0.00739285 0.0018847521 -0.023254242 -0.015309582 -0.015869161 0.013642151 -0.014472314 -0.022946669
0.006268899 -0.0010803076 0.010829351 0.0071663475 0.019027261 -0.0056778714 -0.0069786054 -0.02274709
-0.0024106498 -0.03212823 -0.00023545283 -0.010574416 -0.005555219 -0.0059765032 0.0054088556 -0.02006126
-0.036881812 -0.008628948 0.0050242 0.019912373 0.009003698 -0.008861281 0.001512586 -0.0007227061
-0.0047656978 -0.0027718397 0.020187283 0.0058267806 0.0075662485 0.04209992 0.008672676 0.009197173
0.01255993 -0.0065815416 -0.041315667 0.0020470016 0.0047433395 0.018633679 0.008230643 0.010471854
0.0011361579 0.008432324 0.013531037 -0.015860943 0.00039461392 0.0023556415 0.008890207 -0.0015429116
0.0020549097 -0.0059089893 -0.018569788 0.014870369 0.006569623 -0.0031637358 0.0005815744 0.0061062374
0.014099561 -0.00075421826 -0.015758762 -0.0015223451 -0.0039932337 0.014562394 -0.014796974 0.016765494
-0.037736394 0.01941919 -0.01171413 -0.018629078 0.017927524 -0.0082417885 0.018082626 0.007974114
-0.022872629 -0.065691255 -0.00045919511 -0.024945194 0.029301113 -0.011263774 -0.00042309207 -0.091590546
0.06951382 0.020419508 0.026824271 0.019003568 0.023803387 -0.04901144 -0.019797215 -0.021437112
0.02048888 -0.074636824 -0.0041415654 0.020164395 -0.03937441 -0.04682334 -0.0351338 0.04389968
-0.020599388 -0.013508165 0.0017376419 -0.01970519 -0.018561779 0.060310982 0.022014866 0.024118809
-0.008211646 0.013155505 0.0036947397 0.08737811 -0.050424386 -0.021832218 0.014290132 0.021429652
-0.01624727 -0.0073772646 -0.03507217 0.027522203 0.019267635 0.01853883 -0.039318986 0.008470458
0.027022678 0.018148152 -0.036025703 -0.022910418 -0.025182974 0.015379554 -0.022562902 -0.007206715
00000000: 7400 1e3d 142d 893b a99a 403d 8473 cf3b
00000010: 4d5d 763d 095c 67bc e01d afbb 2e1e 30bd
00000020: 415b b63b cca7 653c d3c8 8cbb 6fc9 58bc
00000030: 01c8 1dbd 02e7 553c a830 813c d785 1ebd
00000040: ff04 25bd 962a 20bd b5b3 e2ba 8dba 443c
00000050: 270b 073c 192b 5abc c9f6 bdbb 2fed 29ba
00000060: 406d bebb 5b14 d8bb d1a0 d6bc d176 c23c
00000070: fab9 673d cb9f f7ba ee1c d5bc 8f97 ab3c
00000080: 4180 4b3d 4b92 02bd a366 10bd 78cf 30bb
00000090: 347a 883b 4374 993c cf6f 903b 3e7a 883c
000000a0: b078 6ebb 73c9 4b3c 3928 bb3c 9f35 56bd
000000b0: 9add 713d d2f3 db3b 1c6f 783c eaf6 dd3a
000000c0: a5ba a73b fbf9 f2bb 5620 b3bc e0e4 a93c
000000d0: 482a 65bb a985 74bb 4298 383d a649 67bc
000000e0: f26c ad3c bdb9 96bc dda9 f5bc 1c4e 273c
000000f0: 4e00 dfb9 1a1a a6bc dd57 19bd 7338 733d
00000100: ee3a cebc 4164 6d3b 1ef3 53bc 6d02 66b9
00000110: 5b8a 133c 7974 113b 6126 d1ba 6cf0 483c
00000120: 4fe2 7dbc 171d 5cbd 3331 0b3c ffc9 76bc
00000130: 0a7a 443c 883a 35bc 5049 0dbc b07a b3bd
00000140: 997f 583d 5282 3c3c 819a 8e3c b84c 5d3b
00000150: 1cb2 8b3c 68f6 54bd 6bfc 89bb 01e1 e1bb
00000160: b117 823b 09b2 88bd 7557 dfbc cb18 d13b
00000170: 5306 17bd f578 f7bc 7046 04bd 050f 493d
00000180: d85d a3bc 8ce7 953b 97c7 e73b c12d 4ebb
00000190: c84d 08bb 9ecd 673d 8458 723c 2938 683c
000001a0: 68c3 853a 45d8 933b 35f0 edb9 2a01 8e3d
000001b0: 1b24 2abd 4699 e7bb c266 bd3b 28d8 7a3b
000001c0: 6a26 b0bc 8be0 9b3a acf5 67bc c89b 813c
000001d0: 611c 643c 7f19 653b b74f 6cbc 1ee3 183c
000001e0: b83f f23b c909 f73a ae7f bebc 0bd5 7abc
000001f0: 0b00 82bc 5483 5f3c 491d 6dbc a7fa bbbc
00000200: 566b cd3b 1c99 8dba 976d 313c aed3 ea3b
00000210: 0fdf 9b3c 700d babb c9ac e4bb 1b58 babc
00000220: fefb 1dbb e498 03bd e3e3 76b9 5140 2dbc
00000230: 8e08 b6bb 8bd6 c3bb c53c b13b 8357 a4bc
00000240: 6211 17bd 6e60 0dbc 0ba2 a43b 461f a33c
00000250: 3f84 133c e82e 11bc f741 c63a fc73 3dba
00000260: 9229 9cbb c1a7 35bb cd5f a53c 94ee be3b
00000270: 4bee f73b f770 2c3d d717 0e3c bdaf 163c
00000280: 2ac8 4d3c f9a9 d7bb 9e3a 29bd fd26 063b
00000290: 046e 9b3b a8a5 983c d2d9 063c 2492 2b3c
000002a0: 22eb 943a bb27 0a3c 48b1 5d3c cfee 81bc
000002b0: 2fe4 ce39 1b61 1a3b 3ba8 113c 863b caba
000002c0: aaab 063b 32a0 c1bb ab1f 98bc d9a2 733c
000002d0: fe45 d73b ae56 4fbb cc74 183a d516 c83b
000002e0: d801 673c bbb6 45ba 8518 81bc 6d89 c7ba
000002f0: acd9 82bb 1b97 6e3c 026f 72bc ca57 893c
00000300: 7a91 1abd fe14 9f3c 9fec 3fbc 029c 98bc
00000310: bedc 923c 9108 07bc 0422 943c dca5 023c
00000320: 615f bbbc 2389 86bd 20c0 f0b9 dd59 ccbc
00000330: e308 f03c b18b 38bc 75d2 ddb9 d393 bbbd
00000340: 435d 8e3d d046 a73c 93be db3c 5fad 9b3c
00000350: 52ff c23c 38c0 48bd c52d a2bc e29c afbc
00000360: 4cd8 a73c 31db 98bd f8b5 87bb cd2f a53c
00000370: 1047 21bd d5c9 3fbd 76e8 0fbd 27d0 333d
00000380: 0cc0 a8bc 5a51 5dbc 96c1 e33a c76c a1bc
00000390: df0e 98bc a608 773d 8558 b43c cf94 c53c
000003a0: 248a 06bc 308a 573c 7223 723b 4bf3 b23d
000003b0: cd89 4ebd 7bd9 b2bc 2821 6a3c 3d8d af3c
000003c0: ff18 85bc fbbc f1bb d6a7 0fbd 3e76 e13c
000003d0: 29d7 9d3c bfde 973c f20c 21bd adc7 0a3c
000003e0: aa5e dd3c 6fab 943c b08f 13bd a1ae bbbc
000003f0: 864c cebc 86fa 7b3c d6d5 b8bc 4f26 ecbb

pre_model.lstm.bias_ih_l0 f4 [256]
0.0878676 0.22485863 0.0742529 0.23755656 0.17840649 0.03102601 0.23318323 0.05553591
0.08036573 0.009092138 0.029348833 0.031641837 0.13933456 0.010516787 0.015862264 0.05763647
0.255389 0.008817858 0.106072426 0.07639814 0.025477286 0.01614742 0.22319326 0.20185095
0.22350621 -0.028663011 0.01812638 0.2030445 -0.022287443 0.21869442 0.07852888 0.06002841
0.033654455 0.21178606 0.045087695 0.23006514 0.22626151 0.025484322 0.03441986 0.018793833
0.061442927 0.046063606 0.0074318433 0.0991705 0.0967278 0.2051761 -0.0032970665 0.22685617
0.043412503 0.06360509 0.008439942 0.021585701 0.055533055 0.21412924 0.034628052 -0.017416371
-0.017409002 -0.013996153 0.1455773 0.06412694 0.10839314 0.00504061 0.13575235 0.14163224
-0.00829364 -0.047140017 -0.0020774256 -0.020142714 -0.0021161146 -0.03414592 0.03675314 -0.01723857
-0.040614855 0.2126646 -0.039502963 -0.04452868 0.0067604217 -0.052242953 0.014947185 0.13481325
0.09029053 0.0021130175 -0.0395579 0.071910724 -0.04948347 0.053724658 -0.041771766 -0.060149904
-0.037382115 0.25048068 0.22960626 -0.040639836 0.012284051 0.2564188 -0.08085247 0.118040584
-0.060894143 0.06537065 0.069269136 -0.026356664 -0.04055973 0.0063205594 -0.03590856 -0.04616207
-0.04803939 -0.03637067 -0.030063583 0.06953091 0.057005957 -0.057001434 -0.047322307 -0.038721025
0.038134556 -0.044667535 -0.0053586857 -0.050770734 -0.01439173 -0.050293576 0.17326462 -0.080230005
0.001976166 0.0052240295 0.041721854 -0.041046288 -0.050211854 -0.015490228 -0.060252007 -0.01323056
0.11162103 0.070434 0.011768653 0.08562597 -0.039553132 -0.04850027 0.057751924 -0.07106175
-0.03380993 -0.018421357 0.021393286 0.01037168 -0.03228668 0.08552986 0.046674166 0.025049793
0.11897482 0.01620286 0.028865173 0.08911388 0.09058161 -0.053959936 0.018560382 0.036081806
-0.027157033 0.09885024 -0.0362158 0.07569816 -0.19240612 -0.024333414 -0.1446492 0.14468983
-0.05074031 -0.01819985 -0.05265964 0.08797418 -0.066419736 -0.0099560255 -0.06564945 0.030336695
0.047982898 0.038264893 0.0638019 -0.111368164 0.07025574 0.065080814 0.0017892463 0.01626185
-0.06519928 0.040469997 -0.01384055 -0.007161021 -0.049662173 0.015565519 0.04093347 -0.12460358
-0.05890533 -0.014942885 -0.004604868 0.12987141 0.08474283 -0.13459569 -0.103111625 -0.014885924
0.10138598 0.24461389 0.07714251 0.25702876 0.19948544 0.034954283 0.24864845 0.07611079
0.09226728 0.05419434 0.03680288 0.055668492 0.14343195 0.011861876 0.06621015 0.10034597
0.14530611 0.09993021 0.11868226 0.13740072 0.050284714 0.06594275 0.24240929 0.21943745
0.23949265 0.12962057 0.17408171 0.22365353 0.069574684 0.09089202 0.006663578 0.019677695
0.054549333 0.25352305 0.0163688 0.24728847 0.24016249 0.042736396 0.056006353 0.0519673
0.074703075 0.060528852 0.023201564 0.15086813 0.13129324 0.22149214 0.036046393 0.24868807
0.022036994 0.07747326 0.0369099 0.065827586 0.07062038 0.23061788 0.14297995 0.023662444
0.081147745 0.07037467 0.17923754 0.07052335 0.12265003 -0.003683822 0.15722708 0.14890704
00000000: eef3 b33d 5741 663e e811 983d 0742 733e
00000010: 31b0 363e 422a fe3c 96c7 6e3e 9f79 633d
00000020: ca96 a43d 31f7 143c f76c f03c df9a 013d
00000030: b8ad 0e3e 9a4e 2c3c 94f1 813c 3814 6c3d
00000040: 59c2 823e c778 103c 803c d93d a176 9c3d
00000050: beb5 d03c 9847 843c c68c 643e 04b2 4e3e
00000060: d0de 643e b1ce eabc c67d 943c e6ea 4f3e
00000070: 2894 b6bc 6ef1 5f3e c0d3 a03d 5ae0 753d
00000080: 41d9 093d 72de 583e e0ad 383d 3296 6b3e
00000090: 19b1 673e 7fc4 d03c d7fb 0c3d 86f5 993c
000000a0: 94ab 7b3d 31ad 3c3d d286 f33b e719 cb3d
000000b0: 3a19 c63d af19 523e 9913 58bb fc4c 683e
000000c0: 4fd1 313d 6343 823d af47 0a3c 7fd4 b03c
000000d0: a176 633d b244 5b3e 25d6 0d3d c7ac 8ebc
000000e0: 539d 8ebc 1f50 65bc 3712 153e fc54 833d
000000f0: 39fd dd3d b42b a53b aa02 0b3e 0b08 113e
00000100: 0ce2 07bc e415 41bd 6b25 08bb 5502 a5bc
00000110: 83ae 0abb 98dc 0bbd 768a 163d e737 8dbc
00000120: c35b 26bd c0c4 593e dccd 21bd b563 36bd
00000130: 8786 dd3b b5fc 55bd 0ae5 743c 7c0c 0a3e
00000140: 3eea b83d 8d7a 0a3b 7707 22bd ee45 933d
00000150: 2eaf 4abd 630e 5c3d df18 2bbd bf5f 76bd
00000160: fd1d 19bd 013f 803e e71d 6b3e f575 26bd
00000170: 0b43 493c 5349 833e fb95 a5bd 43bf f13d
00000180: 236c 79bd 0ce1 853d fadc 8d3d eee9 d7bc
00000190: f621 26bd b21c cf3b db14 13bd 7014 3dbd
000001a0: f4c4 44bd 69f9 14bd e747 f6bc 3966 8e3d
000001b0: 147f 693d 567a 69bd 09d5 41bd f099 1ebd
000001c0: fb32 1c3d 4ef5 36bd ea97 afbb f9f4 4fbd
000001d0: 4acb 6bbc a300 4ebd 486c 313e a14f a4bd
000001e0: 9082 013b 562e ab3b 89e4 2a3d 2720 28bd
000001f0: f2aa 4dbd baca 7dbc cfca 76bd fec4 58bc
00000200: 9199 e43d b33f 903d 4fd1 403c ab5c af3d
00000210: 7702 22bd 38a8 46bd 488d 6c3d d388 91bd
00000220: 487c 0abd 63e8 96bc f940 af3c fbed 293c
00000230: 0a3f 04bd 472a af3d 692d 3f3d 3935 cd3c
00000240: 12a9 f33d dcbb 843c a876 ec3c 5781 b63d
00000250: da82 b93d 1805 5dbd f10b 983c 84ca 133d
00000260: 6d78 debc ff71 ca3d 0557 14bd a307 9b3d
00000270: 1c06 45be de56 c7bc eb1e 14be 9229 143e
00000280: 12d5 4fbd da17 95bc a2b1 57bd cf2b b43d
00000290: 1207 88bd 991e 23bc 3873 86bd a984 f83c
000002a0: b789 443d a6bb 1c3d 92aa 823d fe14 e4bd
000002b0: 3ee2 8f3d 1749 853d 2585 ea3a 9237 853c
000002c0: 3387 85bd dec3 253d 79c3 62bc 00a7 eabb
000002d0: 906a 4bbd 8506 7f3c dba9 273d 2930 ffbd
000002e0: b746 71bd 01d3 74bc 6fe4 96bb 03fd 043e
000002f0: a68d ad3d 74d3 09be 302c d3bd 17e4 73bc
00000300: 74a3 cf3d 107c 7a3e e4fc 9d3d 4699 833e
00000310: e945 4c3e 392c 0f3d b39d 7e3e f9df 9b3d
00000320: a1f6 bc3d e2fa 5d3d 9ebe 163d a504 643d
00000330: d3df 123e 5058 423c 3099 873d 3082 cd3d
00000340: 20cb 143e 36a8 cc3d af0f f33d c6b2 0c3e
00000350: 58f7 4d3d fe0c 873d 243a 783e 36b4 603e
00000360: 903d 753e 41bb 043e 7a42 323e 6e05 653e
00000370: 2c7d 8e3d 9825 ba3d 255a da3b 1e33 a13c
00000380: 1f6f 5f3d c6cd 813e dd17 863c 3039 7d3e
00000390: 28ed 753e 5c0c 2f3d eb66 653d aadb 543d
000003a0: edfd 983d 1aed 773d 3511 be3c 2d7d 1a3e
000003b0: bc71 063e d6ce 623e 62a5 133d 16a8 7e3e
000003c0: ed86 b43c 4daa 9e3d d62e 173d 9dd0 863d
000003d0: 6ba1 903d 1827 6c3e 5669 123e bed7 c13c
000003e0: ca30 a63d 9820 903d 0c8a 373e 8c6e 903d
000003f0: f02f fb3d 476c 71bb 2300 213e 167b 183e

pre_model.lstm.bias_hh_l0 f4 [256]
0.08885973 0.2248524 0.07448783 0.23755322 0.17849562 -0.003874822 0.23235135 0.06820082
0.08068071 -0.035021715 0.014922236 0.03160312 0.13249433 -0.005089559 0.03022218 -0.012213052
0.20586774 0.021012325 0.10607231 0.08229891 0.02479577 -0.017106706 0.22319327 0.20186651
0.22350098 0.054243013 0.003301335 0.20293319 -0.026256975 0.18073736 0.040755894 0.08446674
-0.013686499 0.2117126 0.07318905 0.23002246 0.22558975 -0.022742672 0.03318511 0.018675083
0.058951743 0.043324504 0.011190791 0.0903485 0.08869672 0.20517735 0.009642191 0.22685581
-0.02346122 0.06693786 -0.027896723 0.021570653 0.058560885 0.21412975 -0.024164788 -0.012142675
0.01127401 -0.019162918 0.14714825 0.06564678 0.10844658 0.008781152 0.13566253 0.14240552
-0.008628977 -0.047144163 -0.0017884055 -0.020250697 -0.0019533264 -0.052092843 0.03598324 -0.023528844
-0.043560546 0.21269774 -0.054779053 -0.044567972 0.0026502267 -0.06716637 -0.03265355 0.069680095
0.16376285 -0.0019998755 -0.03956971 0.07811336 -0.05065434 0.034412693 -0.04177091 -0.05993276
-0.036749497 0.2265881 0.27077532 -0.04067032 0.039676655 0.24021351 -0.018790789 0.16261175
-0.07170942 0.06394084 0.07526477 -0.027151106 -0.039400995 0.02837998 -0.036037307 -0.046176057
-0.044198096 -0.04041859 -0.035708655 0.0640219 0.065510005 -0.057027157 -0.044144653 -0.038702287
0.03055484 -0.045557525 0.039864443 -0.050702587 -0.013343927 -0.05029439 0.20679983 -0.065100074
0.026943708 0.011336445 0.041581586 -0.037848365 -0.050279282 -0.03752213 -0.06018251 -0.012893622
0.047105577 0.06490022 -0.047457326 -0.07036518 0.051096853 -0.03251125 -0.030271862 -0.052408677
0.090502806 -0.022259813 -0.03714996 -0.038684286 -0.03758709 0.075924315 -0.06383497 -0.013813735
0.13527592 0.025009053 -0.07445242 -0.020643873 0.047539163 0.05285165 -0.07210346 0.09497749
-0.035878584 -0.06358273 -0.11447384 -0.025074208 -0.13049687 0.033717003 -0.06772595 -0.06761929
-0.17566355 -0.10412652 -0.12543489 -0.049545314 -0.07910762 0.062421583 0.0213775 -0.043479145
0.05334806 -0.06475829 0.08356531 0.107604824 0.018981585 0.13144149 0.0005538348 -0.06424159
0.043384552 0.0114911925 -0.015950516 -0.025117049 0.08327357 -0.008572664 -0.023065854 -0.032704096
-0.043216426 -0.1176526 -0.061922174 -0.06057326 -0.024198722 0.0071298503 0.035741873 0.03088254
0.09958206 0.24459876 0.077617116 0.25702924 0.19921565 0.017623331 0.24813432 0.07134181
0.09119274 0.025163772 0.04114134 0.055639643 0.14758027 0.020911628 0.015659103 0.052065432
0.0623999 0.08627457 0.11868129 0.121607035 0.049948003 0.044111453 0.24240266 0.21941839
0.23941953 0.011239527 0.2200866 0.22364776 0.06690116 0.13621145 0.022876618 0.16510929
0.0063833185 0.25369132 0.042741917 0.2476 0.24097332 0.02693011 0.05601922 0.05198615
0.084133565 0.0621606 0.036233854 0.18490043 0.13236533 0.22150214 0.03568843 0.24868798
0.06818439 0.074882455 0.12176264 0.06585448 0.07203786 0.23061743 -0.012083362 0.023081794
0.032265022 0.03125415 0.17745258 0.07156098 0.1226712 -0.008750605 0.15721935 0.14928497
00000000: 17fc b53d b53f 663e 138d 983d 2741 733e
00000010: 8ec7 363e baf0 7dbb 83ed 6d3e dfac 8b3d
00000020: ee3b a53d ee72 0fbd 657c 743c 4672 013d
00000030: 98ac 073e 51c6 a6bb 8194 f73c 4119 48bc
00000040: fece 523e 0a22 ac3c 703c d93d 558c a83d
00000050: 8020 cb3c 5d23 8cbc c78c 643e 18b6 4e3e
00000060: 71dd 643e ec2d 5e3d 365b 583b b8cd 4f3e
00000070: de18 d7bc 3713 393e a7ef 263d e6fc ac3d
00000080: 563d 60bc 30cb 583e 24e4 953d 028b 6b3e
00000090: 0001 673e d74e babc 1ced 073d 7dfc 983c
000000a0: 6277 713d 0975 313d 9459 373c a208 b93d
000000b0: a0a6 b53d 031a 523e 48fa 1d3c e44c 683e
000000c0: bf31 c0bc b716 893d ab87 e4bc f0b4 b03c
000000d0: 8add 6f3d d444 5b3e 3cf5 c5bc 12f2 46bc
000000e0: a0b6 383c 8dfb 9cbc 08ae 163e d271 863d
000000f0: 3e19 de3d d2de 0f3c 1eeb 0a3e c1d2 113e
00000100: 8e60 0dbc 3d1a 41bd ee68 eaba cae4 a5bc
00000110: 6103 00bb 4e5f 55bd 2963 133d 90bf c0bc
00000120: 8b6c 32bd 70cd 593e 0060 60bd e88c 36bd
00000130: 6daf 2d3b 868e 89bd bbbf 05bd 70b4 8e3d
00000140: 73b1 273e 5810 03bb d913 22bd e6f9 9f3d
00000150: ed7a 4fbd 53f4 0c3d f917 2bbd 0e7c 75bd
00000160: a486 16bd b606 683e 10a3 8a3e ec95 26bd
00000170: fd83 223d 88fa 753e 24ef 99bc b283 263e
00000180: 63dc 92bd 6af3 823d 6a24 9a3d ff6b debc
00000190: f062 21bd 227d e83c db9b 13bd 1b23 3dbd
000001a0: 1009 35bd f78d 25bd 3d43 12bd ea1d 833d
000001b0: 1c2a 863d 4f95 69bd 06d1 34bd 4a86 1ebd
000001c0: 254e fa3c 879a 3abd e648 233d 84ad 4fbd
000001d0: 7da0 5abc 7e01 4ebd 56c3 533e 3053 85bd
000001e0: 0db9 dc3c 7fbc 393c 7451 2a3d e306 1bbd
000001f0: a6f1 4dbd ceb0 19bd f081 76bd c53f 53bc
00000200: c7f1 403d 68ea 843d 9d62 42bd 9f1b 90bd
00000210: ef4a 513d 842a 05bd b2fc f7bc 7baa 56bd
00000220: 8959 b93d 365a b6bc 8e2a 18bd 6a73 1ebd
00000230: ecf4 19bd 357e 9b3d e9bb 82bd 0153 62bc
00000240: c585 0a3e c9df cc3c 837a 98bd 571d a9bc
00000250: 6db8 423d f97a 583d fbaa 93bd 8f83 c23d
00000260: 6cf5 12bd aa37 82bd 4371 eabd 6d68 cdbc
00000270: f9a0 05be d71a 0a3d e7b3 8abd fb7b 8abd
00000280: 25e1 33be 4940 d5bd 0172 00be 07f0 4abd
00000290: 2d03 a2bd c6ad 7f3d de1f af3c 3017 32bd
000002a0: 7f83 5a3d ff9f 84bd 4a24 ab3d eb5f dc3d
000002b0: 457f 9b3c 9998 063e 392f 113a 1891 83bd
000002c0: 00b4 313d 8e45 3c3c a8aa 82bc 45c2 cdbc
000002d0: 558b aa3d 5c74 0cbc 9af4 bcbc bbf4 05bd
000002e0: b503 31bd d9f3 f0bd 1ba2 7dbd ab1b 78bd
000002f0: 663c c6bc 85a1 e93b 1266 123d 61fd fc3c
00000300: aef1 cb3d 1978 7a3e b9f5 9e3d 5699 833e
00000310: 30ff 4b3e ce5e 903c ec16 7e3e a81b 923d
00000320: 42c3 ba3d 4124 ce3c d283 283d 65e6 633d
00000330: 481f 173e dd4e ab3c 8547 803c 9042 553d
00000340: 0a97 7f3d b9b0 b03d 2d0f f33d 1c0d f93d
00000350: 4796 4c3d 36ae 343d 6738 783e 37af 603e
00000360: 652a 753e fe25 383c 625e 613e eb03 653e
00000370: 7a03 893d 047b 0b3e bf67 bb3c 6912 293e
00000380: 282b d13b d4e3 813e 2612 2f3d db8a 7d3e
00000390: b6c1 763e 899c dc3c 6974 653d 6eef 543d
000003a0: 384e ac3d 1d9c 7e3d f369 143d 8a56 3d3e
000003b0: c78a 073e 75d1 623e 082e 123d 10a8 7e3e
000003c0: 42a4 8b3d f95b 993d b15e f93d b7de 863d
000003d0: 9688 933d fa26 6c3e 4bf9 45bc 0816 bd3c
000003e0: 5428 043d 5a04 003d 21b6 353e 908e 923d
000003f0: 0a3b fb3d b35e 0fbc 1cfe 203e 29de 183e

pre_model.lstm.weight_ih_l1 f4 [256, 64]
0.0004720797 -0.00049085106 -0.0023144027 -1.2015216e-05 -0.0015196226 -0.00255912 0.0004993483 -0.00029531517
9.7159675e-05 0.004535053 -0.0021145965 -1.4092984e-05 -0.00044438484 0.0013342306 0.0024232757 0.0081659295
-0.00075696985 0.00048053157 8.617546e-05 -0.0020573174 0.0003397635 0.0058122776 0.00045644824 0.00045535373
0.00075710175 0.008148522 0.003443431 -0.0010426701 -0.00035648968 0.0035875756 0.00069270807 -0.0061389063
-0.0013942298 0.000613676 0.00026858045 -0.00039674106 -0.00033072534 -0.0058612907 -4.654681e-06 0.00055208965
-0.00082152005 0.00084061606 0.0005535952 -0.00030987538 0.0008627886 5.7503396e-05 0.0002853127 -0.00019105004
0.004092831 -0.001916708 -0.0015616326 0.00038664675 0.0010126848 -0.00024239073 0.00067340286 -0.0014183905
0.0015203268 0.0008978752 0.003075891 -0.0003595841 0.00022238564 -0.003826587 0.0014754806 -0.0001992827
0.016177872 -0.028158985 0.11716583 0.037936606 -0.06152254 0.019518882 -0.023495514 0.0596934
0.03394223 0.13453694 0.010154221 0.04466055 -0.04496527 0.029610042 -0.040825095 0.052423026
0.09024897 0.0049055093 -0.040390447 -0.09473957 -0.039219014 -0.0070550228 0.036185555 0.024302963
-0.027895099 -0.06086322 0.05756421 -0.036435474 0.01702742 -0.14055695 -0.08728838 -0.025010064
0.16882297 0.0394497 0.10453767 0.033627328 0.034196455 -0.0040465984 -0.03966015 -0.045864735
0.03050031 -0.040667064 -0.06969421 0.032104786 0.07787974 0.04007342 -0.04940059 -0.02859832
0.0053401235 0.03694059 0.029392062 -0.04526368 -0.032974698 -0.029812584 0.04568926 -0.04327057
-0.016189268 -0.07097684 0.054425977 0.03564372 0.029406127 -0.05763484 0.03343673 -0.06953943
-0.03660493 -0.0015270716 -0.020261027 0.014610068 0.061205328 -0.008265589 -0.029557725 -0.04949053
-0.012982665 -0.0064858496 -0.0050225556 0.006803209 0.0045126695 -0.008789339 0.0061629 0.025142454
-0.0921149 -0.04657066 0.018649941 0.013872437 0.0020738747 0.029631872 0.00016646758 0.0012662285
0.00014265276 0.035605595 0.0094137285 0.018125856 -0.020833593 -0.01926889 0.02074616 -0.025931064
-0.04906863 -0.011869717 -0.039688997 -3.0783292e-05 0.014497539 -0.028124046 0.016384924 0.005569041
-0.0045893504 0.0142029505 0.038037244 -0.03251556 -0.0045802966 -0.0044589317 0.011320451 -0.0025312584
0.030671809 -0.022157788 0.061134636 0.008288168 0.018843919 -2.525889e-05 0.03319952 0.0078307185
-0.026225647 0.031721048 -0.073760964 -0.021340284 -0.013477419 0.003407481 -0.023293206 0.0026648056
-0.0040330756 -0.020419536 0.008163783 0.011211574 -0.046576165 0.030327892 -0.0070091416 0.054306246
0.012665632 -0.057908393 0.027280003 0.024473682 0.02451881 -0.045859724 -0.026904523 0.013900885
0.062456533 0.016028691 -0.024110753 0.018952735 -0.019441457 0.026503846 0.02188438 0.02333802
-0.015713777 -0.0074378983 0.017989596 -0.030508554 -0.015825199 -0.013200071 0.09916831 -0.048672404
-0.014747398 0.03556273 0.007744937 0.021411138 0.011940496 -0.021722471 -0.020598996 -0.020524299
0.032460123 -0.03709154 -0.03327839 0.06488493 -0.045222994 0.019684391 -0.029410003 -0.022201728
-0.02117383 0.025270555 0.003547058 -0.007332555 -0.0058811726 -0.015803669 -0.08147101 0.03696723
-0.005641277 0.047782317 0.010012814 0.016922215 0.024473082 0.048405014 0.017503975 -0.04420237
00000000: 7781 f739 75ac 00ba 3cad 17bb f694 49b7
00000010: 132e c7ba e9b6 27bb b2e6 023a 88d4 9ab9
00000020: 34c2 cb38 c89a 943b 0b95 0abb e870 6cb7
00000030: 53fc e8b9 5ae1 ae3a d2cf 1e3b 64ca 053c
00000040: 636f 46ba dbef fb39 19b9 b438 0fd4 06bb
00000050: 4922 b239 eb74 be3b 724f ef39 8bbc ee39
00000060: 3d78 463a 6181 053c 30ab 613b 34aa 88ba
00000070: 3ce7 bab9 881d 6b3b da96 353a e128 c9bb
00000080: 97be b6ba 19df 203a 42d0 8c39 af01 d0b9
00000090: 3465 adb9 1210 c0bb 682f 9cb6 1cba 103a
000000a0: 475b 57ba ca5c 5c3a 251f 113a c576 a2b9
000000b0: c32c 623a cd2f 7138 0696 9539 9b54 48b9
000000c0: 281d 863b 0c3a fbba b2af ccba d9b6 ca39
000000d0: 10bc 843a 442a 7eb9 4d87 303a 4ae9 b9ba
000000e0: b445 c73a 625f 6b3a e394 493b 9086 bcb9
000000f0: 3130 6939 7ac7 7abb ea64 c13a 8bf6 50b9
00000100: 7587 843c acad e6bc a4f4 ef3d 6a63 1b3d
00000110: 0fff 7bbd 10e6 9f3c aa79 c0bc 1181 743d
00000120: 0207 0b3d 0dc4 093e e45d 263c fbed 363d
00000130: 812d 38bd c290 f23c 3738 27bd 87b9 563d
00000140: 74d4 b83d 65be a03b 7470 25bd d206 c2bd
00000150: 1ea4 20bd d22d e7bb 4e37 143d 0217 c73c
00000160: 4384 e4bc b64b 79bd 73c8 6b3d 5d3d 15bd
00000170: 177d 8b3c 29ee 0fbe 40c4 b2bd e8e1 ccbc
00000180: eedf 2c3e 0296 213d d917 d63d cfbc 093d
00000190: 9511 0c3d 5499 84bb ae72 22bd a9dc 3bbd
000001a0: c9db f93c 8292 26bd d7bb 8ebd 4f80 033d
000001b0: 6a7f 9f3d 0724 243d 4658 4abd 0647 eabc
000001c0: 34fc ae3b 044f 173d 9fc7 f03c 6966 39bd
000001d0: 7a10 07bd 8539 f4bc a924 3b3d 7b3c 31bd
000001e0: 5b9f 84bc 4e5c 91bd c6ed 5e3d 26ff 113d
000001f0: 1ee5 f03c 8312 6cbd f4f4 083d b06a 8ebd
00000200: 0def 15bd 0528 c8ba 74fa a5bc 115f 6f3c
00000210: 70b2 7a3d 656c 07bc 0b23 f2bc 95b6 4abd
00000220: 3eb5 54bc 4087 d4bb 4094 a4bb 74ed de3b
00000230: 04df 933b 2901 10bc 27f2 c93b 8cf7 cd3c
00000240: bda6 bcbd e0c0 3ebd c3c7 983c 3849 633c
00000250: d8e9 073b 8abe f23c cd8d 2e39 94f7 a53a
00000260: 0f95 1539 2cd7 113d 0a3c 1a3c ad7c 943c
00000270: 36ab aabc cbd9 9dbc daf3 a93c 626d d4bc
00000280: 30fc 48bd 3479 42bc ee90 22bd 4f1d 01b8
00000290: 1687 6d3c 6664 e6bc ad39 863c 807c b63b
000002a0: 4362 96bb 7eb3 683c f1cc 1b3d 092f 05bd
000002b0: 5016 96bb 3b1c 92bb 6a79 393c 78e3 25bb
000002c0: 7243 fb3c 4084 b5bc 5068 7a3d 19cb 073c
000002d0: 905e 9a3c 0ee3 d3b7 38fc 073d 6a4c 003c
000002e0: 2bd7 d6bc eeed 013d fd0f 97bd d2d1 aebc
000002f0: 64d0 5cbc 0b50 5f3b 65d1 bebc 05a4 2e3b
00000300: e427 84bb df46 a7bc 63c1 053c c0b0 373c
00000310: a6c6 3ebd 3372 f83c f1ac e5bb 3a70 5e3d
00000320: 8383 4f3c 5a31 6dbd 507a df3c 087d c83c
00000330: acdb c83c 68d7 3bbd e066 dcbc 8ac0 633c
00000340: 6cd2 7f3d 9a4e 833c ea83 c5bc c442 9b3c
00000350: b143 9fbc 981e d93c df46 b33c 602f bf3c
00000360: 2eba 80bc 9db9 f3bb eb5e 933c 13ed f9bc
00000370: d9a3 81bc 1c45 58bc c118 cb3d b75c 47bd
00000380: 129f 71bc 3aaa 113d 3ec9 fd3b 6966 af3c
00000390: 12a2 433c 53f3 b1bc 3abf a8bc 9322 a8bc
000003a0: e8f4 043d 4ced 17bd ec4e 08bd 64e2 843d
000003b0: bf3b 39bd 2941 a13c 3fed f0bc 66e0 b5bc
000003c0: bd74 adbc 3204 cf3c c275 683b ee45 f0bb
000003d0: dab6 c0bb b276 81bc 46da a6bd f36a 173d
000003e0: 76da b8bb 64b7 433d c90c 243c 75a0 8a3c
000003f0: c67b c83c 5644 463d 7f64 8f3c 8b0d 35bd

pre_model.lstm.weight_hh_l1 f4 [256, 64]
4.464373e-05 0.0038342362 -0.001307277 0.00066575856 0.00012736492 7.4785836e-05 0.0006650121 0.0018067552
0.0002729289 -0.002253197 0.001669529 -1.0944277e-05 0.00022779396 7.95795e-05 -0.00024861167 0.0013026554
-0.0060676285 -0.0034026762 0.00012311418 0.001052025 -0.00023519411 0.00029510388 0.00028704733 -0.00044317098
-0.0064629302 -0.00065703725 -0.00011176811 0.0010862481 -0.001424983 0.0012585636 -0.0018049248 0.0004801641
0.00024389746 -0.000336146 0.0055266414 -0.0036449311 0.00050411175 0.00028753857 -3.8949884e-06 -0.0031500536
0.0011807822 -8.534051e-05 -0.00070022786 0.000111808266 -0.0009441449 0.00090008194 -0.0016657141 0.00064061093
0.0005270115 -0.0024852126 0.00090546237 -0.0025099225 -0.0009914011 -0.0024732854 -0.00095881254 -0.0016524714
-0.006176067 0.0001602392 -0.00014432226 0.0018046018 0.0011206917 0.00039865263 -0.0009027809 -0.00031809654
-0.00069863757 -0.042041834 -0.05198709 -0.039999936 0.0017514527 0.022959284 0.031937875 -0.08172489
0.049930584 -0.079934515 0.019957475 0.024328144 0.031601608 0.0033379078 -0.011745456 0.0466426
-0.069465406 -0.108376525 0.044122208 -0.15851219 0.04183336 -0.0036409048 -0.0022162003 -0.051047597
0.023132851 0.040287223 -0.011956436 -0.013729712 -0.095169224 -0.020944394 -0.019219043 0.0053749136
-7.385275e-05 0.05433788 -0.019499546 0.02192971 -0.018348772 -0.009350169 -0.052546173 -0.10034268
-0.040473476 0.019484816 0.018155884 0.0072261337 -0.052110855 0.03865039 -0.017837953 -0.016663602
-0.009641935 -0.07120846 0.037905995 -0.024607446 -0.07227552 -0.011495609 -0.013404307 -0.017109415
-0.025128102 -0.027532661 0.0030247946 0.008406699 0.004683459 0.014053931 -0.0095236 0.009760901
-0.009890382 -0.016748121 -0.016898643 0.026752839 0.0034020292 -0.009123239 -0.015101765 0.046196792
-0.036157794 -0.029163364 -0.0039366363 -0.038687255 -0.06903605 0.0012843279 0.009107026 0.037861
-0.026259651 0.026500871 -0.0130376145 0.09204635 -0.14221816 -0.000422015 0.0013360945 0.03429491
-0.02549848 0.009353748 0.0017953075 -0.010500215 -0.063254245 0.03233658 0.025887262 0.0053342935
-0.004785078 -0.0068586227 0.031861342 -0.038864367 0.0056440625 -0.010959408 0.040904697 0.026893971
0.036176816 0.03908174 0.006863639 -0.0014871875 0.04057648 0.004558317 -0.003566383 0.007247032
-0.0009397646 -0.006341317 -0.03063368 -0.016939627 0.011613469 -0.0152376285 -0.0004764495 0.0839282
-0.05056764 0.01535537 0.0014342114 -0.16953675 -0.018769039 -0.01393665 0.007891795 0.0038539397
0.0045327973 0.024847178 0.026874796 -0.073722936 0.000137126 0.041785765 -0.015152592 0.03192948
0.009085894 0.033710103 0.14751065 0.02074234 -0.026945073 -0.0006504978 0.0025553864 0.11985705
-0.019274104 -0.0049317987 -0.054282084 -0.053194717 0.056986578 -0.0012330012 -0.0033951027 -0.028177999
0.009443689 0.04211606 -0.002429341 0.011808452 -0.0367096 0.023873117 0.023172854 -0.01021791
-0.008636911 -0.019090507 0.006287635 -0.0058134645 0.010480547 -0.00407734 0.0014209957 0.0045805657
-0.009242644 0.020037422 0.020778334 -0.0004897519 0.05804784 0.041951228 0.030740725 -0.0037641816
0.0034557015 0.0032291892 0.007509446 0.05123973 0.0058904537 0.008545381 -0.003329822 -0.058604803
-0.027853735 0.056226697 0.0016063425 0.06649887 0.025509272 0.029323831 -0.019473957 0.00043644756
00000000: d73f 3b38 cf47 7b3b f058 abba 4d86 2e3a
00000010: 438d 0539 57d6 9c38 3554 2e3a a5d0 ec3a
00000020: e617 8f39 5faa 13bb 19d4 da3a 509d 37b7
00000030: fadb 6e39 ebe3 a638 1858 82b9 ddbd aa3a
00000040: f5d2 c6bb 6fff 5ebb 3618 0139 1ae4 893a
00000050: 709e 76b9 2cb8 9a39 d77e 9639 6759 e8b9
00000060: fdc6 d3bb 063d 2cba 0c65 eab8 7060 8e3a
00000070: 7fc6 baba 63f6 a43a 3a93 ecba 89be fb39
00000080: babe 7f39 c13c b0b9 d418 b53b ccdf 6ebb
00000090: 5e26 043a c6c0 9639 b2b1 82b6 2171 4ebb
000000a0: 7ac4 9a3a d6f8 b2b8 7f8f 37ba 9b7a ea38
000000b0: 7e80 77ba 7af3 6b3a 1754 daba acee 273a
000000c0: 2527 0a3a f3de 22bb 8d5c 6d3a 837d 24bb
000000d0: e7f1 81ba d816 22bb d258 7bba bd97 d8ba
000000e0: 9b60 cabb e205 2839 3655 17b9 6388 ec3a
000000f0: 2ce4 923a 4002 d139 9aa8 6cba 32c6 a6b9
00000100: c624 37ba 0f34 2cbd 6af0 54bd f9d6 23bd
00000110: 0091 e53a 1c15 bc3c 4ad1 023d 615f a7bd
00000120: 0384 4c3d b5b4 a3bd dc7d a33c d14b c73c
00000130: b070 013d cdc0 5a3b 0370 40bc 500c 3f3d
00000140: e143 8ebd 83f4 ddbd 7db9 343d 0551 22be
00000150: 7559 2b3d 3f9c 6ebb ac3d 11bb 4917 51bd
00000160: 1b81 bd3c 3704 253d ede4 43bc 96f2 60bc
00000170: 15e8 c2bd 9493 abbc 4171 9dbc 0b20 b03b
00000180: 65e1 9ab8 6691 5e3d 83bd 9fbc efa5 b33c
00000190: 2a50 96bc 7431 19bc a83a 57bd 7780 cdbd
000001a0: 84c7 25bd 9f9e 9f3c a6bb 943c 34c9 ec3b
000001b0: 3172 55bd df4f 1e3d e620 92bc 1b82 88bc
000001c0: 35f9 1dbc bed5 91bd 5143 1b3d 8e95 c9bc
000001d0: 3005 94bd 1458 3cbc bd9d 5bbc 0b29 8cbc
000001e0: 73d9 cdbc 2d8c e1bc a23b 463b 40bc 093c
000001f0: b477 993b 7642 663c e008 1cbc 30ec 1f3c
00000200: 450b 22bc 5b33 89bc 066f 8abc c528 db3c
00000210: 94f4 5e3b a379 15bc 656d 77bc d938 3d3d
00000220: 321a 14bd 02e8 eebc e6fe 80bb 8776 1ebd
00000230: c662 8dbd e556 a83a a335 153c 2314 1b3d
00000240: 7b1e d7bc 5b18 d93c b89b 55bc cc82 bc3d
00000250: a3a1 11be e541 ddb9 e41f af3a d278 0c3d
00000260: 30e2 d0bc 7640 193c 8650 eb3a 1809 2cbc
00000270: 718b 81bd 5d73 043d 8611 d43c 4ccb ae3b
00000280: 25cc 9cbb 4cbe e0bb 0a81 023d 3e30 1fbd
00000290: d4f1 b83b 178f 33bc af8b 273d bf50 dc3c
000002a0: 242e 143d 2d14 203d 61e8 e03b bbed c2ba
000002b0: 8633 263d ef5d 953b fab9 69bb 8378 ed3b
000002c0: 895a 76ba d3ca cfbb 7cf3 fabc f9c4 8abc
000002d0: 6b46 3e3c 3fa7 79bc f8cb f9b9 8ce2 ab3d
000002e0: 0420 4fbd 1795 7b3c 26fc bb3a 0b9b 2dbe
000002f0: 87c1 99bc 8c56 64bc 964c 013c 6192 7c3b
00000300: dc87 943b 4f8c cb3c 8828 dc3c 0dfc 96bd
00000310: 7bc9 0f39 8d27 2b3d 9442 78bc 7dc8 023d
00000320: 00dd 143c 9b13 0a3d 080d 173e d7eb a93c
00000330: eabb dcbc 2b86 2aba 4578 273b 9d77 f53d
00000340: bae4 9dbc ed9a a1bb e456 5ebd b4e2 59bd
00000350: c26a 693d a89c a1ba 5f80 5ebb 8cd5 e6bc
00000360: b4b9 1a3c e481 2c3d 9435 1fbb 3d78 413c
00000370: ce5c 16bd 8e91 c33c ffd4 bd3c 0569 27bc
00000380: d581 0dbc b263 9cbc 8108 ce3b e07e bebb
00000390: 9ab6 2b3c 359b 85bb b440 ba3a 9218 963b
000003a0: 756e 17bc 8525 a43c 5337 aa3c b262 00ba
000003b0: 92c3 6d3d 0dd5 2b3d f9d3 fb3c 7db0 76bb
000003c0: 0d79 623b cea0 533b cc11 f63b c0e0 513d
000003d0: b504 c13b ed01 0c3c 2539 5abb 970b 70bd
000003e0: 842d e4bc f74d 663d e98b d23a 8f30 883d
000003f0: d2f8 d03c 8838 f03c d987 9fbc 00d3 e439

pre_model.lstm.bias_ih_l1 f4 [256]
-0.008789961 0.1828128 -0.0741524 -0.04197279 -0.013578346 0.055938955 0.05304159 -0.0005315159
0.026264174 0.15565102 0.24766442 0.056782126 0.14238797 -0.0049733543 0.031682156 -0.015915338
-0.013427901 0.06867597 0.43432948 0.21044135 0.16196194 -0.008142566 -0.01468612 0.035315238
0.076683864 0.047726575 -0.04194481 0.4031934 0.11218192 0.087862894 0.13068907 0.014459866
0.009135297 -0.07949873 0.07335871 0.011286035 0.21813697 0.0017444107 0.030564688 -0.053452473
-0.011828946 -0.03274841 0.0024264138 -0.0034493594 0.07789372 0.11473685 0.036042012 0.004011844
0.01871912 -0.017650813 -0.0162207 -0.041467354 -0.07927504 0.24470548 0.06102614 0.05499154
-0.023230596 0.013326203 -0.009071242 0.05014582 0.023566457 0.017385922 0.09632444 0.007413449
-0.01066644 0.2948596 0.0812482 0.020732611 -0.012541857 0.13718538 0.027098116 0.14970924
0.076310664 0.10861429 0.19689673 0.089170374 0.3029662 -0.0076334556 0.06349755 0.27148464
0.23798043 0.30685762 0.04423885 0.33954728 0.31595302 -0.0109569505 -0.012731947 0.09787652
0.11093129 0.043539535 -0.0005968887 -0.08589434 0.19421107 0.13095354 0.09655463 0.00822598
-0.0015852096 0.15553808 0.12406766 0.05531719 0.087074295 0.009619601 0.06924601 0.16063918
0.15605421 0.13540642 0.04166192 -0.0084551 0.068077795 0.17963305 0.1498344 -0.004420772
0.0063074534 0.0858322 0.024511881 0.11209005 0.088844225 0.09881495 0.043815393 0.19746056
0.3162912 0.09213285 -0.0084994845 0.20748852 0.016236562 0.03880578 0.24171421 0.004436761
0.049876954 -0.067535415 -0.01622588 -0.00859585 -0.011695713 -0.023239153 0.006158346 -0.104058295
0.046825428 0.041518863 0.05017525 -0.01984897 -0.03529082 -0.024673965 -0.040935125 0.041329555
0.02729583 0.013447746 -0.03594937 0.0885896 -0.0020675256 -0.00076010375 -0.011704878 0.045989126
0.08212565 -0.034026645 0.01930209 -0.029778574 -0.05520709 0.042444102 -0.010514921 -0.05928247
-0.0451172 -0.0038144973 -0.0010395225 0.05291787 0.0038137555 -0.013398274 -0.027854193 -0.04679596
0.025810113 -0.025387203 0.09394825 0.019341808 -0.015014183 0.049326252 -0.046436023 -0.010604968
-0.075026184 -0.1230391 -0.0076671685 0.07288802 -0.021992963 -0.07718571 0.0050818566 0.028151652
-0.027406566 0.05976179 0.030662239 -0.08745912 0.0854795 -0.094691545 0.060911793 0.03170184
-0.00881611 -0.023018172 -0.011492608 -0.033152726 -0.013830848 0.16039987 0.056034327 -0.05544765
0.038931455 0.39594537 0.53164506 0.06084983 0.1467452 -0.00498068 0.03395267 0.42318565
0.12082807 0.05103103 0.46389058 0.18959846 0.44562894 -0.008638342 -0.014717598 0.08105689
-0.046805732 0.04946062 -0.05334103 0.4119969 0.007342013 0.023592373 0.13174951 0.014494968
0.009114398 0.014203226 0.040228307 0.018584147 0.22623895 0.00018976134 0.032761104 -0.040525965
-0.05078555 0.035027016 0.0015299877 -0.0034840712 0.102174506 0.10307399 0.050142422 0.0040323273
0.018749503 0.065453164 0.038248524 0.062857896 0.0006228195 0.3870222 0.06289048 0.066795945
0.16204904 0.034836873 -0.009253987 0.07969851 0.025765024 -0.071560554 0.2023124 0.0073906793
00000000: c503 10bc 4733 3b3e 37dd 97bd a9eb 2bbd
00000010: b677 5ebc 3f20 653d 2342 593d 6e55 0bba
00000020: f727 d73c fb62 1f3e be9b 7d3e 6094 683d
00000030: 27ce 113e 85f7 a2bb 26c5 013d e260 82bc
00000040: b300 5cbc fda5 8c3d 6f60 de3e f07d 573e
00000050: 5ad9 253e 6668 05bc 0d9e 70bc b6a6 103d
00000060: 6e0c 9d3d f17c 433d 52ce 2bbd 5e6f ce3e
00000070: a2bf e53d 76f1 b33d 5bd3 053e 13e9 6c3c
00000080: 36ac 153c 3bd0 a2bd 173d 963d 10e9 383c
00000090: 4c5f 5f3e b6a4 e43a cc62 fa3c fbf0 5abd
000000a0: 32ce 41bc 3223 06bd 7804 1f3b a60e 62bb
000000b0: be86 9f3d 27fb ea3d caa0 133d c975 833b
000000c0: d758 993c 7098 90bc 46e1 84bc acd9 29bd
000000d0: f45a a2bd 1394 7a3e 8cf6 793d cf3e 613d
000000e0: 174e bebc 2656 5a3c 8c9f 14bc b465 4d3d
000000f0: 710e c13c ec6c 8e3c bf45 c53d 85ec f23b
00000100: 4bc2 2ebc d6f7 963e 7565 a63d 70d7 a93c
00000110: 5c7c 4dbc 537a 0c3e defc dd3c 614d 193e
00000120: c448 9c3d 2b71 de3d 4c9f 493e f59e b63d
00000130: 631e 9b3e 1122 fabb 010b 823d 0900 8b3e
00000140: 24b1 733e 711c 9d3e cc33 353d 24d9 ad3e
00000150: 98c4 a13e c884 33bc a899 50bc 7c73 c83d
00000160: f22f e33d 8356 323d 8678 1cba 5fe9 afbd
00000170: 44df 463e af18 063e 6fbe c53d 43c6 063c
00000180: cfc6 cfba 6045 1f3e 2f17 fe3d 4794 623d
00000190: 0254 b23d 889b 1d3c dad0 8d3d 997e 243e
000001a0: adcc 1f3e fba7 0a3e b0a5 2a3d 4287 0abc
000001b0: 5f6c 8b3d baf1 373e 306e 193e 20dc 90bb
000001c0: c1ae ce3b cbc8 af3d 24cd c83c 788f e53d
000001d0: f6f3 b53d 7e5f ca3d c577 333d 1a33 4a3e
000001e0: ecf0 a13e 26b0 bc3d 6c41 0bbc df77 543e
000001f0: 8a02 853c cff2 1e3d ee83 773e 4062 913b
00000200: c74b 4c3d 0250 8abd 23ec 84bc 9cd5 0cbc
00000210: 609f 3fbc 0960 bebc f3cb c93b 841c d5bd
00000220: 05cc 3f3d af0f 2a3d 9084 4d3d 4f9a a2bc
00000230: 1b8d 10bd 0e21 cabc 97ab 27bd 2e49 293d
00000240: 819b df3c ef53 5c3c a63f 13bd 776e b53d
00000250: 537f 07bb b341 47ba d1c5 3fbc 185f 3c3d
00000260: 7e31 a83d 865f 0bbd 6b1f 9e3c 32f2 f3bc
00000270: d420 62bd ded9 2d3d c646 2cbc 2dd2 72bd
00000280: d0cc 38bd a5fc 79bb 9640 88ba 69c0 583d
00000290: 33f0 793b 6f84 5bbc 7a2e e4bc 1fad 3fbd
000002a0: bb6f d33c d3f8 cfbc f167 c03d b672 9e3c
000002b0: 0cfe 75bc 530a 4a3d b333 3ebd 76c0 2dbc
000002c0: 54a7 99bd ecfb fbbd df3c fbbb 5046 953d
000002d0: 962a b4bc 8b13 9ebd b485 a63b 4b9e e63c
000002e0: bc83 e0bc c7c8 743d 602f fb3c c41d b3bd
000002f0: e00f af3d a4ed c1bd a57e 793d cad9 013d
00000300: 7271 10bc 9b90 bcbc 7e4b 3cbc 27cb 07bd
00000310: c89a 62bc dd3f 243e 4084 653d 131d 63bd
00000320: 9776 1f3d 5ab9 ca3e e419 083f ac3d 793d
00000330: 6044 163e f934 a3bb f411 0b3d caab d83e
00000340: b574 f73d ea05 513d 1183 ed3e 1926 423e
00000350: 7a29 e43e d587 0dbc 1522 71bc 2801 a63d
00000360: 5eb7 3fbd 3897 4a3d 207c 5abd 42f1 d23e
00000370: 4595 f03b cb44 c13c 58e9 063e 4d7c 6d3c
00000380: 8e54 153c a6b4 683c 70c6 243d c83d 983c
00000390: 2fab 673e acfa 4639 8230 063d 8efe 25bd
000003a0: 8204 50bd 7d78 0f3d de89 c83a 0455 64bb
000003b0: de40 d13d 7518 d33d 2462 4d3d 9d21 843b
000003c0: 8f98 993c 4f0c 863d 7caa 1c3d a4bb 803d
000003d0: b644 233a c627 c63e b9cc 803d 50cc 883d
000003e0: 2ff0 253e 1cb1 0e3d 099e 17bc f938 a33d
000003f0: 2c11 d33c 578e 92bd fb2a 4f3e 832d f23b
