experiments/lstm/final_model_s9.pt (torch, 408006 bytes, 33 tensors)

pre_model.start_conv.weight f4 [32, 2, 1, 1]
0.18452993 -0.32898426 -0.035185054 0.67773247 0.6273922 0.83641905 -0.36875963 0.78428495
-0.27891347 0.047885 0.69775885 0.09801463 -0.5424485 -0.47283378 -0.025933601 0.10877085
0.023955034 -0.4644473 0.0037472427 -0.13632943 0.27684978 0.77594084 0.5541263 0.563454
-0.055216417 -0.8213955 0.57416034 0.62881225 0.63042337 -0.06946612 0.25331545 0.4310322
0.5662109 0.59135175 0.34799752 -0.1331862 -0.4498772 0.2467579 0.43423277 0.27111486
0.64912385 -0.58689827 0.46773848 0.23320882 -0.44996226 0.4160592 -0.41879916 0.7567888
0.4353102 -0.76804894 0.35284814 0.33272508 0.4024206 0.5827562 -0.14453247 -0.10785115
-0.18222086 -0.25308383 -0.6517437 0.3778794 -0.39139232 0.3809358 -0.25390595 0.6809917
00000000: 6af5 3c3e a070 a8be 341e 10bd e07f 2d3f
00000010: c69c 203f 8f1f 563f 10ce bcbe e6c6 483f
00000020: bfcd 8ebe 1023 443d 53a0 323f e5bb c83d
00000030: e8dd 0abf 4517 f2be b472 d4bc 40c3 de3d
00000040: 593d c43c 09cc edbe 4d94 753b f199 0bbe
00000050: 41bf 8d3e 0fa4 463f 39db 0d3f 853e 103f
00000060: 9c2a 62bd fa46 52bf 2cfc 123f d7f9 203f
00000070: 6d63 213f 4144 8ebd 90b2 813e 41b0 dc3e
00000080: 33f3 103f d462 173f bb2c b23e f761 08be
00000090: 4e56 e6be 1aae 7c3e c253 de3e 91cf 8a3e
000000a0: fb2c 263f f73e 16bf 6b7b ef3e 4bce 6e3e
000000b0: 7461 e6be b605 d53e d86c d6be e9bc 413f
000000c0: fbe0 de3e db9e 44bf 83a8 b43e f15a aa3e
000000d0: 130a ce3e 832f 153f 5200 14be 10e1 dcbd
000000e0: 1b98 3abe 3494 81be add8 26bf 6979 c13e
000000f0: 9364 c8be 040a c33e f6ff 81be 7955 2e3f

pre_model.start_conv.bias f4 [32]
0.1536076 -0.6187056 -0.002285927 -0.17737807 -0.26188183 0.6192559 0.15175249 -0.054788534
-0.5410529 0.4438662 -0.52452517 0.06594295 0.44198853 -0.56441295 0.22809567 0.6090145
-0.27238095 -0.113439165 -0.61795944 -0.58742416 -0.13271722 0.49357346 -0.06297815 -0.54268867
0.48673648 0.048476037 0.56213254 -0.5779861 -0.57623523 0.019106243 -0.5036668 -0.5877614
00000000: 504b 1d3e 7d63 1ebf 7ecf 15bb 99a2 35be
00000010: 6015 86be 8e87 1e3f 0165 1b3e f169 60bd
00000020: 7182 0abf 6e42 e33e 4847 06bf 190d 873d
00000030: 524c e23e 5e7d 10bf e991 693e 60e8 1b3f
00000040: 8475 8bbe cb52 e8bd 9732 1ebf 6e61 16bf
00000050: 06e7 07be a9b5 fc3e b0fa 80bd a5ed 0abf
00000060: 8635 f93e cf8e 463d ebe7 0f3f e6f6 13bf
00000070: 2784 13bf b284 9c3c 4ff0 00bf 8877 16bf

pre_model.lstm.weight_ih_l0 f4 [256, 32]
0.008568217 -0.04567113 0.026078254 -0.002543177 -0.02749262 0.06628651 -0.0014499258 -0.0038165315
-0.053305406 0.040119823 -0.031320136 0.025212284 0.02533987 -0.030429577 0.027359225 0.06172577
-0.0068552564 -0.012102213 -0.057143982 -0.040269412 -0.013688626 0.055097573 -0.000527117 -0.039829142
0.034044407 0.01562154 0.063441776 -0.05504811 -0.05756276 0.0018488149 -0.04406796 -0.0445359
-0.032890953 -0.041485555 -0.18546775 0.06372525 0.059356593 -0.15234208 0.16229053 0.0019436708
-0.015551505 0.023503225 -0.12179087 -0.15782152 0.060069192 -0.190678 -0.15289891 -0.04374566
-0.17713502 -0.09209891 0.07892995 -0.14490274 -0.14855434 -0.10372723 0.10252436 0.062530115
-0.06865677 -0.10028413 -0.091454655 0.010919138 0.02797714 0.1543731 0.06666073 0.01791189
0.06626068 -0.16067737 -0.16341971 -0.15546905 -0.010218204 0.008335804 0.108787395 -0.023124797
0.049544156 0.037071463 -0.17406717 -0.107774235 0.1799273 -0.1418356 0.01191345 -0.045072563
-0.11998839 0.016530115 -0.06439928 -0.050842926 0.088828996 -0.02703906 -0.07794265 -0.1607899
0.16173948 -0.06836121 -0.072664596 -0.002683045 0.03241782 -0.051150344 -0.0853009 -0.15413985
0.013740186 -0.044849787 0.02069455 -0.015597155 -0.027705159 0.065048724 -0.0048067947 -0.003217567
-0.045769308 0.03501791 -0.02878007 0.022747057 0.026459062 -0.026152026 0.032656103 0.0566931
-0.003446132 -0.0023081917 -0.057680964 -0.03419153 0.00031242217 0.051592086 -0.011956106 -0.047130615
0.042899966 0.015600378 0.057068985 -0.05022077 -0.05184111 -0.0109205125 -0.04654401 -0.047581065
0.00050688646 -0.06944404 0.042929713 0.033499777 -0.03999967 0.106247835 0.009502252 -0.0029461607
-0.13675398 0.07620601 -0.052273635 0.038309492 0.02754974 -0.07737788 0.021756746 0.13974679
-0.024729867 -0.04171241 -0.08850469 -0.10397589 -0.084588036 0.098441 0.030825151 -0.03830834
0.026117869 0.02399045 0.13753818 -0.114651896 -0.1232857 0.048415087 -0.058949742 -0.057391524
0.007330501 -0.015673568 0.03925422 0.020581082 -0.01691678 0.06536522 0.015353938 -0.0027541274
-0.078115635 0.01150028 -0.016501606 -0.006176995 0.020270279 0.020296896 0.044853278 0.00742039
-0.0069117933 -0.008164207 -0.03671351 -0.077869765 0.027939433 0.045666564 -0.024625361 -0.030091852
0.026934447 0.012395281 0.01884282 -0.026704887 -0.025421755 0.021369822 -0.043407194 -0.027901389
0.008799999 -0.052125137 0.016376473 -0.002341103 -0.02699154 0.067471616 0.0064392583 -0.0032722307
-0.0661643 0.044979542 -0.03981623 0.018416729 0.030114722 -0.047197208 0.022803199 0.07292814
-0.016941879 -0.01536611 -0.060853925 -0.056056615 -0.025326317 0.057313226 0.0020381073 -0.04191882
0.035652332 0.012151864 0.07154512 -0.06382846 -0.06629859 0.009644906 -0.045832638 -0.048808794
-0.02018667 -0.0044478355 -0.08028785 0.038065575 0.031936746 -0.07627773 0.06871614 0.0036580611
-0.0022777957 0.0027566922 -0.04184941 -0.070255056 0.015173456 -0.073765606 -0.07421449 -0.028349701
-0.072590604 -0.04128616 0.04831267 -0.055194832 -0.069187365 -0.054458264 0.050920453 0.04233328
-0.04442901 -0.044899315 -0.045892872 0.014867546 0.022815464 0.0740388 0.040855955 0.021973124
00000000: b561 0c3c a711 3bbd 10a2 d53c 6eab 26bb
00000010: 3438 e1bc 39c1 873d 700b beba c61e 7abb
00000020: c556 5abd af54 243d 8b49 00bd fe89 ce3c
00000030: 8f95 cf3c 7347 f9bc 7420 e03c 29d4 7c3d
00000040: 0fa2 e0bb 5c48 46bc cf0f 6abd 8af1 24bd
00000050: 4246 60bc fead 613d 392e 0aba e223 23bd
00000060: 2672 0b3d 7df1 7f3c c3ed 813d 217a 61bd
00000070: eec6 6bbd ef53 f23a 9b80 34bd 476b 36bd
00000080: aab8 06bd c2ec 29bd 42eb 3dbe 6282 823d
00000090: e61f 733d 90ff 1bbe 7d2f 263e c5c2 fe3a
000000a0: bdcb 7ebc d689 c03c 7e6d f9bd f79b 21be
000000b0: 1d0b 763d 1841 43be 8891 1cbe a62e 33bd
000000c0: e262 35be 5a9e bcbd 07a6 a13d 6261 14be
000000d0: a11e 18be f16e d4bd 4bf8 d13d ca0f 803d
000000e0: ec9b 8cbd c461 cdbd 944c bbbd 2fe6 323c
000000f0: 5130 e53c fb13 1e3e 6c85 883d f5bb 923c
00000100: aeb3 873d 9c88 24be 7f57 27be 4733 1fbe
00000110: 416a 27bc e592 083c edcb de3d 3770 bdbc
00000120: d0ee 4a3d 3fd8 173d aa3e 32be bdb8 dcbd
00000130: dd3e 383e 5a3d 11be a230 433c 029e 38bd
00000140: 79bc f5bd 2a6a 873c c5e3 83bd ac40 50bd
00000150: faeb b53d 0581 ddbc 65a0 9fbd 1ca6 24be
00000160: 099f 253e f600 8cbd 2dd1 94bd 07d6 2fbb
00000170: 8cc8 043d 0683 51bd 3db2 aebd d6d6 1dbe
00000180: 841e 613c 69b4 37bd 9e87 a93c 368b 7fbc
00000190: eef5 e2bc 4438 853d 5182 9dbb d1dd 52bb
000001a0: 9978 3bbd f16e 0f3d 2ec4 ebbc 0958 ba3c
000001b0: adc0 d83c c63c d6bc 68c2 053d 0637 683d
000001c0: 80d8 61bb 0845 17bb e042 6cbd 6b0c 0cbd
000001d0: 98cc a339 3952 533d 8be3 43bc 080c 41bd
000001e0: e0b7 2f3d ba98 7f3c 2bc1 693d 4bb4 4dbd
000001f0: 5857 54bd f3eb 32bc efa4 3ebd 5de4 42bd
00000200: 93e0 043a ad38 8ebd 11d7 2f3d 1037 093d
00000210: b2d6 23bd 7798 d93d 55af 1b3c 6014 41bb
00000220: 3c09 0cbe e611 9c3d e11c 56bd 6aea 1c3d
00000230: feaf e13c 4b78 9ebd 343b b23c c819 0f3e
00000240: 4a96 cabc a2da 2abd f241 b5bd 50f1 d4bd
00000250: 7e3c adbd 6f9b c93d 0785 fc3c 35e9 1cbd
00000260: 24f5 d53c 9f87 c43c cfd6 0c3e 9dce eabd
00000270: 377d fcbd e64e 463d 4975 71bd 6013 6bbd
00000280: b334 f03b db65 80bc 08c9 203d a899 a83c
00000290: 0f95 8abc 33de 853d 158f 7b3c 977e 34bb
000002a0: 17fb 9fbd ac6b 3c3c 602e 87bc 6468 cabb
000002b0: db0d a63c ad45 a63c 12b8 373d be26 f33b
000002c0: 537c e2bb 2bc3 05bc e860 16bd 2f7a 9fbd
000002d0: 3de1 e43c dd0c 3b3d 20bb c9bc 3083 f6bc
000002e0: a1a5 dc3c 9415 4b3c 425c 9a3c 35c4 dabc
000002f0: 4941 d0bc c40f af3c becb 31bd 7491 e4bc
00000300: df2d 103c 2b81 55bd f427 863c 316d 19bb
00000310: 5d1d ddbc 8f2e 8a3d 6a00 d33b ec72 56bb
00000320: 2681 87bd 783c 383d 5816 23bd aede 963c
00000330: 26b3 f63c dc51 41bd c6cd ba3c 595b 953d
00000340: b2c9 8abc 23c2 7bbc f741 79bd 9f9b 65bd
00000350: 2379 cfbc 46c1 6a3d c491 053b 12b3 2bbd
00000360: 2e08 123d 9d18 473c 3f86 923d 7fb8 82bd
00000370: 8ec7 87bd ab05 1e3c 01bb 3bbd bbeb 47bd
00000380: 845e a5bc 26bf 91bb f56d a4bd a6ea 1b3d
00000390: 1bd0 023d 8037 9cbd 0cbb 8c3d 15bc 6f3b
000003a0: 1247 15bb 9fa9 343b 496a 2bbd e2e1 8fbd
000003b0: 169a 783c 6c12 97bd c4fd 97bd a23d e8bc
000003c0: 62aa 94bd ad1b 29bd 82e3 453d fa13 62bd
000003d0: 1bb2 8dbd a10f 5fbd f791 503d a965 2d3d
000003e0: 32fb 35bd 58e8 37bd 2afa 3bbd 0297 733c
000003f0: 7fe7 ba3c a8a1 973d 9358 273d fb00 b43c

pre_model.lstm.weight_hh_l0 f4 [256, 64]
0.0043355036 -0.021715036 -0.022960262 -0.02524811 0.00972915 0.016914723 0.017070996 -0.023662666
0.019709196 0.0015020552 -0.0010353029 -0.015377373 0.043540888 0.024170617 0.0244458 0.031049775
0.015392848 -0.024102155 0.006967656 0.025792778 0.026561927 0.029390335 -0.011946552 0.061568446
0.014076418 0.006068791 0.0073015164 -0.02570945 0.013475135 -0.02092609 -0.028525023 0.024914904
-0.019618088 -0.034957092 -0.002612938 -0.010591874 0.019995388 0.00078046107 0.036545895 0.009560284
0.018015275 0.0155437235 0.009496124 -0.0025428755 -0.005720737 -0.021442842 0.0047302004 0.023191517
0.005054215 0.02122404 -0.025216917 -0.003304861 0.0015767106 0.018761702 -0.006787286 0.06744823
0.02508419 0.011759668 -0.02863294 0.020578697 -0.0002181209 -0.016270615 0.01705881 -0.009710725
0.027733862 -0.018774636 0.032891113 0.009928466 0.0021323499 -0.07122917 -0.027797764 0.013398896
-0.02773801 -0.0079178 -0.0017801042 0.025114942 0.021403508 -0.0035032285 -0.008896132 -0.0070952494
0.008593113 0.038467776 -0.001862769 -0.020033725 -0.023870414 -0.018069087 0.0072187106 0.039997652
-0.021938914 -0.019776668 -0.06000893 -0.09576217 0.042138323 -0.0030341197 0.019992495 0.030051813
-0.016497638 -0.00245499 0.0042805336 0.0022100066 -0.06560102 0.0013457293 -0.06119151 -0.021441104
-0.015418985 -0.011002821 -0.011281995 -0.0023627253 0.014582333 0.016265571 -0.0011443375 -0.023972353
0.08379516 -0.05646683 0.022386476 0.0051655034 -0.00079164084 -0.015605068 -0.14190842 0.12790224
-0.022230912 0.03495934 0.018879328 0.104194835 -0.1333705 0.00883084 -0.021098796 0.020553635
-0.015714448 -0.094939224 0.091527954 -0.02429217 0.005319568 0.13798171 -0.030213892 0.0074839285
-0.014031792 0.0055925604 -0.04705655 0.0035288457 0.16563274 0.014054694 0.031003918 0.061493907
0.015146343 -0.010691894 -0.011409392 -0.00019364353 0.0043862103 0.025499143 -0.011492777 -0.049522895
-0.021975428 0.056283034 -0.015070928 -0.039567947 0.004685404 -0.01986514 -0.033860624 0.045184825
-0.023013402 -0.09449024 0.014596034 0.0010418905 0.039164245 0.024360996 -0.0074875397 0.04444179
-0.004994914 0.00039653946 0.00023194363 -0.039962508 0.066369295 -0.036213294 -0.020170169 -0.008603754
0.075320624 0.017508501 -0.009408353 0.026469488 0.017601615 0.023594668 -0.043565653 0.13872969
0.019087834 0.010609281 -0.0060231844 0.2598985 -0.07595257 0.0043177833 -0.006748429 0.027853899
0.0042611337 0.013962371 -0.0056013754 -0.008410814 -0.012058608 -0.009648846 0.007989551 0.019883852
0.013287212 0.014526999 -0.020095892 0.018655643 0.011431095 -0.018128378 0.020031067 0.011388721
-0.008147353 0.0041094404 -0.0125700915 0.0019588808 0.0128281 0.00762509 0.0030635116 -0.009438242
0.007211919 0.017861051 -0.0046212794 -0.03335045 0.040628526 0.002923441 -0.016421119 -0.0029542379
-0.009527138 -0.024652075 0.01580661 0.009541262 -0.032359246 0.015357849 -0.011931299 0.012339045
-0.01659301 0.003653507 -0.0010355992 -0.016737726 0.0026627143 -0.01936386 -0.013829985 0.006193709
0.02874007 8.7209055e-06 -0.014000001 0.018257082 0.017517174 -0.024270095 -0.023603063 0.038912427
0.0041607027 -0.02210229 -0.012150516 0.040495493 -0.022476738 0.0005868024 -0.01833175 -0.0062495545
00000000: d710 8e3b bbe3 b1bc 2917 bcbc 20d5 cebc
00000010: 0367 1f3c bf90 8a3c 79d8 8b3c 35d8 c1bc
00000020: 2e75 a13c 9ce0 c43a 00b3 87ba 61f1 7bbc
00000030: ee57 323d 7501 c63c 8f42 c83c 195c fe3c
00000040: 4932 7c3c e271 c5bc ef50 e43b 604b d33c
00000050: 6698 d93c 00c4 f03c 79bb 43bc 322f 7c3d
00000060: c7a0 663c b5dc c63b 8f41 ef3b a09c d2bc
00000070: d0c6 5c3c 316d abbc 4fad e9bc 571a cc3c
00000080: 1db6 a0bc 2b2f 0fbd d33d 2bbb 8a89 2dbc
00000090: 5ecd a33c db97 4c3a 26b1 153d bda2 1c3c
000000a0: c594 933c 1aab 7e3c a295 1b3c 5fa6 26bb
000000b0: 0575 bbbb e6a8 afbc ccff 9a3b 23fc bd3c
000000c0: d49d a53b 0ade ad3c b593 cebc 5e96 58bb
000000d0: a1a9 ce3a 24b2 993c e267 debb 4c22 8a3d
000000e0: 5c7d cd3c 9fab 403c a18f eabc a894 a83c
000000f0: 62b7 64b9 f449 85bc ebbe 8b3c bc19 1fbc
00000100: 2032 e33c 44cd 99bc d5b8 063d 01ab 223c
00000110: e5be 0b3b 99e0 91bd 23b8 e3bc 0b87 5b3c
00000120: d33a e3bc a9b9 01bc 6352 e9ba dabd cd3c
00000130: 6956 af3c 6c96 65bb 15c1 11bc 447f e8bb
00000140: 21ca 0c3c 6390 1d3d 2828 f4ba c41d a4bc
00000150: e38b c3bc 9f05 94bc ef8a ec3b 94d4 233d
00000160: 3db9 b3bc ae02 a2bc eccb 75bd f51e c4bd
00000170: 3c99 2c3d 15d8 46bb 4dc7 a33c 382f f63c
00000180: 0e26 87bc e6e3 20bb b843 8c3b c2d5 103b
00000190: d459 86bd 2f63 b03a f3a3 7abd 41a5 afbc
000001a0: e99f 7cbc 2d45 34bc 1ed8 38bc f4d7 1abb
000001b0: bdea 6e3c 603f 853c 98fd 95ba ab61 c4bc
000001c0: cc9c ab3d c349 67bd d863 b73c 6243 a93b
000001d0: 1e86 4fba 66ac 7fbc 7150 11be cef8 023e
000001e0: 9a1d b6bc 8631 0f3d d2a8 9a3c 1a64 d53d
000001f0: 4792 08be 3aaf 103c 62d7 acbc 1960 a83c
00000200: 96bb 80bc 7f6f c2bd 0273 bb3d 5f00 c7bc
00000210: c54f ae3b 144b 0d3e 2083 f7bc be3b f53b
00000220: 9ae5 65bc cc41 b73b 5ebe 40bd 3544 673b
00000230: a19b 293e a945 663c eefb fd3c 09e1 7b3d
00000240: 5e28 783c 0e2d 2fbc 75ee 3abc ca0c 4bb9
00000250: 33ba 8f3b 94e3 d03c 334c 3cbc 85d8 4abd
00000260: d005 b4bc 0a89 663d 0eec 76bc 0012 22bd
00000270: 0488 993b 38bc a2bc 70b1 0abd b913 393d
00000280: 9a86 bcbc 1984 c1bd 3424 6f3c 0b90 883a
00000290: b06a 203d b690 c73c 095a f5bb 9808 363d
000002a0: 60ac a3bb a0e6 cf39 e535 7339 baaf 23bd
000002b0: a0ec 873d 6454 14bd e93b a5bc c3f6 0cbc
000002c0: b341 9a3d fd6d 8f3c 7e25 1abc 8ad6 d83c
000002d0: 4331 903c 9b49 c13c e671 32bd 280f 0e3e
000002e0: 175e 9c3c 8dd2 2d3c 225e c5bb 6b11 853e
000002f0: 058d 9bbd 317c 8d3b ed21 ddbb dc2d e43c
00000300: fba0 8b3b 6ec2 643c be8b b7bb 83cd 09bc
00000310: 7891 45bc 3216 1ebc 9be6 023c 76e3 a23c
00000320: 9bb2 593c a602 6e3c 24a0 a4bc b8d3 983c
00000330: 7d49 3b3c f781 94bc 3118 a43c c297 3a3c
00000340: 7a7c 05bc 7ca8 863b c9f2 4dbc 9160 003b
00000350: f32c 523c e4db f93b 32c5 483b dba2 1abc
00000360: f651 ec3b 5751 923c 1a6e 97bb 7b9a 08bd
00000370: 196a 263d 3397 3f3b 9585 86bc e39b 41bb
00000380: b717 1cbc 26f3 c9bc dd7c 813c f452 1c3c
00000390: 218b 04bd 7d9f 7b3c 7f7b 43bc b529 4a3c
000003a0: 10ee 87bc ad6f 6f3b f1bc 87ba 8e1d 89bc
000003b0: ef80 2e3b f5a0 9ebc 2997 62bc 99f4 ca3b
000003c0: 4c70 eb3c 0150 1237 4360 65bc e08f 953c
000003d0: 2d80 8f3c 14d2 c6bc 365b c1bc a362 1f3d
000003e0: 8156 883b dd0f b5bc f512 47bc 9ade 253d
000003f0: 2321 b8bc a4d3 193a 772c 96bc 10c9 ccbb

pre_model.lstm.bias_ih_l0 f4 [256]
0.07409671 0.041276548 0.05164145 0.07744429 0.1889375 0.10677492 0.10184374 0.0041078175
0.07315921 0.10099053 0.22714493 0.064286485 0.16782121 0.0050025457 -0.035281856 -0.008606435
0.16990595 0.01566294 0.20006382 0.039692465 0.054421082 0.028784964 0.13156214 0.07725137
0.09930838 0.058808755 -0.008318873 0.12106617 0.06563074 0.1436092 0.014146106 0.15170482
0.08491498 0.050012015 0.22435538 0.17734148 0.105614506 0.21930932 0.019414669 -0.02389121
0.08485265 0.116309926 0.1286277 0.21279484 0.06828219 -0.0134800775 0.20290005 0.03896367
-0.034323376 0.046673827 0.05997167 0.23271506 0.2397206 0.037356935 -0.0075915838 0.18188168
0.013717165 0.18496975 0.0855322 0.19294165 0.09552905 0.13050854 0.07013914 0.111445576
0.015958048 0.0042713317 -0.015404124 -0.055174205 -0.050745793 0.13827735 -0.032710265 -0.0018466567
-0.034835756 0.06295533 0.0081198625 -0.04715488 0.10166571 -0.004188357 -0.05365918 -0.028227443
-0.0480403 0.00050203555 -0.048749268 -0.0316356 -0.03508321 -0.016884722 -0.0677918 -0.010460345
-0.046099074 -0.008746731 0.082494274 0.14158209 0.118329324 -0.048819922 -0.0492559 0.0043038744
-0.013469993 0.019852528 -0.0509181 -0.05205322 0.09848073 -0.036370065 -0.0076121166 -0.035847142
-0.057453282 -0.057231728 -0.051077124 -0.042536724 0.0066758352 -0.06356352 -0.04995277 -0.039740324
0.12996449 0.011209423 -0.038346197 -0.045160834 -0.012155563 0.2316597 0.22174123 0.20555061
-0.031168673 0.096208625 -0.044559907 0.27951136 0.1615193 -0.048185535 -0.047244463 -0.056382265
0.0017420253 -0.05041709 0.014989632 0.076447725 0.09371079 -0.038570005 0.036173988 -0.04154502
0.010046654 0.08538273 -0.06389655 -0.08320695 -0.00075193145 0.019735865 -0.0048947763 -0.0843441
0.040192287 0.007841826 -0.03879677 -0.02074332 0.0336651 -0.05292462 -0.116177954 0.08171797
-0.07085198 -0.018130105 -0.02302108 0.081856765 -0.10136343 -0.07185301 0.0071726553 -0.0188622
0.031316627 -0.024196206 0.007823008 0.005247744 0.059834063 0.06713952 0.012667592 0.09808995
0.07466774 0.012799923 -0.005617228 0.035188783 -0.027142854 -0.027431551 0.046190675 0.03139954
0.044854503 -0.01640234 -0.025564509 -0.010262482 -0.008446801 0.020382602 0.050238315 0.046853606
0.021816982 -0.06671053 -0.020749388 -0.07089814 -0.0640775 0.08064194 -0.024613405 0.104330465
0.09139365 0.067005895 0.08555917 0.10078878 0.20840943 0.077575594 0.1103406 0.02355655
0.080936715 0.14174712 0.24401176 0.054893233 0.13214473 0.023412691 0.011196548 0.016088283
0.18834472 0.03602178 0.22018054 0.0618075 0.076198116 0.057030044 0.14732498 0.009323738
0.11205095 0.06096401 0.02998055 0.071079515 0.00911129 0.16378579 0.044859402 0.17160095
0.11161525 0.06090508 0.23977064 0.19505024 0.10401374 0.2343983 0.071190394 0.017540853
0.09089492 0.13294055 0.14383346 0.22941631 0.08228632 0.019522421 0.22179517 0.0601562
0.14691621 -0.010155378 0.07790052 0.2466098 0.25236136 0.09206887 -0.004427879 0.14574765
0.054203402 0.21060888 0.10263111 0.18499668 0.091921166 0.14882113 0.08275398 0.1230254
00000000: 04c0 973d 9911 293d fc85 533d 1d9b 9e3d
00000010: d578 413e cfac da3d 7393 d03d df9a 863b
00000020: 7fd4 953d 1fd4 ce3d ae98 683e a2a8 833d
00000030: 53d9 2b3e 65ec a33b b583 10bd 0102 0dbc
00000040: d3fb 2d3e 914f 803c 88dd 4c3e 9194 223d
00000050: a4e8 5e3d 72ce eb3c 3ab8 063e f735 9e3d
00000060: 3162 cb3d 73e1 703d e24b 08bc 8af1 f73d
00000070: 6969 863d 4a0e 133e 12c5 673c 8258 1b3e
00000080: e8e7 ad3d 66d9 4c3d 6bbd 653e 0199 353e
00000090: 6b4c d83d 9f92 603e 830b 9f3c 80b7 c3bc
000000a0: 3ac7 ad3d e633 ee3d fbb6 033e e4e6 593e
000000b0: 88d7 8b3d 8bdb 5cbc 08c5 4f3e 5f98 1f3d
000000c0: ab96 0cbd 0e2d 3f3d dba4 753d db4c 6e3e
000000d0: 5179 753e 9603 193d d2c2 f8bb 313f 3a3e
000000e0: f6bd 603c b668 3d3e 822b af3d 7f92 453e
000000f0: bca4 c33d 08a4 053e 1ca5 8f3d 943d e43d
00000100: 74ba 823c 87f6 8b3b 9461 7cbc 59fe 61bd
00000110: d2da 4fbd 9498 0d3e 33fb 05bd 840b f2ba
00000120: f0af 0ebd b9ee 803d 2c09 053c 7a25 41bd
00000130: 1d36 d03d 7c3e 89bb bac9 5bbd 3d3d e7bc
00000140: e8c5 44bd 099b 033a 50ad 47bd 5594 01bd
00000150: 69b3 0fbd d451 8abc 6dd6 8abd de61 2bbc
00000160: 62d2 3cbd 734e 0fbc c2f2 a83d e5fa 103e
00000170: a556 f23d 66f7 47bd 8ec0 49bd 8407 8d3b
00000180: 3fb1 5cbc c5a1 a23c 7f8f 50bd c235 55bd
00000190: 44b0 c93d c7f8 14bd 106f f9bb 74d4 12bd
000001a0: 2254 6bbd d16b 6abd 3f36 51bd fd3a 2ebd
000001b0: f7c0 da3b 972d 82bd 479b 4cbd c0c6 22bd
000001c0: 6915 053e baa7 373c e710 1dbd 91fa 38bd
000001d0: 2028 47bc 3338 6d3e 2210 633e dc7b 523e
000001e0: 7255 ffbc 0709 c53d 7384 36bd 1d1c 8f3e
000001f0: 5165 253e 325e 45bd 6983 41bd 17f1 66bd
00000200: ab54 e43a 2782 4ebd 1397 753c a090 9c3d
00000210: 71eb bf3d 95fb 1dbd 2d2b 143d 1c2b 2abd
00000220: b99a 243c 24dd ae3d 32dc 82bd 6868 aabd
00000230: 441d 45ba 1cad a13c 5c64 a0bb 99bc acbd
00000240: aba0 243d 017b 003c 5de9 1ebd e5ed a9bc
00000250: 6ae4 093d 7dc7 58bd b5ee edbd c05b a73d
00000260: d81a 91bd 9685 94bc b496 bcbc 85a4 a73d
00000270: a197 cfbd ac27 93bd 9808 eb3b e784 9abc
00000280: dd45 003d 1f37 c6bc 132c 003c 44f5 ab3b
00000290: 9014 753d 7280 893d bb8b 4f3c 62e3 c83d
000002a0: 66eb 983d c5b6 513c b910 b8bb 1d22 103d
000002b0: b15a debc 22b8 e0bc 6f32 3d3d ce9c 003d
000002c0: 5bb9 373d 335e 86bc a96c d1bc f823 28bc
000002d0: 7464 0abc 6af9 a63c b1c6 4d3d 91e9 3f3d
000002e0: 87b9 b23c 889f 88bd 9ffa a9bc 0b33 91bd
000002f0: 103b 83bd 9a27 a53d 0da2 c9bc 36ab d53d
00000300: 982c bb3d 633a 893d a539 af3d 596a ce3d
00000310: 4869 553e f4df 9e3d 41fa e13d aaf9 c03c
00000320: 26c2 a53d 2826 113e 38de 793e bad7 603d
00000330: f350 073e f9cb bf3c ba71 373c 93cb 833c
00000340: 70dd 403e 938b 133d 0277 613e dc29 7d3d
00000350: c20d 9c3d 5698 693d 5cdc 163e 97c2 183c
00000360: f87a e53d 66b5 793d c599 f53c 2392 913d
00000370: 8547 153c 76b7 273e 7ebe 373d 29b8 2f3e
00000380: 8996 e43d 9b77 793d 6f86 753e 40bb 473e
00000390: 2805 d53d 1c06 703e 45cc 913d d6b1 8f3c
000003a0: 1e27 ba3d 9121 083e 1449 133e 1cec 6a3e
000003b0: bb85 a83d 7ced 9f3c 461e 633e 5966 763d
000003c0: 3471 163e be62 26bc 4f8a 9f3d 4887 7c3e
000003d0: 8235 813e 9b8e bc3d be17 91bb df3e 153e
000003e0: 6304 5e3d dba9 573e 4230 d23d c56f 3d3e
000003f0: 2a41 bc3d 9164 183e eb7a a93d bef4 fb3d

pre_model.lstm.bias_hh_l0 f4 [256]
0.07237303 0.052878924 0.024178213 0.07744392 0.1889375 0.08422156 0.102831095 -0.0055641467
0.07313397 0.11252651 0.22714491 0.060224906 0.20031866 0.00367083 -0.033652224 -0.011664438
0.16990592 0.012112491 0.20006382 0.040155813 0.055266988 0.029492214 0.13158353 0.06612171
0.09931329 0.046775352 0.054144617 0.07315646 0.066708475 0.14360921 0.013217409 0.15171993
0.08505471 0.048408773 0.22435564 0.17734222 0.008995267 0.2193096 0.03793603 -0.025983032
0.08368288 0.11632005 0.12808537 0.21279542 0.047982763 -0.0140772695 0.20290011 0.04086823
-0.07504061 0.037592016 0.06123278 0.23271675 0.23972122 -0.09288717 -0.0040918896 0.20672834
0.015468336 0.18564458 0.08553527 0.190201 0.107245214 0.13061835 0.06785829 0.11144541
0.015420733 -0.00214082 0.0089738 -0.05517433 -0.050746184 0.07811627 -0.03270272 -0.004554989
-0.03488927 0.05314289 0.008081007 -0.04277049 0.12711677 -0.015444326 -0.054662436 -0.030387344
-0.04804023 -0.005846398 -0.048748426 -0.03237476 -0.035597093 -0.019835686 -0.06806323 -0.01814048
-0.046137147 -0.008614054 0.10180813 0.06217244 0.1304838 -0.04882042 -0.049223278 0.004229359
-0.0138949035 0.020434646 -0.05092163 -0.052055497 0.06455189 -0.03638769 0.009860609 0.012550163
-0.0574333 -0.057248157 -0.051376928 -0.042511214 -0.026483364 -0.06490406 -0.04995487 -0.039594084
0.14793858 -0.081263185 -0.038055606 -0.04511007 -0.012327458 0.15823631 0.20860364 0.14637235
-0.029894134 0.10281456 -0.04452853 0.28047496 0.07817779 -0.048269145 -0.046344347 -0.056330044
0.04954329 -0.113055274 0.06368645 -0.042748347 -0.06868073 -0.06393483 -0.090408094 -0.048115898
-0.06950587 -0.06074413 -0.0007086173 -0.060087238 0.038651433 -0.008055736 -0.020409966 0.06371524
-0.059319127 0.06405985 0.005392956 -0.063700356 0.050472092 -0.059278883 0.031538084 0.076892965
0.07331016 0.09395753 0.07585129 0.053289965 0.06880869 0.08047409 -0.08749933 0.073317684
-0.020054895 -0.070917286 0.09653929 0.098614156 0.09872761 -0.049045376 0.01200735 0.043328602
0.05963424 0.0745441 0.017254224 -0.041944697 0.11244081 0.099884465 0.049698908 -0.05310855
0.032067347 -0.04347092 0.086347565 0.050462667 -0.053955894 0.037799213 -0.059495844 0.010705487
-0.07935992 0.056308165 0.019626766 0.037937246 0.049435116 0.017295536 0.005755168 0.015254727
0.0914682 0.070963666 0.060564626 0.10078899 0.20840943 0.11222683 0.1120299 0.021236671
0.08093034 0.15509295 0.24401233 0.06653917 0.083296835 0.018852528 0.011291702 0.020563373
0.1883447 0.045037903 0.22018054 0.061595123 0.07484426 0.057273302 0.14740561 -0.0066872765
0.11204966 0.034854673 0.011856605 0.072842844 0.05321558 0.16378579 0.04371431 0.17168403
0.111702524 0.059852656 0.2397706 0.1950501 0.119291596 0.23440067 0.070593126 -0.0042905877
0.0926754 0.13295324 0.14435558 0.22941685 0.08626903 0.020695059 0.22179514 0.0586298
0.109459035 -0.010291509 0.07883883 0.24661337 0.25236502 0.153255 0.0035851088 0.106104
0.04768053 0.20927733 0.10262867 0.17241766 0.007037583 0.14892404 0.07673625 0.12302291
00000000: 5038 943d 9297 583d 6311 c63c eb9a 9e3d
00000010: d578 413e 5a7c ac3d 1c99 d23d 7253 b6bb
00000020: 43c7 953d 4d74 e63d ad98 683e 64ae 763d
00000030: 5620 4d3e 4f92 703b ead6 09bd 331c 3fbc
00000040: d1fb 2d3e 7873 463c 88dd 4c3e 6c7a 243d
00000050: a35f 623d a899 f13c d5bd 063e d26a 873d
00000060: c464 cb3d 8397 3f3d bfc6 5d3d 0ed3 953d
00000070: 749e 883d 4b0e 133e d58d 583c 785c 1b3e
00000080: 2a31 ae3d 4748 463d 7cbd 653e 3399 353e
00000090: e260 133c b292 603e d062 1b3d 5eda d4bc
000000a0: ee61 ab3d 3539 ee3d d028 033e 0be7 593e
000000b0: 9389 443d 59a4 66bc 0cc5 4f3e 7265 273d
000000c0: e4ae 99bd 16fa 193d 39cf 7a3d 4d4d 6e3e
000000d0: 7b79 753e a13b bebd 4215 86bb 98b0 533e
000000e0: e76e 7d3c 9d19 3e3e 1e2d af3d 0dc4 423e
000000f0: 61a3 db3d d1c0 053e 4af9 8a3d 7e3d e43d
00000100: 3ea7 7c3c 004d 0cbb d806 133c 7afe 61bd
00000110: 3bdb 4fbd 6cfb 9f3d 4af3 05bd 0442 95bb
00000120: 0de8 0ebd 5cac 593d 3366 043c 1c30 2fbd
00000130: e62a 023e 330a 7dbc b8e5 5fbd e1ee f8bc
00000140: d5c5 44bd 2493 bfbb 6eac 47bd 659b 04bd
00000150: 42ce 11bd 737e a2bc bc64 8bbd 589b 94bc
00000160: 4efa 3cbd f621 0dbc c880 d03d 87a8 7e3d
00000170: 8c9d 053e ecf7 47bd 599e 49bd 6f96 8a3b
00000180: 73a7 63bc 8f66 a73c 3393 50bd 2538 55bd
00000190: c833 843d 420b 15bd 648e 213c 339f 4d3c
000001a0: 2e3f 6bbd 0b7d 6abd 9d70 52bd 3d20 2ebd
000001b0: a4f3 d8bc 6bec 84bd 7a9d 4cbd 682d 22bd
000001c0: 367d 173e 506d a6bd 32e0 1bbd 56c5 38bd
000001d0: 1bf9 49bc b308 223e 319c 553e a2e2 153e
000001e0: 8be4 f4bc 7190 d23d 8c63 36bd 6a9a 8f3e
000001f0: ad1b a03d deb5 45bd 92d3 3dbd 55ba 66bd
00000200: e8ed 4a3d 8689 e7bd 0b6e 823d e418 2fbd
00000210: 7ca8 8cbd 44f0 82bd e127 b9bd 2d15 45bd
00000220: 1859 8ebd d6ce 78bd 81c2 39ba 091e 76bd
00000230: f750 1e3d 35fc 03bc cd32 a7bc 237d 823d
00000240: 9df8 72bd d031 833d 65b7 b03b 5575 82bd
00000250: d3bb 4e3d 6ace 72bd 142e 013d 0f7a 9d3d
00000260: a323 963d ce6c c03d ec57 9b3d 9446 5a3d
00000270: 92eb 8c3d 9acf a43d d932 b3bd 9527 963d
00000280: 2a4a a4bc 153d 91bd 64b6 c53d 38f6 c93d
00000290: b431 ca3d cee3 48bd 7aba 443c 5579 313d
000002a0: 0843 743d 94aa 983d bb58 8d3c 34ce 2bbd
000002b0: 5e47 e63d 3a90 cc3d 1591 4b3d 5a88 59bd
000002c0: 0d59 033d 900e 32bd fed6 b03d f1b1 4e3d
000002d0: db00 5dbd 59d3 1a3d eab1 73bd 1166 2f3c
000002e0: 7487 a2bd 64a3 663d 50c8 a03c 1664 1b3d
000002f0: 7a7c 4a3d 5eaf 8d3c d995 bc3b f6ee 793c
00000300: ae53 bb3d 6655 913d 9d12 783d 756a ce3d
00000310: 4869 553e 2ed7 e53d ef6f e53d 87f8 ad3c
00000320: cebe a53d b0d0 1e3e 5ede 793e b045 883d
00000330: 8897 aa3d 9e70 9a3c d500 393c 8574 a83c
00000340: 6fdd 403e aa79 383d 0277 613e 2b4b 7c3d
00000350: f347 993d 6997 6a3d 7ff1 163e f120 dbbb
00000360: 4b7a e53d c6c3 0e3d 3542 423c a12e 953d
00000370: 94f8 593d 76b7 273e c70d 333d f0cd 2f3e
00000380: 4bc4 e43d 0f28 753d 6d86 753e 37bb 473e
00000390: 274f f43d bb06 703e 2193 903d 0f98 8cbb
000003a0: 9acc bd3d e524 083e f3d1 133e 40ec 6a3e
000003b0: d1ad b03d af88 a93c 441e 633e cd25 703d
000003c0: 0f2c e03d b89d 28bc 4176 a13d 3788 7c3e
000003d0: fd35 813e e1ee 1c3e 25f4 6a3b 0e4d d93d
000003e0: a94c 433d cc4c 563e fb2e d23d 418e 303e
000003f0: 869b e63b 8b7f 183e e527 9d3d 6ff3 fb3d

pre_model.lstm.weight_ih_l1 f4 [256, 64]
0.07125614 0.016842762 -0.033754565 0.0366921 -0.0668433 0.088961974 -0.013378373 -0.027749639
-0.005382653 -0.010348654 -0.053866804 -0.0048655802 0.06813637 0.023132892 0.02623603 0.05480297
-0.07179534 -0.033801902 -0.061747916 0.011747471 0.0021492746 0.03670207 0.06477011 0.015750611
-0.028076628 0.061561313 0.0613145 0.07948331 -0.058506094 0.06341535 0.0017687104 -0.053742304
0.018820522 0.00048957206 0.059738148 0.07004154 0.06163175 0.06067414 0.04822816 0.05152793
-0.009774569 -0.054984815 -0.064555384 -0.061346974 -0.02878607 0.015903944 -0.06339505 0.014348781
-0.0713819 0.011042186 0.0109556895 0.052220456 0.06968305 0.023529815 0.11173568 -0.028364705
0.034294974 -0.06606896 0.012683043 0.034442596 0.10462368 0.057854682 -0.0037665896 0.040615965
-0.022597093 -0.10378626 -0.01627173 0.01294853 -0.028077206 -0.00083541 -0.017516129 0.108992755
-0.01981191 0.087645635 -0.020414108 -0.024038998 0.024289872 -0.05426341 0.008517871 -0.010114697
-0.04013443 0.002853125 -0.024861475 -0.035682857 -0.016240979 -0.02438225 -0.03798872 -0.13311574
-0.02438602 0.012789982 -0.0390983 -0.06299972 -0.001061438 0.037074603 0.013691752 -0.04157143
0.052880604 0.006599408 0.020226873 0.017595222 0.015689863 0.0068729506 0.012696555 -0.005651291
0.0152427815 0.0194298 0.024952961 -0.01824041 -0.011082686 0.0012376788 -0.011305405 -0.039049666
-0.021250969 -0.06496549 0.0027044578 0.032763906 0.0046972195 -0.14588669 -0.03626685 0.044645432
-0.01679575 -0.023331044 0.013989977 -0.016933294 -0.038547926 -0.021304037 0.01701738 0.017218847
0.009403045 -0.025246162 -0.01979067 0.028626742 -0.016937146 0.053411204 0.0019329966 0.08575055
-0.0018005358 0.068476684 -0.024940828 0.00029361184 0.024176097 -0.071397156 0.011372541 -0.030689076
-0.019436983 0.013703955 -0.023934728 -0.043341454 0.008978996 -0.030610772 -0.016504845 0.0141306715
-0.007930095 -0.008560082 0.008971323 -0.08020184 0.028663732 0.03446861 -0.004262478 -0.01663857
0.021710241 -0.024975935 0.025598073 0.024587248 -0.015531164 0.02613115 -0.0026922387 -0.022362422
-0.019973077 0.010392375 0.013432893 -0.023730593 0.010823436 -0.00033547758 -0.025230734 -0.020341784
0.007270498 -0.087112345 -0.017389646 0.0212075 0.020385943 -0.11663205 -0.04792613 0.021669723
-0.021667661 -0.024780912 -0.003665218 0.037858393 -0.02182446 0.0143974535 -0.00591347 0.020491071
0.03242226 0.001974633 0.013779019 -0.02185399 0.012932145 0.036526274 0.01936199 0.0018970041
0.021562995 0.02420521 0.0039698277 -0.009771089 0.03233325 -0.00332076 0.027875528 0.037910134
0.016622158 -0.028217698 0.013919667 0.030464914 0.026327826 0.02883926 -0.013634941 -0.01503797
0.0147852395 0.021417078 0.029078396 0.009701479 -0.009732897 -0.01668608 -0.02405489 0.018695626
-0.021140944 -0.032495942 -0.0155453775 -0.013809437 0.02444314 -0.010706749 0.030810554 0.025030179
0.01753185 0.014632614 0.015193758 0.005674527 -0.007428963 -0.025433846 0.010395828 0.02593422
-0.029354196 0.017314617 -0.022902152 -0.0063654324 -0.012678012 0.00086020975 0.040317543 -0.0014150128
0.027432887 0.0024130605 -0.023266276 0.014226845 0.033603664 -0.012310183 0.008770948 -0.016730793
00000000: bdee 913d d5f9 893c 3a42 0abd 754a 163d
00000010: 24e5 88bd b231 b63d f730 5bbc 3653 e3bc
00000020: f760 b0bb 678d 29bc 70a3 5cbd 726f 9fbb
00000030: 158b 8b3d 3181 bd3c f1ec d63c 1479 603d
00000040: 6f09 93bd dd73 0abd 62eb 7cbd 7778 403c
00000050: d8da 0c3b e954 163d 31a6 843d 6d07 813c
00000060: f500 e6bc b727 7c3d ea24 7b3d 25c8 a23d
00000070: 16a4 6fbd e8df 813d 13d4 e73a e420 5cbd
00000080: 7f2d 9a3c a056 003a fdaf 743d f071 8f3d
00000090: 9371 7c3d 7285 783d e48a 453d f30e 533d
000000a0: 8425 20bc c237 61bd 9d35 84bd f746 7bbd
000000b0: c4d0 ebbc fd48 823c 44d5 81bd 2617 6b3c
000000c0: ac30 92bd 49ea 343c 7e7f 333c 1ee5 553d
000000d0: fdb5 8e3d 99c1 c03c add5 e43d 195d e8bc
000000e0: e378 0c3d 2a4f 87bd 8acc 4f3c ae13 0d3d
000000f0: f144 d63d 08f9 6c3d e3d8 76bb ed5c 263d
00000100: 8a1d b9bc e48d d4bd 4b4c 85bc 1226 543c
00000110: 2b02 e6bc 6bff 5aba fc7d 8fbc 9837 df3d
00000120: 964c a2bc 8e7f b33d 7d3b a7bc 6fed c4bc
00000130: 8efb c63c 4f43 5ebd 8a8e 0b3c 1db8 25bc
00000140: 0064 24bd 7ffb 3a3b 4baa cbbc 3028 12bd
00000150: cd0b 85bc 49bd c7bc 0f9a 1bbd 7e4f 08be
00000160: 31c5 c7bc 138d 513c 8a25 20bd ff05 81bd
00000170: f31f 8bba 8adb 173d 5f53 603c ce46 2abd
00000180: 5599 583d d93f d83b d4b2 a53c db23 903c
00000190: 0788 803c 7d36 e13b 3605 503c 772e b9bb
000001a0: dcbc 793c 3e2b 9f3c 276a cc3c ea6c 95bc
000001b0: 2794 35bc 9c39 a23a 4e3a 39bc 8bf2 1fbd
000001c0: 8316 aebc a00c 85bd 463d 313b 7233 063d
000001d0: 22eb 993b 5263 15be 8c8c 14bd 21de 363d
000001e0: 3e97 89bc bf20 bfbc 3736 653c b1b7 8abc
000001f0: 6ee4 1dbd ce85 aebc 0868 8b3c 8a0e 8d3c
00000200: 3b0f 1a3c 0ad1 cebc 0b20 a2bc a182 ea3c
00000210: c5bf 8abc b5c5 5a3d 9a5c fd3a fc9d af3d
00000220: f5ff ebba 813d 8c3d b550 ccbc eaef 9939
00000230: f30c c63c ac38 92bd e553 3a3c a867 fbbc
00000240: 4f3a 9fbc 8e86 603c c312 c4bc cf86 31bd
00000250: a41c 133c 71c3 fabc 2b35 87bc 5584 673c
00000260: 3bed 01bc 963f 0cbc 75fc 123c dd40 a4bd
00000270: 34d0 ea3c f52e 0d3d 42ac 8bbb 9c4d 88bc
00000280: add9 b13c 559a ccbc 0db3 d13c 326b c93c
00000290: 6c76 7ebc fe10 d63c 4570 30bb 6631 b7bc
000002a0: 949e a3bc c844 2a3c a315 5c3c a966 c2bc
000002b0: c854 313c 0ae3 afb9 afb0 cebc d0a3 a6bc
000002c0: 5c3d ee3b f567 b2bd bb74 8ebc 5abb ad3c
000002d0: 6c00 a73c c9dc eebd 314e 44bd b484 b13c
000002e0: 6180 b1bc 5701 cbbc 2734 70bb 6711 1b3d
000002f0: 36c9 b2bc 4ce3 6b3c c8c5 c1bb e4dc a73c
00000300: 34cd 043d d868 013b 65c1 613c 2407 b3bc
00000310: 59e1 533c 939c 153d 099d 9e3c e5a4 f83a
00000320: e1a4 b03c 014a c63c 5415 823b eb16 20bc
00000330: df6f 043d 1ca1 59bb 385b e43c a847 1b3d
00000340: 312b 883c cd28 e7bc 510f 643c 8e91 f93c
00000350: 74ad d73c 5040 ec3c 1665 5fbc d161 76bc
00000360: ca3d 723c de72 af3c d135 ee3c f4f2 1e3c
00000370: bb76 1fbc 3fb1 88bc c30e c5bc 9227 993c
00000380: c62f adbc 771a 05bd 0ab2 7ebc fa40 62bc
00000390: fb3c c83c 5c6b 2fbc 6a66 fc3c 170c cd3c
000003a0: f49e 8f3c a2bd 6f3c 3def 783c 62f1 b93b
000003b0: a96e f3bb a45a d0bc 4353 2a3c 0074 d43c
000003c0: 3678 f0bc 62d7 8d3c 4b9d bbbc 1e95 d0bb
000003d0: 70b7 4fbc b37f 613a 0224 253d f377 b9ba
000003e0: efba e03c 7024 1e3b eb98 bebc b717 693c
000003f0: ffa3 093d a6b0 49bc 06b4 0f3c 040f 89bc

pre_model.lstm.weight_hh_l1 f4 [256, 64]
0.049415737 0.001379561 -0.038017858 0.00774865 -0.05319523 0.040813714 0.0018582515 0.0927004
0.046140224 -0.00097497745 0.06258457 -0.052538045 0.017759869 7.844688e-05 0.0014009661 0.038738728
0.0059181135 0.060354684 0.007717737 -0.067687936 -0.001202959 0.07093581 -0.092826694 0.087252274
0.00030053547 -0.05264408 0.052174546 0.08684329 -0.0017601321 -0.061385598 -0.005560267 0.0010890258
-0.0009875689 0.005325307 -0.037374888 -0.0039128936 -0.097593665 -0.1054953 0.03238609 -0.016123608
0.028392065 -0.009794512 -0.08130743 0.0006644941 -0.06625535 0.006389928 -0.004389752 -0.008084359
-0.07749915 0.08265442 0.028591627 -0.07551393 0.033664394 -0.049292583 -0.037932217 2.7249811e-05
-0.0020503819 0.0105708735 -0.017309634 -0.054651525 0.054211788 -0.08615669 0.0071495557 -0.02641612
0.030091882 -0.011863261 -0.00018380057 -0.006882732 0.016396977 0.021387942 -0.0047571566 -0.0054094642
-0.0021975178 -0.0007844833 -0.012920995 0.024105603 -0.009222431 0.0048837727 -0.005036344 2.6754346e-05
0.0026106278 0.005557242 -0.0031702616 -0.014602277 0.01326489 -0.0059601516 -0.020292198 -0.007693319
0.0028970954 0.004643804 0.028350782 0.0035716102 0.008553253 0.04014056 -0.0015308837 0.0078453785
0.0047689113 -0.027210666 -0.022191145 0.0025645806 0.037335433 -0.00012645203 -0.006390722 0.004300742
0.020863075 0.008186725 -0.01952804 0.010269712 -0.027442273 -0.031547535 -0.007387519 -0.011188958
-0.005606731 0.011620319 0.056831513 0.0064388514 0.030494433 0.040313926 -0.026965821 -0.002686724
0.011502507 0.042161975 0.0434099 -0.035141848 -0.007115266 -0.008257344 0.03096663 -0.0018730041
-0.00026035274 0.07750833 0.021263465 0.0057015186 0.01973458 0.009494364 0.0024073059 0.01838721
-0.018528065 0.0021962468 0.03289514 -0.0047333953 0.026820334 -0.00054249767 -0.0028489707 0.0018475562
0.021878947 0.017836343 0.007191313 -0.0049345936 0.0025348552 0.023788875 -0.0013645986 -0.033481896
0.009242669 -0.022651743 -0.029651491 -0.013719342 -0.016807778 0.08504847 -0.0065425774 0.0016677558
0.0004083802 -0.03121518 -0.029165043 0.005353111 0.055212855 0.04863685 0.015132183 -0.0039267256
0.016532494 -0.0023882533 0.000925964 -0.00034555883 -0.017749142 -0.036060285 -0.013767088 -0.0053983154
0.04954911 -0.010964342 0.052639123 0.024571491 -0.0022444127 0.023139399 -0.0047496757 0.0007732794
0.0047512916 0.07759227 0.02509807 0.02781056 -0.02034037 0.028925708 0.05078071 0.013382976
0.006868038 -0.0025485663 -0.0076625007 0.01534754 -0.016552353 -0.0067133424 0.002528075 -0.00066688855
0.028899038 0.0020031123 0.0031307328 -0.012961508 0.0152453035 -8.6295884e-05 0.0005770993 0.017135506
-0.0022220835 -0.011635785 -0.0022310626 -0.008623195 0.0016893839 0.02433948 -0.021900907 0.023058288
0.00016988156 0.008765087 0.0023502067 0.029374972 0.004248199 -0.020516902 -0.0055632195 -0.0009729623
-0.0013935175 -0.0119518265 -0.021567905 -0.0004149796 -0.028354254 -0.016546505 0.025561783 -0.0053896913
-0.019019058 -0.0037665162 0.011384926 -0.0008895548 0.0013955772 0.0045363074 0.003281683 0.0014515757
-0.0099652335 0.027452078 -0.0051477854 0.019770265 0.019179925 -0.007856917 0.014673063 -0.0012030499
-0.0010125334 -0.0045411834 0.006929002 0.0035687748 0.017095985 -0.008611878 -0.0019045767 0.005176134
00000000: 2868 4a3d 63d2 b43a 9db8 1bbd 63e8 fd3b
00000010: 3ee3 59bd 482c 273d 9390 f33a b5d9 bd3d
00000020: 88fd 3c3d a195 7fba 572c 803d 2232 57bd
00000030: 257d 913c d983 a438 9fa0 b73a 80ac 1e3d
00000040: bcec c13b 7936 773d 12e5 fc3b f99f 8abd
00000050: 9bac 9dba cb46 913d ec1b bebd 52b1 b23d
00000060: 3091 9d39 52a1 57bd fab4 553d e5da b13d
00000070: 3cb4 e6ba 776f 7bbd e632 b6bb a4bd 8e3a
00000080: 5071 81ba ea7f ae3b 6916 19bd bb37 80bb
00000090: 30df c7bd eb0d d8bd 47a7 043d a815 84bc
000000a0: 7a96 e83c 2979 20bc 8384 a6bd 7231 2e3a
000000b0: e3b0 87bd 9a62 d13b e9d7 8fbb 4274 04bc
000000c0: e0b7 9ebd b846 a93d fd38 ea3c 0ca7 9abd
000000d0: ade3 093d 05e7 49bd d05e 1bbd 8696 e437
000000e0: b35f 06bb 7531 2d3c efcc 8dbc 47da 5fbd
000000f0: 2e0d 5e3d eb72 b0bd d246 ea3b 9e66 d8bc
00000100: 4083 f63c 205e 42bc 97ba 40b9 8a88 e1bb
00000110: f452 863c c435 af3c ece1 9bbb e041 b1bb
00000120: 3b04 10bb c8a5 4dba 95b2 53bc 1d79 c53c
00000130: ae19 17bc 0e08 a03b ea07 a5bb 856e e037
00000140: 1117 2b3b 8619 b63b 2ac4 4fbb 643e 6fbc
00000150: fb54 593c 604d c3bb d33b a6bc 3d18 fcbb
00000160: 32dd 3d3b 0d2b 983b e63f e83c ad11 6a3b
00000170: f122 0c3c 6e6a 243d efa7 c8ba e789 003c
00000180: 8744 9c3b e7e8 debc 34ca b5bc 8612 283b
00000190: 0aed 183d 3598 04b9 4369 d1bb 3ded 8c3b
000001a0: 0ae9 aa3c 9d21 063c 45f9 9fbc 4b42 283c
000001b0: 9ece e0bc fd37 01bd 0013 f2bb e451 37bc
000001c0: abb8 b7bb 2763 3e3c 29c8 683d 00fd d23b
000001d0: 76cf f93c 3720 253d 6de7 dcbc c013 30bb
000001e0: 0375 3c3c 09b2 2c3d 94ce 313d e6f0 0fbd
000001f0: 2d27 e9bb d049 07bc bbad fd3c 977f f5ba
00000200: f47f 88b9 b0bc 9e3d b830 ae3c ced3 ba3b
00000210: 6aaa a13c 408e 1b3c e4c3 1d3b c6a0 963c
00000220: 2bc8 97bc e8ee 0f3b 0ebd 063d 991a 9bbb
00000230: 51b6 db3c 6736 0eba ccb5 3abb b329 f23a
00000240: 7a3b b33c 861d 923c 1ba5 eb3b 5fb2 a1bb
00000250: d01f 263b e3e0 c23c 55dc b2ba 5024 09bd
00000260: 906e 173c 2690 b9bc afe7 f2bc 17c7 60bc
00000270: 77b0 89bc e42d ae3d 1e63 d6bb 9998 da3a
00000280: dd1b d639 fab6 ffbc 87eb eebc 2669 af3b
00000290: e026 623d 6f37 473d faec 773c c3ab 80bb
000002a0: 276f 873c 3e84 1cbb 64bc 723a 1f2c b5b9
000002b0: a666 91bc f3b3 13bd 5a8f 61bc 5ae4 b0bb
000002c0: 02f4 4a3d c9a3 33bc 1f9c 573d 274a c93c
000002d0: ff16 13bb d68e bd3c 2ba3 9bbb e7b5 4a3a
000002e0: b9b0 9b3b b2e8 9e3d 789a cd3c f9d2 e33c
000002f0: d9a0 a6bc 9bf5 ec3c 6fff 4f3d 4544 5b3c
00000300: 470d e13b d905 27bb b715 fbbb 4074 7b3c
00000310: cd98 87bc 99fb dbbb 0fae 253b 22d2 2eba
00000320: adbd ec3c a646 033b fb2c 4d3b 815c 54bc
00000330: 70c7 793c c0f9 b4b8 7a48 173a c35f 8c3c
00000340: 60a0 11bb 05a4 3ebc 0537 12bb 4d48 0dbc
00000350: 516e dd3a 9763 c73c 8869 b3bc bce4 bc3c
00000360: 3c22 3239 719b 0f3c ed05 1a3b c8a3 f03c
00000370: 7a34 8b3b 1013 a8bc ab4b b6bb 650e 7fba
00000380: b0a6 b6ba 98d1 43bc 2daf b0bc 9e91 d9b9
00000390: 2e47 e8bc 898c 87bc f266 d13c 029c b0bb
000003a0: dbcd 9bbc a8d7 76bb d787 3a3c 0331 69ba
000003b0: cdeb b63a 4ea5 943b 8111 573b cc42 be3a
000003c0: 3845 23bc 2ee3 e03c c1ae a8bb 40f5 a13c
000003d0: 381f 9d3c 4cba 00bc 4967 703c a8af 9dba
000003e0: fcb6 84ba 35ce 94bb ae0c e33b 1be2 693b
000003f0: e10c 8c3c d618 0dbc fda2 f9ba 8f9c a93b

pre_model.lstm.bias_ih_l1 f4 [256]
-0.0009896046 -0.020672295 0.037153848 0.04126063 -0.09421527 0.05564438 -0.054893754 -0.084859855
0.06101088 -0.039931055 0.17800054 0.03952074 0.11633689 -0.04698903 -0.043943074 -0.047730375
-0.10700741 0.18227501 0.02207442 -0.020865735 0.054865282 0.05346573 0.06496426 0.12860623
-0.0027915526 0.072660685 0.07451161 -0.0020283097 0.03698611 0.104715854 -0.06813594 -0.018552382
-0.054205466 0.057167623 -0.054258626 -0.0012202957 0.053942047 0.078411296 -0.12801035 0.16579041
0.097995855 0.063805744 0.18293512 -0.025901556 0.32752913 0.20885323 0.05543884 -0.038133234
0.0665489 -0.09659459 0.06405755 0.36175427 0.041511662 -0.019705784 0.19280568 -0.0052601476
0.008426936 0.077453874 0.17833035 0.10048694 0.06837595 0.47095254 0.033148516 0.007147469
0.036799192 0.114833 0.1267601 0.05450851 -0.021262655 0.18616866 -0.054549403 0.41682547
0.08239343 -0.0410466 0.12743616 0.06956967 0.19550253 -0.045677874 -0.042120233 0.10757752
0.10706746 0.10426349 0.047160618 0.1726232 -0.026228178 0.124363296 0.2012693 0.33149013
-0.012262384 0.22075994 0.29200503 0.13125467 0.036642704 0.23673202 0.029875228 -0.019736167
-0.050101403 0.3200336 0.17596725 -0.00799836 0.2321676 0.14668441 0.075767204 0.112459496
0.32140934 0.08986678 0.03683348 -0.032306273 0.076263525 0.19132605 0.04874255 -0.0040896954
0.23891681 0.17902394 0.19040523 0.12504812 0.18196245 0.17930427 0.019644156 -0.009788037
-0.0085155945 0.15494187 0.14931975 0.23502421 0.16840547 -0.09482073 0.07892496 0.06203396
-0.059346613 0.0036896723 0.06259428 -0.0074310787 0.0158274 0.002671064 0.012342084 -0.071764156
0.061040804 -0.017190896 -0.0024428002 -0.116285376 -0.036078464 -0.011824393 -0.0024208396 0.013794577
-0.0146501195 -0.02078698 0.028471645 -0.055145152 0.010404677 0.037846774 -0.08895575 0.049933076
-0.020242509 -0.05400762 0.0066840653 -0.12057334 0.012101504 -0.081813715 -0.0817561 0.017757097
-6.8995156e-05 -0.024802815 0.029574508 -0.0067378934 -0.014458542 0.03943096 -0.03833678 0.02510019
-0.0635328 0.0012046639 -0.01813463 0.0059806304 -0.044814423 0.0661242 0.002649673 -0.0074487897
0.06527862 -0.032158673 0.01829953 -0.025081793 0.0023940238 -0.003923572 0.0023135473 0.0053880005
0.0050144615 -0.012110847 -0.010061944 -0.06582849 -0.03647035 -0.057086006 0.004455303 -0.002569884
0.06353752 0.015311848 -0.112510204 0.06382536 -0.028507018 0.13959882 -0.05493109 0.5112914
0.05443652 -0.039606545 0.26457033 0.054775998 0.13216487 -0.047021847 -0.04397138 -0.063322045
-0.027494589 0.21947612 0.028609194 0.08617435 0.055318873 0.07165122 0.027077872 0.08555391
-0.0028118773 0.10039838 -0.033880427 -0.06825295 0.037463404 -0.028208079 -0.0029232367 -0.018133862
-0.05425421 0.16748445 0.047760867 -0.001314043 0.08032353 -0.03012165 -0.009263807 0.19497198
0.30895594 0.067481115 0.20204732 -0.0236287 0.38812208 0.24938439 0.060055774 -0.018411312
-0.036809724 0.10254971 -0.06968812 0.42125902 -0.00063772104 0.038012285 0.20454074 -0.0052916026
0.008032812 -0.008442544 0.25810742 0.13121007 0.13973907 0.49590003 -0.033442367 0.007297862
00000000: 9fb5 81ba f258 a9bc a22e 183d e800 293d
00000010: eff3 c0bd 5deb 633d 46d8 60bd 01cb adbd
00000020: 8be6 793d bf8e 23bd c645 363e 80e0 213d
00000030: 0942 ee3d 9277 40bd a7fd 33bd ed80 43bd
00000040: b326 dbbd 4da6 3a3e 6ad5 b43c 9eee aabc
00000050: 6bba 603d e2fe 5a3d fb0b 853d 5ab1 033e
00000060: 7bf2 36bb 20cf 943d 8b99 983d 64ed 04bb
00000070: bf7e 173d 4475 d63d db8a 8bbd 2afb 97bc
00000080: 8d06 5ebd 9928 6a3d 4b3e 5ebd 54f2 9fba
00000090: 56f2 5c3d 1a96 a03d 2515 03be f6c4 293e
000000a0: 0db2 c83d 96ac 823d 5853 3b3e 802f d4bc
000000b0: e6b1 a73e 9fdd 553e d613 633d 9831 1cbd
000000c0: ca4a 883d 62d3 c5bd 9b30 833d db37 b93e
000000d0: 2208 2a3d 066e a1bc da6e 453e 515d acbb
000000e0: 2211 0a3c 23a0 9e3d 3b9c 363e 19cc cd3d
000000f0: b108 8c3d b120 f13e bdc6 073d 5135 ea3b
00000100: c0ba 163d 902d eb3d 66cd 013e 5144 5f3d
00000110: 052f aebc ffa2 3e3e 326f 5fbd 266a d53e
00000120: e3bd a83d 7b20 28bd a07e 023e 8b7a 8e3d
00000130: d131 483e b918 3bbd 4486 2cbd 9a51 dc3d
00000140: 2f46 db3d 1988 d53d 7e2b 413d 23c4 303e
00000150: 7adc d6bc 2fb2 fe3d 8a19 4e3e 13b9 a93e
00000160: 2be8 48bc e50e 623e af81 953e a067 063e
00000170: a916 163d e169 723e e5bc f43c bead a1bc
00000180: 2137 4dbd 72db a33e c230 343e 8e0b 03bc
00000190: 58bd 6d3e 7034 163e d62b 9b3d 2a51 e63d
000001a0: c48f a43e 130c b83d b4de 163d 9553 04bd
000001b0: 0d30 9c3d faea 433e 45a6 473d da02 86bb
000001c0: 9ca6 743e 0d52 373e 97f9 423e 9d0c 003e
000001d0: 5d54 3a3e 8a9b 373e c8ec a03c 015e 20bc
000001e0: fe84 0bbc 15a9 1e3e 47e7 183e 30aa 703e
000001f0: 7c72 2c3e 5f31 c2bd 69a3 a13d 5217 7e3d
00000200: 6f15 73bd 6ece 713b 6e31 803d 6880 f3bb
00000210: 77a8 813c 050d 2f3b 7436 4a3c 16f9 92bd
00000220: ec05 7a3d ecd3 8cbc 6317 20bb 0727 eebd
00000230: 03c7 13bd 19bb 41bc f3a6 1ebb a602 623c
00000240: 0e07 70bc 7549 aabc 5e3d e93c e2df 61bd
00000250: 6178 2a3c 3805 1b3d 6f2e b6bd a086 4c3d
00000260: 9ed3 a5bc 1837 5dbd 0106 db3b 28ef f6bd
00000270: 6345 463c f38d a7bd be6f a7bd 5577 913c
00000280: 7eb1 90b8 462f cbbc 3d46 f23c 8cc9 dcbb
00000290: 85e3 6cbc 5c82 213d 0707 1dbd ea9e cd3c
000002a0: 7c1d 82bd d0e5 9d3a 138f 94bc 2af9 c33b
000002b0: 548f 37bd 206c 873d 23a6 2d3b fa14 f4bb
000002c0: ccb0 853d d0b8 03bd e5e8 953c 5578 cdbc
000002d0: 0ee5 1c3b 4f91 80bb e29e 173b d38d b03b
000002e0: 5a50 a43b 936c 46bc dada 24bc 16d1 86bd
000002f0: ef61 15bd 04d3 69bd cafd 913b 806b 28bb
00000300: f61f 823d 8cde 7a3c c06b e6bd dfb6 823d
00000310: 8d87 e9bc fef2 0e3e 6cff 60bd fee3 023f
00000320: d4f8 5e3d 793a 22bd c375 873e cc5c 603d
00000330: 3a56 073e fb99 40bd 551b 34bd fdae 81bd
00000340: 553c e1bc 59be 603e d45d ea3c 2d7c b03d
00000350: 0b96 623d e0bd 923d 6ad2 dd3c e336 af3d
00000360: 7947 38bb aa9d cd3d 34c6 0abd 34c8 8bbd
00000370: 3a73 193d a114 e7bc c693 3fbb 778d 94bc
00000380: aa39 5ebd 0b81 2b3e e6a0 433d f73b acba
00000390: aa80 a43d aec1 f6bc 39c7 17bc bca6 473e
000003a0: 792f 9e3e 8a33 8a3d 7ee5 4e3e fa90 c1bc
000003b0: f0b7 c63e 9f5e 7f3e 0bfd 753d 52d3 96bc
000003c0: cbc5 16bd 9505 d23d a5b8 8ebd 43af d73e
000003d0: bc2c 27ba c5b2 1b3d 2173 513e 2e65 adbb
000003e0: 0e9c 033c 9952 0abc a826 843e ef5b 063e
000003f0: c217 0f3e 9ce6 fd3e ddfa 08bd e722 ef3b
