experiments/lstm/final_model_s1027.pt (torch, 448306 bytes, 90 tensors)

pre_model.start_conv.weight f4 [32, 2, 1, 1]
0	0xbf292209	-0.6606756
1	0x3da02d41	0.078211315
2	0xbebef149	-0.3729346
3	0x3d97aabf	0.07405614
4	0xbf1c65a4	-0.6109259
5	0x3ebbf547	0.3671057
6	0xbe089e57	-0.13341652
7	0xbf1a3f66	-0.6025299
8	0xbe80dfae	-0.25170654
9	0xbf23a215	-0.6391919
10	0x3f1fd364	0.6243193
11	0x3e89c707	0.26909658
12	0xb9b2c3f3	-0.000340968
13	0xbf34e7cb	-0.7066619
14	0xbe82b511	-0.25528768
15	0x3ea6b9b2	0.3256355
16	0xbe08564e	-0.13314173
17	0xbf0c34a1	-0.54767805
18	0xbd823e4b	-0.06359538
19	0x3eafd9e9	0.3434594
20	0xbf28d6cc	-0.65952754
21	0xbe5268e0	-0.20547819
22	0xbe87f1a4	-0.26551545
23	0x3f21ee73	0.6325447
24	0x3eae8fb9	0.34094027
25	0x3d9f9847	0.077927165
26	0x3f0004cc	0.5000732
27	0xbf0ff780	-0.5623703
28	0x3e12308e	0.14276335
29	0x3ed04abc	0.40682018
30	0x3a48d726	0.0007661454
31	0x3e6ad25f	0.22931813
32	0xbe0160c5	-0.12634571
33	0xbf3504d8	-0.70710516
34	0x3e48b354	0.19599658
35	0x3eeb52db	0.4596165
36	0xbf181534	-0.59407353
37	0x3f326dc1	0.6969872
38	0x3f2b7463	0.6697447
39	0x3e08cb82	0.13358882
40	0x3d95ade5	0.073085584
41	0x3e9920a1	0.29907706
42	0x3ed5243d	0.4162921
43	0x3f158022	0.5839864
44	0xbef9beac	-0.48778284
45	0x3f1d1d3d	0.6137274
46	0xbe69449a	-0.22780076
47	0x3f1b27c7	0.6060757
48	0x3edd4ca2	0.4322253
49	0x3e09695e	0.134191
50	0xbe0281d3	-0.12744837
51	0xbe8adffe	-0.27124017
52	0xbefab352	-0.48964936
53	0x3f048fbf	0.5178184
54	0xbf2516fa	-0.64488184
55	0x3e5ac489	0.21364035
56	0x3f2e36e6	0.6805252
57	0xbea9674d	-0.33086625
58	0xbf31988d	-0.693734
59	0xbee62f24	-0.4495784
60	0xbea0867b	-0.313526
61	0x3ee43b1b	0.44576344
62	0x3f335eff	0.7006683
63	0xbef5d569	-0.48014382

pre_model.start_conv.bias f4 [32]
0	0xbeef1f6d	-0.46703663
1	0xbd84c650	-0.064831376
2	0xbf2c4b6e	-0.67302597
3	0x3e114593	0.14186697
4	0xbefeaa68	-0.49739385
5	0xbf18d633	-0.5970184
6	0x3f11925e	0.56863964
7	0x3f2f9705	0.6858981
8	0xbea69e89	-0.32542828
9	0xbec204d9	-0.37894323
10	0xbe60082c	-0.21878117
11	0x3ee72d45	0.45151725
12	0xbeb450d6	-0.35217923
13	0xbe4796c9	-0.19491114
14	0xbeea9f6b	-0.4582475
15	0x3f0121a6	0.5044197
16	0x3e64dd96	0.22350153
17	0xbe039220	-0.12848711
18	0xbed77303	-0.42079934
19	0xbe47ba51	-0.19504668
20	0xbe8a4de6	-0.27012557
21	0xbdbfc201	-0.09363175
22	0xbc88eaee	-0.016713586
23	0xbe30e6b2	-0.17275503
24	0xbeace723	-0.33770093
25	0x3ef487d8	0.4775989
26	0x3f05b215	0.52224857
27	0xbe2b67cc	-0.16738814
28	0x3d3e746d	0.04649775
29	0x3ef919c3	0.48652467
30	0x3e3254b1	0.1741512
31	0xbe0bb49f	-0.1364312

pre_model.lstm.weight_ih_l0 f4 [256, 32]
0	0xbd8c0204	-0.06836322
1	0xbc883cc8	-0.016630545
2	0xbd13c620	-0.03607762
3	0xbceee120	-0.029160082
4	0xbd2e4860	-0.04254949
5	0xbd945492	-0.07242693
6	0x3db3d91a	0.08781643
7	0xbd75201c	-0.059845075
8	0x3d466fd0	0.048446476
9	0xbdc430ac	-0.09579596
10	0xbd97af90	-0.07406533
11	0xbd40903c	-0.047012553
12	0xbc8c78c8	-0.017147437
13	0x3d8a7d8c	0.067622274
14	0x3dbc931a	0.09207745
15	0xbb70c340	-0.0036737472
16	0xbcf10ec0	-0.029425979
17	0xbde084f0	-0.10962856
18	0x3da8bae8	0.082387745
19	0xbd0f11e8	-0.034929186
20	0x3df7781c	0.12083456
21	0xbc9e3778	-0.019313559
22	0x3c75aaf0	0.014994368
23	0x3ddbefae	0.10739075
24	0x3de57028	0.11203033
25	0xbd7d8744	-0.061896577
26	0x3d91932a	0.071081474
27	0xbae02f80	-0.0017104
28	0xbdbbcbee	-0.09169756
29	0xbd82b09a	-0.0638134
30	0xbdd06016	-0.10174577
31	0xbc9e3f40	-0.01931727
32	0x3d0ccf30	0.034377277
33	0xbd588908	-0.05286506
34	0x3ca44d30	0.020056337
35	0xbdd9bbd6	-0.1063153
36	0xbcd252a0	-0.025674164
37	0xbdbf62ee	-0.09345041
38	0xbc2d0d60	-0.010562271
39	0x3dd0520c	0.10171899
40	0xbdf50856	-0.119644806
41	0xbd888904	-0.06666759
42	0xbc250330	-0.010071561
43	0x3c48b630	0.012250468
44	0x3d3986c4	0.04529454
45	0xbc394a80	-0.011309266
46	0xbd1dfac0	-0.038569212
47	0x3d99d9de	0.07512258
48	0xbd6198ac	-0.05507724
49	0x3cdfa020	0.027298033
50	0xbd1e99a0	-0.038720727
51	0xbc901db8	-0.017592296
52	0xbd2a7cfc	-0.0416231
53	0xbde2f600	-0.11082077
54	0xbca26610	-0.019824058
55	0x3c094df0	0.008380398
56	0x3deb3a8a	0.11485775
57	0x3b32b800	0.0027270317
58	0x3cfe3ba8	0.031034306
59	0x3cc528b8	0.024067268
60	0x3d96bd4a	0.07360323
61	0x3d28e4b8	0.04123375
62	0xbd4266e0	-0.04746139
63	0xbd8c89d0	-0.06862223
64	0x3de711e6	0.11282711
65	0x3d6240dc	0.055237636
66	0xbdf8c414	-0.12146774
67	0xbdc13dc8	-0.09435612
68	0xbda77974	-0.08177462
69	0x3db980c8	0.09057766
70	0xbd8cec92	-0.0688106
71	0x3d1922a4	0.03738655
72	0xbc028000	-0.007965088
73	0xbdd2b228	-0.10287887
74	0xbdeb8936	-0.1150078
75	0xbceadc60	-0.028669536
76	0xbd90aad4	-0.07063833
77	0x3d769c48	0.060207635
78	0xbca94f68	-0.020667747
79	0xbd94f3f8	-0.07273096
80	0xbba8ae60	-0.0051477402
81	0x3dc6a04c	0.09698543
82	0x3d8630ae	0.06552254
83	0xbd407dcc	-0.04699497
84	0xbddfe0c6	-0.10931544
85	0x3df3c8fe	0.119035706
86	0xbd81c9f2	-0.06337346
87	0xba410f00	-0.0007364601
88	0xbdf983a2	-0.1218331
89	0xbdd0ff64	-0.10204962
90	0xbd8372f4	-0.0641841
91	0xbca8ef30	-0.020621866
92	0x3d8bf038	0.068329275
93	0xbdf09c52	-0.11748566
94	0x3dbd8cf8	0.09255403
95	0x3d98ae1a	0.07455082
96	0x3b14c100	0.0022698045
97	0x3c65d3f0	0.014027581
98	0x3de36772	0.11103715
99	0x3c6557e0	0.013998002
100	0x3d2569c0	0.040384054
101	0x3dabcd0a	0.083887175
102	0xbdbb7646	-0.09153418
103	0xbdb9a170	-0.09063995
104	0xbde17984	-0.110095054
105	0x3dc04346	0.093878314
106	0xbdc6a042	-0.096985355
107	0xbcea5308	-0.028604046
108	0x3cd6a9b8	0.026203975
109	0x3dc8b1cc	0.09799537
110	0x3ceb85c8	0.028750315
111	0xbc17fa90	-0.009276047
112	0xbddb84c8	-0.107186854
113	0x3d4458dc	0.047936305
114	0xbd6005e4	-0.054693118
115	0x3d16324c	0.03666906
116	0xbdbd18c2	-0.09233238
117	0x3d3a55d0	0.045491993
118	0x3ca49690	0.020091325
119	0x3da098e2	0.0784166
120	0xbdfe5756	-0.12419002
121	0x3debedc0	0.115199566
122	0xbc06b5e0	-0.008222073
123	0x3da781f6	0.08179085
124	0xbdca350a	-0.09873398
125	0x3c379c70	0.011206731
126	0x3dd8e906	0.10591321
127	0x3d91d9f2	0.07121648
128	0x3da2b346	0.0794435
129	0x3d4116f4	0.04714103
130	0x3dff6b06	0.12471585
131	0xbbec8340	-0.0072177947
132	0x3dcb1b8c	0.099173635
133	0xbdd89696	-0.10575597
134	0xbd7d8e24	-0.061903134
135	0xbd694c2c	-0.05695741
136	0x3daa788c	0.08323774
137	0x3d50f900	0.051018715
138	0x3db4866e	0.08814703
139	0x3d374760	0.044745803
140	0x3cf05050	0.029335171
141	0x3df55d70	0.119807124
142	0xbcb70008	-0.022338882
143	0xbc937f10	-0.018004924
144	0xbdf235fc	-0.11826703
145	0xbdfc905c	-0.12332222
146	0xbd8e192a	-0.069383934
147	0xbc0a2950	-0.008432701
148	0xbd839b6c	-0.06426129
149	0x3dcae33e	0.09906624
150	0x3dc32a82	0.09529592
151	0x3de9b34a	0.1141115
152	0xbdcf3cd2	-0.101190224
153	0x3d6ef0d4	0.05833514
154	0xba22fe00	-0.00062176585
155	0x3de16f22	0.11007525
156	0xbc661210	-0.014042392
157	0xbdddb058	-0.108246505
158	0xbc22d1f0	-0.009937748
159	0x3df3dea2	0.11907698
160	0xbddb15b8	-0.10697502
161	0xbd4c9150	-0.04994327
162	0xbb367f80	-0.0027846992
163	0xbb5dd640	-0.0033849627
164	0x3b6f20c0	0.0036488026
165	0xbb30d5c0	-0.0026982874
166	0xbd2f63b0	-0.04281968
167	0xbd8ea852	-0.06965698
168	0xbcfcd1a0	-0.030861676
169	0x3d34b5bc	0.044118628
170	0xbd40a6e4	-0.04703416
171	0xbba8bbc0	-0.0051493347
172	0x3d124410	0.03570944
173	0x3d2787e8	0.040901095
174	0x3db6c1bc	0.08923671
175	0x3dcb6316	0.099310085
176	0xbdc12f24	-0.094328195
177	0x3dde1dea	0.108455494
178	0x3c8b98b0	0.01704058
179	0xbdad6c40	-0.08467913
180	0x3dbf46f8	0.09339708
181	0x3d146aa8	0.036234528
182	0x3d2823dc	0.041049823
183	0xbde5192e	-0.11186443
184	0xbd3dcf38	-0.046340197
185	0xbdda4bae	-0.10658966
186	0xbc60c2f0	-0.013718352
187	0x3d49d058	0.049270958
188	0xbcefeec0	-0.02928865
189	0x3dfd6eb8	0.123746336
190	0x3d018438	0.031620234
191	0x3d3bbfd8	0.045837253
192	0x3d746ea8	0.059675843
193	0x3daf6946	0.08565001
194	0xbc02c180	-0.007980704
195	0x3dfb532e	0.12271725
196	0x3c9db2e8	0.019250348
197	0xbd724818	-0.059150785
198	0x3d094214	0.033510283
199	0xbd9ccf8e	-0.076567754
200	0x3df8ca78	0.12147993
201	0x3c68adf0	0.014201626
202	0x3df0754e	0.11741124
203	0xbd93d800	-0.07218933
204	0x3dfb3d12	0.122675076
205	0xbc68a3c0	-0.014199197
206	0xbd749d78	-0.059720486
207	0x3c85b130	0.016319841
208	0x3d8d1a32	0.06889762
209	0x3dc607b6	0.096694395
210	0x3decddb2	0.115657225
211	0x3d9cf96c	0.07664761
212	0x3de5e2e2	0.11224915
213	0x3df8e6f4	0.12153426
214	0xbc89ed70	-0.016836852
215	0xbd54dc80	-0.051968098
216	0xbdd38f20	-0.10330033
217	0x3c243e70	0.010024652
218	0x3dfab654	0.122418076
219	0x3dfff640	0.1249814
220	0xbcd37ea0	-0.025817215
221	0x3d825ccc	0.06365356
222	0xbc9c0d00	-0.019049168
223	0x3cbeadb8	0.023276195
224	0x3d8481a2	0.06470038
225	0x3d8913b2	0.0669321
226	0xbda6a8c2	-0.08137657
227	0xbcc5cae0	-0.02414459
228	0xbddb83e2	-0.10718514
229	0x3d921018	0.07131976
230	0x3d151258	0.036394447
231	0xbd845ec8	-0.064633906
232	0xbdbb8702	-0.0915661
233	0xbd028ac0	-0.031870604
234	0x3dd26be4	0.10274485
235	0xbdfdf100	-0.12399483
236	0x3d6d91c0	0.058000326
237	0x3db3931e	0.08768295
238	0x3d986814	0.07441726
239	0x3cca9410	0.024728805
240	0x3d1415b0	0.036153495
241	0xbd8c3150	-0.06845343
242	0xbd08f384	-0.03343536
243	0x3d970392	0.07373728
244	0xbcbe8df8	-0.023261055
245	0xbdb05b68	-0.08611184
246	0x3de6aea8	0.11263782
247	0x3ddde03c	0.10833785
248	0x3d9d3282	0.07675649
249	0x3d90411a	0.07043667
250	0x3cca26c8	0.024676695
251	0x3c00ca70	0.007860765
252	0x3dab6020	0.08367944
253	0xbd815bf4	-0.06316367
254	0xbd84b1de	-0.06479238
255	0x3c4c90f0	0.012485728

pre_model.lstm.weight_hh_l0 f4 [256, 64]
0	0x3d412a58	0.047159523
1	0x3d932584	0.0718489
2	0x3db81712	0.08988775
3	0x3d925a5e	0.071461424
4	0xbdb05c14	-0.086113125
5	0xbc91d6c0	-0.017802596
6	0xbb66adc0	-0.0035198778
7	0xbdf3f138	-0.11911243
8	0xbdbcdf48	-0.09222275
9	0x3da81f14	0.08209053
10	0xbdd1c502	-0.102426544
11	0x3c5a4c20	0.013323814
12	0x3d8b9616	0.06815736
13	0xbdcdc60e	-0.100475416
14	0xbd93193e	-0.07182549
15	0x3d5e7554	0.05431111
16	0x3d7bce10	0.061475813
17	0x3dbee4e6	0.09321003
18	0x3df177ac	0.11790404
19	0x3df9f4ba	0.12204881
20	0x3d95b798	0.07310408
21	0xbdbc0ca8	-0.091821015
22	0x3de75b82	0.112967506
23	0xbdc908f2	-0.09816159
24	0x3d6881a8	0.056764275
25	0xbd101128	-0.03517261
26	0x3d0a1a08	0.03371623
27	0xbd971eb0	-0.073789
28	0xbca8c548	-0.020601884
29	0xbd8a6ed4	-0.0675942
30	0xbda80434	-0.08203927
31	0xbcccd258	-0.025002643
32	0x3d8cb2a4	0.068700105
33	0x3d3c3f0c	0.045958564
34	0xbdfae5ea	-0.12250884
35	0xbc761050	-0.015018538
36	0xbd86de12	-0.06585325
37	0x3d405b40	0.046962023
38	0xbc9e4ed8	-0.019324705
39	0xbcb096b8	-0.021556243
40	0xbce1a4b0	-0.02754435
41	0xbb0c7400	-0.0021431446
42	0x3c6f7230	0.014614627
43	0xbd9563a8	-0.072943985
44	0x3cd626f8	0.026141629
45	0xbd6f7798	-0.058463663
46	0xbb2d76c0	-0.0026468486
47	0xbd90e75c	-0.07075378
48	0x3b28dbc0	0.0025765747
49	0x3c7c7cc0	0.015410602
50	0xbc27f3c0	-0.010250986
51	0xbdd02b22	-0.10164477
52	0x3cb14710	0.02164033
53	0x3d86253a	0.06550069
54	0xbca5b960	-0.020229995
55	0x3ddf8886	0.10914712
56	0x3cd83a48	0.026394978
57	0xbdd51bf4	-0.10405722
58	0x3dc7fbf4	0.09764853
59	0xbca1a898	-0.019733712
60	0xbd1a7814	-0.03771217
61	0xbdce54ee	-0.10074793
62	0x3d52d6e8	0.05147448
63	0x3c787d10	0.015166536
64	0x3dfa6d88	0.12227923
65	0x3d9cec3a	0.07662244
66	0xbd64c178	-0.05584857
67	0xbbc28980	-0.0059368014
68	0x3ce90448	0.028444424
69	0xbdf46f4a	-0.11935289
70	0xbc0a1030	-0.008426711
71	0xbd427f48	-0.047484666
72	0xbdc27c9a	-0.09496422
73	0x3d9aa000	0.07550049
74	0x3c1f1540	0.009709656
75	0xbdb9c6f2	-0.09071149
76	0xbd414c18	-0.04719171
77	0xbdf7a31c	-0.120916575
78	0xbcb23c28	-0.0217572
79	0xbdd1bd22	-0.10241152
80	0x3ddc63e6	0.107612416
81	0x3de3075c	0.11085388
82	0x3d6e9f4c	0.058257386
83	0xbd5e07e0	-0.05420673
84	0x3d8c8552	0.06861366
85	0x3da8b8c0	0.08238363
86	0xbd6fe8dc	-0.05857168
87	0x3d1f21d4	0.03885062
88	0x3d8c8b06	0.06862454
89	0x3d534418	0.05157861
90	0x3dfa2a88	0.122151434
91	0x3cfc9548	0.030832902
92	0xbdb265b6	-0.08710806
93	0x3da9fbf8	0.08300012
94	0x3d9509c4	0.07277253
95	0x3bbf0a00	0.0058300495
96	0xbd97e730	-0.074171424
97	0x3d6d1aec	0.057887003
98	0x3d8b810a	0.068117216
99	0xbbd92260	-0.0066264123
100	0xbda9c742	-0.082899585
101	0x3d68d568	0.056844145
102	0x3d890ca6	0.066918656
103	0x3bc43a40	0.0059883893
104	0x3dd67204	0.104709655
105	0xbdc458aa	-0.09587224
106	0xbc86a648	-0.016436711
107	0xbd8422d0	-0.064519525
108	0x3c534e30	0.012897059
109	0x3ca8d250	0.020608097
110	0x3cfca8c8	0.0308422
111	0xbc040c00	-0.008059502
112	0xbd092870	-0.03348583
113	0xbdf274b0	-0.118386626
114	0x3dd1d640	0.10245943
115	0xbd473a38	-0.048639506
116	0x3dc4e5f6	0.09614174
117	0x3dae4a62	0.08510281
118	0xbd638264	-0.055544272
119	0xbda260c6	-0.07928614
120	0xbdb2c2c4	-0.08728555
121	0xbd598808	-0.053108245
122	0x3d8122f2	0.063054934
123	0x3d72aab0	0.05924481
124	0x3d561684	0.052267566
125	0xbd683f50	-0.056701005
126	0xbc1205a0	-0.008912474
127	0x3d84b4ea	0.06479819
128	0x3d8e5016	0.06948869
129	0xbc033160	-0.008007377
130	0xbbca9fe0	-0.0061836094
131	0x3cdacdf0	0.026709527
132	0xbde39a0c	-0.111133665
133	0xbdd35d2a	-0.10320504
134	0xbd54b160	-0.05192697
135	0x3ded16d8	0.11576623
136	0xbb78dc40	-0.0037973076
137	0x3c839b48	0.016065255
138	0x3df49f5a	0.119444564
139	0x3b5a3c40	0.0033300072
140	0xbd49e990	-0.04929501
141	0x3d3c49a0	0.04596865
142	0x3c7ba770	0.015359744
143	0x3cf8c448	0.030367032
144	0xbd9db068	-0.076996624
145	0xbc232c40	-0.0099592805
146	0x3d55d5cc	0.052205846
147	0xbde00a70	-0.10939491
148	0x3c20d1e0	0.009815663
149	0xbc388580	-0.011262298
150	0xbddb70d4	-0.1071488
151	0xbdd9e1b0	-0.106387496
152	0x3de54aa8	0.1119588
153	0x3defd712	0.11710943
154	0x3cb78918	0.022404239
155	0x3d088208	0.033327132
156	0xbb951100	-0.0045491457
157	0x3de89c4c	0.11357936
158	0x3d5437f8	0.05181119
159	0x3d2b2374	0.041781858
160	0xbdc2746a	-0.094948605
161	0xbb569600	-0.0032743216
162	0x3c8e79b0	0.01739201
163	0x3c19b8b0	0.009382412
164	0xbdeebbcc	-0.11656913
165	0x3bab5220	0.005228296
166	0xbc1d0250	-0.009583071
167	0xbdac89d4	-0.08424726
168	0x3dea8134	0.11450425
169	0x3ddb42d0	0.10706103
170	0x3cc40750	0.023929268
171	0xbc82f000	-0.015983582
172	0xbd45ab0c	-0.048258826
173	0xbc5b4570	-0.013383254
174	0x3df22b40	0.118246555
175	0xbdb761c0	-0.08954191
176	0x3d060680	0.032721043
177	0xbd8ea20a	-0.069645
178	0xbd827236	-0.0636944
179	0x39e2e200	0.00043274462
180	0xbcbe5878	-0.023235545
181	0x3b1c6000	0.0023860931
182	0xbceb7bb0	-0.028745502
183	0x3c4537d0	0.0120372325
184	0x3cfd8930	0.030949205
185	0x3d831aa4	0.06401566
186	0x3d7d02a8	0.06177011
187	0xbc5d5e90	-0.013511315
188	0x3c7307b0	0.014833376
189	0x3d856fde	0.065154776
190	0x3d0d85a8	0.034551293
191	0xbd217a48	-0.039423257
192	0xbdf89672	-0.1213807
193	0xbd8d4f3c	-0.068998784
194	0x3d84be96	0.06481664
195	0xbdee4746	-0.11634688
196	0x3de95d86	0.11394791
197	0x3db80d42	0.08986904
198	0xb9e99c00	-0.00044557452
199	0xbce04060	-0.027374446
200	0xbcb87880	-0.022518396
201	0xbd72e924	-0.05930437
202	0xbde8690a	-0.113481596
203	0xbd65e2c4	-0.056124464
204	0x39846600	0.00025252998
205	0x3cc7e6a0	0.024401963
206	0x3ce9a188	0.028519407
207	0xbd34f6e8	-0.04418078
208	0xbb81bc00	-0.003959179
209	0xbdb8183c	-0.08988997
210	0xbcf4b1f8	-0.029870018
211	0x3d625ad4	0.0552624
212	0x3dff21d0	0.12457621
213	0x3c02b1b0	0.007976934
214	0xbdba813e	-0.09106682
215	0x3dc670b8	0.09689468
216	0x3cd01660	0.025401294
217	0xbdec6e82	-0.11544515
218	0xbdbc090a	-0.091814116
219	0xbdb53cd6	-0.08849494
220	0x3d847304	0.0646725
221	0x3d8b67c2	0.068068996
222	0x3dfe2aa0	0.12410474
223	0xbd907c16	-0.070549175
224	0x3dc1401c	0.09436056
225	0xbd005d78	-0.03133914
226	0x3cdaf548	0.026728287
227	0x3d1c952c	0.0382282
228	0x3df364a4	0.1188443
229	0x3dc020a0	0.09381223
230	0xbbf2c440	-0.0074086487
231	0xbdc6d356	-0.09708278
232	0x3c19bf10	0.009383932
233	0x3db6dfee	0.0892943
234	0xbd954f60	-0.0729053
235	0x3dc62732	0.09675445
236	0x3cfe5aa0	0.031049073
237	0x3cb74bb8	0.022374973
238	0x3d680fc4	0.05665566
239	0x3de1b694	0.11021152
240	0xbce65690	-0.028117448
241	0xbd8a72aa	-0.06760152
242	0xbde86edc	-0.1134927
243	0xbc892ba8	-0.01674445
244	0xbdf3058c	-0.11866292
245	0x3df0c85e	0.11756967
246	0xbd8b87cc	-0.068130106
247	0x3dde2c6c	0.108483166
248	0x3d8176ce	0.06321488
249	0x3dc03ad8	0.093862236
250	0xbd26f63c	-0.04076217
251	0x3d940974	0.072283655
252	0x3deaa1fc	0.11456677
253	0x3d567a8c	0.052362964
254	0x3ddb6e68	0.10714418
255	0xbd0efc90	-0.03490883

pre_model.lstm.bias_ih_l0 f4 [256]
0	0xbda636e8	-0.08115941
1	0xbd2c42ac	-0.04205577
2	0xbdc05548	-0.09391266
3	0xbd5d6694	-0.054052904
4	0xbdfd1b26	-0.12358694
5	0xbc6b20c0	-0.01435107
6	0x3c61a200	0.013771534
7	0x3dbc3aa4	0.09190872
8	0xbd2b6f34	-0.0418541
9	0x3d8414a8	0.06449252
10	0xbddd6860	-0.108109236
11	0x3d69bfe0	0.057067752
12	0x3d55835c	0.052127227
13	0xbd802f14	-0.062589794
14	0xbdf30e52	-0.11867966
15	0x3d015fe0	0.031585574
16	0xbcbeba28	-0.023282126
17	0xbd5fc33c	-0.05462955
18	0x3d97996c	0.0740231
19	0x3dd10640	0.1020627
20	0x3d95e542	0.07319118
21	0xbd6b5ae8	-0.05745974
22	0xbd2841b0	-0.04107827
23	0xbdc03ae6	-0.09386234
24	0xbae52180	-0.0017481297
25	0x3dffdef8	0.124937
26	0x3db60f8a	0.088896826
27	0xbdc02fa4	-0.09384087
28	0xbc5e9bf0	-0.013586983
29	0xbd74d150	-0.05976993
30	0xbd97ddfe	-0.074153885
31	0xbd031704	-0.03200437
32	0x3d261a64	0.04055251
33	0x3bf33b40	0.0074228346
34	0xbc7a7f10	-0.015289083
35	0x3de464f4	0.11152068
36	0xbdbfa5d2	-0.093577996
37	0x3ce19668	0.02753754
38	0x3da1e48a	0.079049185
39	0x3db84eae	0.08999382
40	0xbd9eba42	-0.077503696
41	0xbdf3f400	-0.11911774
42	0xbc6cc4b0	-0.014451191
43	0x3d84e12c	0.064882606
44	0xbd56258c	-0.0522819
45	0x3da2ee98	0.079556644
46	0x3ba005a0	0.004883483
47	0xbdb09e14	-0.08623901
48	0x3cf121c8	0.029435053
49	0xbdc25580	-0.09488964
50	0x3d28c520	0.041203618
51	0x3d5c2cf8	0.053753823
52	0x3c1f04f0	0.009705767
53	0x3c90bed8	0.017669126
54	0x3dc620aa	0.09674199
55	0x3d987540	0.07444239
56	0xbb4026c0	-0.0029319972
57	0x3db1f574	0.086893946
58	0x3cd26680	0.025683641
59	0x3dca0324	0.0986388
60	0x3dd10b24	0.10207203
61	0xbdf7dd5e	-0.12102769
62	0x3dc60b70	0.0967015
63	0x3d961ad6	0.07329337
64	0xbd81239c	-0.0630562
65	0xbc51ea20	-0.012812167
66	0x3c729680	0.01480639
67	0xbd2251fc	-0.039628968
68	0xbd8dc490	-0.06922257
69	0x3c8b96d0	0.017039686
70	0xbd8b6826	-0.06806974
71	0x3dc64d7c	0.09682748
72	0xbdc2fdca	-0.09521063
73	0xb9265800	-0.00015863776
74	0xbdc09ff2	-0.09405507
75	0x3d9b30d4	0.075776726
76	0x3dc7e10e	0.09759723
77	0x3de0dda2	0.10979773
78	0x3dc01a60	0.09380031
79	0x3d0c805c	0.0343021
80	0x3d2a196c	0.04152815
81	0x3cbe8740	0.023257852
82	0xbd65c71c	-0.05609809
83	0xbde452de	-0.11148618
84	0x3da759b2	0.08171405
85	0xbd89b5d2	-0.067241326
86	0xbcc88c08	-0.024480835
87	0xbdd862cc	-0.10565719
88	0xbd99a7dc	-0.0750272
89	0xbd3b2ec8	-0.04569891
90	0xbd73d368	-0.059527785
91	0x3d6484c8	0.055790693
92	0x3d774e6c	0.060377523
93	0xbd2920ac	-0.041290924
94	0xbd1a20b8	-0.03762886
95	0x3d39dd7c	0.04537724
96	0x3d98187e	0.074265465
97	0x3d98ca8c	0.07460508
98	0xbd0e97d8	-0.03481278
99	0xbc700c60	-0.014651388
100	0xbd2b7764	-0.041861907
101	0xbcd7d798	-0.02634792
102	0x3d000180	0.03125143
103	0xbd9f814e	-0.07788335
104	0xbd9bf4e4	-0.076150686
105	0xbdc05d62	-0.09392811
106	0xbc259310	-0.010105863
107	0xbc79abf0	-0.015238747
108	0xbcbddb28	-0.02317579
109	0x3de70bfa	0.11281581
110	0x3d1e87d8	0.03870377
111	0x3dd29260	0.10281825
112	0x3dca3588	0.098734915
113	0xbdd07d20	-0.10180116
114	0x3d0508d0	0.032479107
115	0xbd8913e0	-0.06693244
116	0x3d521784	0.051291957
117	0x3dfc55d4	0.12321058
118	0x3d146440	0.03622842
119	0xbdf86c70	-0.12130058
120	0xbd9cced8	-0.0765664
121	0x3dc483e4	0.09595469
122	0xbdfc048e	-0.12305556
123	0x3b930b60	0.00448744
124	0x3dc3bd62	0.09557606
125	0xbcd80a20	-0.026372015
126	0xbdbfdb4c	-0.093679994
127	0x3d61c2bc	0.055117354
128	0xbd802c80	-0.06258488
129	0x3d96cb1e	0.0736296
130	0xbdf742de	-0.12073301
131	0xbd6e67f8	-0.05820462
132	0x3d8002a4	0.06250504
133	0x3caee8d8	0.021351263
134	0xbc8848e8	-0.016636327
135	0xbd00649c	-0.03134595
136	0x3de28fa0	0.110625505
137	0x3d4f2938	0.05057642
138	0x386e2000	5.6773424e-05
139	0xbd93f100	-0.072237015
140	0x3de49968	0.111620724
141	0x3d7c4968	0.061593443
142	0xbdebef64	-0.115202695
143	0x3dd64302	0.104619995
144	0x3d9c9c2e	0.076469764
145	0x3d65605c	0.0560001
146	0x3d583f78	0.052794904
147	0x3d64fdc4	0.055906072
148	0xbdf6eb9e	-0.12056659
149	0xbaed4680	-0.0018102676
150	0xbbf90920	-0.0075999647
151	0x3c92dde8	0.017928079
152	0x3de33690	0.11094391
153	0xbc910c10	-0.017705947
154	0x3d9aab3a	0.0755219
155	0xbdebc066	-0.115113065
156	0xbdca2238	-0.09869808
157	0x3d9fc7ae	0.07801758
158	0xbd07c668	-0.0331482
159	0x3cfda3f0	0.03096196
160	0x3df17f2e	0.11791836
161	0x3d857554	0.06516519
162	0x3be3c5e0	0.006951079
163	0xbd0c2978	-0.034219235
164	0x3d10d970	0.035363615
165	0x3be5d8c0	0.007014364
166	0xbd7477f0	-0.059684694
167	0x3ca54768	0.02017565
168	0xbcb3e3e8	-0.02195926
169	0xbdd8cf60	-0.10586429
170	0xbc2f89d0	-0.010714009
171	0xbc4760b0	-0.012169048
172	0x3ddab48e	0.10678969
173	0x3dc5da38	0.096607625
174	0x3dddd754	0.10832086
175	0xbba11fc0	-0.004917115
176	0xbdfb07aa	-0.12257321
177	0xbde84360	-0.11340976
178	0x3d5e747c	0.054310307
179	0xbc413320	-0.011791974
180	0x3d8c3160	0.06845355
181	0xbda602b0	-0.08105981
182	0xbc7015a0	-0.014653593
183	0xbdf66306	-0.12030606
184	0xbd665844	-0.05623652
185	0x3de01bc8	0.10942799
186	0xbd8fd9b4	-0.070239455
187	0xbcbf7880	-0.023372889
188	0x3d63d104	0.055619255
189	0xbdae0b30	-0.084982276
190	0xbd658cc0	-0.056042433
191	0x3dce10ba	0.10061784
192	0x3d92af26	0.07162313
193	0xbddf22dc	-0.10895321
194	0xbd064da8	-0.032788903
195	0xbde03504	-0.10947612
196	0xbd8d80e4	-0.069093496
197	0x3d170cf0	0.036877573
198	0x3db0dae4	0.086355
199	0xbde63fd8	-0.11242646
200	0x3c33e110	0.010978952
201	0xbd4b131c	-0.04957877
202	0xbbe5cae0	-0.00701271
203	0xbd023780	-0.03179121
204	0x3d552e6c	0.052046224
205	0xbd7165c0	-0.058934927
206	0x3dad9e1a	0.08477421
207	0xbd4f1cb4	-0.050564483
208	0xbd45f3c0	-0.04832816
209	0x3cc2c8d8	0.02377741
210	0x3d705520	0.05867493
211	0xbdbd5d96	-0.09246366
212	0xbdbae774	-0.091261774
213	0x3df128b2	0.1177534
214	0xbdaa5d00	-0.083185196
215	0x3dd97040	0.10617113
216	0x3dd2c440	0.10291338
217	0x3dcabbdc	0.098991126
218	0xbb337ec0	-0.0027388781
219	0xbda1a2dc	-0.07892391
220	0xbd4cf774	-0.050040677
221	0x3d97c576	0.074107096
222	0xbd0e42a8	-0.034731537
223	0xbc392ee0	-0.01130268
224	0x3d93b73e	0.07212685
225	0x3d91a2ec	0.07111153
226	0xbc2bc480	-0.010483861
227	0xbdb56cec	-0.08858666
228	0xbd085990	-0.03328854
229	0x3d7249cc	0.05915241
230	0xbdbf1b72	-0.09331407
231	0xbd791708	-0.06081298
232	0x3b2241c0	0.0024758428
233	0xbdebe280	-0.11517811
234	0x3dc7a3c8	0.09748036
235	0x3cf339c0	0.029690623
236	0x3df599a2	0.11992194
237	0xbce0d748	-0.027446404
238	0x3b1a7780	0.0023569763
239	0x3d4e7b78	0.050410718
240	0x3d31c2f0	0.043398798
241	0xbd7e5f00	-0.062102318
242	0x3c834048	0.016021863
243	0x3d440050	0.04785186
244	0x3dcad8a2	0.09904601
245	0xbd935fe0	-0.07196021
246	0x3def0f7a	0.11672874
247	0x3d280718	0.04102239
248	0xbd8ed7ea	-0.06974776
249	0xbdba072c	-0.09083399
250	0x3dac51aa	0.08414014
251	0x3ca00650	0.01953426
252	0x3cb31398	0.021859929
253	0x3c8a7048	0.016899243
254	0x3d74e574	0.059789136
255	0x3d2d9750	0.04238063

pre_model.lstm.bias_hh_l0 f4 [256]
0	0x3d6e49c0	0.058175802
1	0xbdbb5c4c	-0.091484636
2	0x3d50ad74	0.050946668
3	0xbd75fb08	-0.060053855
4	0x3dd4955e	0.10380052
5	0x3c7ebac0	0.015547454
6	0xbd559024	-0.052139416
7	0x3cc55910	0.02409032
8	0xbb1b4340	-0.0023691207
9	0xbdf973f2	-0.12180318
10	0xbdada036	-0.084778234
11	0x3cc72a60	0.024312198
12	0x3d68ab90	0.05680424
13	0xbdae5578	-0.085123956
14	0xbd82819a	-0.06372376
15	0xbd5a630c	-0.053317115
16	0xbdc1d3f6	-0.094642565
17	0x3df032c4	0.11728433
18	0x3d2b2838	0.041786402
19	0xbdb12eb6	-0.086514875
20	0x3d43ad50	0.047772706
21	0x3c217060	0.009853452
22	0xbd3a2554	-0.045445755
23	0xbd4390c0	-0.047745466
24	0xbdc01ecc	-0.09380874
25	0x3c111670	0.008855447
26	0x3d93255a	0.071848586
27	0xbd8ac65c	-0.06776115
28	0xbb8dd940	-0.0043288767
29	0xbdaef98a	-0.085436895
30	0xbd8d5dcc	-0.06902656
31	0x3d128944	0.035775438
32	0xbdc75346	-0.0973268
33	0x39f2ae00	0.00046287477
34	0x3d8651c2	0.06558563
35	0xbd88a654	-0.066723496
36	0xbc217e40	-0.0098567605
37	0x3d815f6a	0.06317027
38	0xbdfb7e08	-0.12279898
39	0x3d9dd984	0.077075034
40	0x3dba3a6c	0.09093174
41	0xbd7f20f4	-0.062287286
42	0x3d028cac	0.031872436
43	0x3d39489c	0.04523526
44	0xbd63dd88	-0.05563119
45	0xbd205110	-0.039139807
46	0x3d184950	0.03717929
47	0xbc8b0f10	-0.016974956
48	0xbdb6d668	-0.089276135
49	0xbdc61ac4	-0.09673074
50	0x3cbbba20	0.0229159
51	0xbd5f5390	-0.05452305
52	0x3c2502b0	0.0100714415
53	0xbde2eb54	-0.110800415
54	0xbd45a104	-0.04824926
55	0x3da18e32	0.0788845
56	0xbd8e24f6	-0.069406435
57	0x3d1e7b98	0.038692087
58	0xbd5641cc	-0.052308843
59	0xbdd4f010	-0.10397351
60	0x3d212fe8	0.039352328
61	0x3cb1b0b0	0.021690696
62	0x3d93aae4	0.07210329
63	0x3db83728	0.08994895
64	0xbdcc2592	-0.099681035
65	0x3ceffc00	0.029294968
66	0xbd835582	-0.06412794
67	0x3d51b0d8	0.051194042
68	0x3cbd68b0	0.023121208
69	0x3daaa56a	0.083323315
70	0xbda2d67a	-0.079510644
71	0x3d4be8e8	0.049782664
72	0xbdcf4670	-0.10120857
73	0x3d87c6f6	0.06629746
74	0x3dc76aee	0.09737192
75	0xbdcb5a52	-0.099293366
76	0xbda181e2	-0.07886101
77	0xbd9ec016	-0.07751481
78	0x3d3dd25c	0.046343192
79	0x3c8fd790	0.017558843
80	0xbd39647c	-0.045261845
81	0x3da5cdfc	0.08095929
82	0x3dcaa95c	0.09895584
83	0x3d76ccfc	0.060254082
84	0xbcc2afd0	-0.023765475
85	0x3d442030	0.04788226
86	0xbd6a9b50	-0.057277024
87	0x3dbc5ad2	0.0919701
88	0xbd5936fc	-0.053030953
89	0x3bb607a0	0.005555108
90	0xbdd25a20	-0.10271096
91	0xbcd80b80	-0.026372671
92	0x3c8b4388	0.016999975
93	0xbdd8a49e	-0.10578273
94	0xbd5f1bbc	-0.05446981
95	0x3c124ee0	0.008929938
96	0x3ce51160	0.027962387
97	0x3d281200	0.04103279
98	0xbd9d5084	-0.07681373
99	0x3ce12b88	0.027486578
100	0x3de6f5b2	0.112773314
101	0x3dadfeb8	0.08495849
102	0xbdec2a82	-0.11531545
103	0x3d9add0e	0.07561694
104	0xbdb034c4	-0.08603814
105	0x3db103e6	0.08643322
106	0x3daa037e	0.08301447
107	0x3d2f2ed8	0.042769283
108	0x3d00300c	0.03129582
109	0xbd9f5ba8	-0.07781154
110	0xbd02410c	-0.031800315
111	0xbdb59c4a	-0.088677004
112	0xbdbd80ea	-0.09253104
113	0x3d36c980	0.04462576
114	0xbdee8598	-0.11646575
115	0xbd4b37f4	-0.049613908
116	0xbbcfcbe0	-0.0063414425
117	0xbd21080c	-0.039314315
118	0x3d81a5fa	0.06330486
119	0x3d93ea7e	0.0722246
120	0x3d4b0100	0.0495615
121	0xbdfc968e	-0.123334035
122	0xbd9cdd5c	-0.076594085
123	0xbd5e2da4	-0.054242745
124	0x3d052c60	0.032513022
125	0xbd0e3a2c	-0.034723446
126	0x3cf83920	0.030300677
127	0xbbff12a0	-0.0077842027
128	0xbdce6d1a	-0.10079403
129	0xbd937aa2	-0.07201125
130	0x3d281078	0.04103133
131	0xbd02fbcc	-0.031978413
132	0x3d97b3ba	0.07407327
133	0x3c575bc0	0.0131444335
134	0x3dff6d60	0.124720335
135	0xbdc06ecc	-0.09396133
136	0x3d6fb098	0.058518022
137	0x3a3b4600	0.00071439147
138	0x3de306c0	0.11085272
139	0xbdfcd81c	-0.12345907
140	0x3db5ef3a	0.088835195
141	0xbd205204	-0.039140716
142	0x3b917f60	0.004440233
143	0x3d021a30	0.031763256
144	0xbd9db62a	-0.07700761
145	0xbd38cb04	-0.045115486
146	0xbd5b031c	-0.053469762
147	0x3de93928	0.11387855
148	0x3de3f76e	0.11131178
149	0x3d1cc3e4	0.038272753
150	0xbdac16ce	-0.08402787
151	0xbd2b6058	-0.041839927
152	0x3deca27e	0.115544304
153	0xbd50338c	-0.05083041
154	0xbc24cf40	-0.010059178
155	0x3d3e6f38	0.046492785
156	0xbcdd04c8	-0.026979819
157	0xbdee49a6	-0.11635141
158	0xbd8fffaa	-0.07031186
159	0x3dccbcf0	0.099969745
160	0xbd2a9288	-0.04164365
161	0x3da8a79c	0.08235094
162	0xbdc7373c	-0.09727332
163	0x3d9f2c18	0.07772082
164	0x3df3999a	0.118945315
165	0xbdb663de	-0.08905767
166	0x3de15f84	0.11004546
167	0xbda9b13a	-0.082857564
168	0xbbf2dce0	-0.0074115843
169	0xbde9e00c	-0.11419687
170	0x3df91612	0.12162413
171	0xbdc1ab20	-0.09456468
172	0xbca90790	-0.020633489
173	0x3c88ddb0	0.016707271
174	0x3d24b220	0.040208936
175	0xbdab8be8	-0.083762944
176	0xbd8e8206	-0.06958394
177	0xbb8ee080	-0.0043602586
178	0xbdb93fb2	-0.09045352
179	0xbbf52980	-0.007481754
180	0xbd81911c	-0.063265055
181	0xbcc3e4b8	-0.023912773
182	0xbbec3f80	-0.007209718
183	0xbd12f5e8	-0.035879046
184	0x3dd9daaa	0.1063741
185	0x3c9c4c30	0.019079298
186	0xbdffa88c	-0.1248332
187	0x3d8c2b02	0.068441406
188	0x3d3e9b68	0.046534926
189	0xbdf9c0e0	-0.12194991
190	0x3dbc4b7e	0.091940865
191	0xbdfaf500	-0.12253761
192	0x3d62313c	0.055222735
193	0xbd6ab750	-0.057303727
194	0xbca3fb50	-0.020017296
195	0xbd9ad88c	-0.07560834
196	0x3c4d2f10	0.012523428
197	0x3c358f90	0.011081591
198	0xbc501090	-0.012699261
199	0x3c9514d8	0.018198416
200	0x3c947090	0.01812008
201	0x3dc6da80	0.09709644
202	0x3d8ae5d4	0.067821175
203	0x3d666324	0.05624689
204	0xbdd3fe10	-0.10351193
205	0xbdbbf36e	-0.0917729
206	0x3dec64f8	0.11542696
207	0x3c5dbdd0	0.013534024
208	0xbb625f40	-0.0034541637
209	0xbca745d8	-0.020419046
210	0x3dddcfb2	0.1083063
211	0xbdb89ec2	-0.09014656
212	0xbd116340	-0.035495043
213	0xbd13e058	-0.036102623
214	0xbd46eb04	-0.048563972
215	0x3af9de00	0.0019063354
216	0xbd8b8a7c	-0.06813523
217	0x3ddf3d2c	0.109003395
218	0x3d83925e	0.06424402
219	0x3cf2e170	0.029648513
220	0x3da0dc52	0.07854523
221	0xbd34031c	-0.043948278
222	0xbd3c9a9c	-0.046045884
223	0xbd1719b4	-0.036889747
224	0xbdffdeca	-0.124936655
225	0xbdb6debc	-0.08929202
226	0x3bdd7de0	0.0067593902
227	0xbdf760e0	-0.12079024
228	0x3d4a1cc8	0.049343854
229	0x3dfcb036	0.12338297
230	0xbcb09f10	-0.021560222
231	0xbcb3b850	-0.021938473
232	0x3cb51c20	0.022108138
233	0x3d1d1c14	0.038356856
234	0xbd5e2430	-0.05423373
235	0x3d75b29c	0.05998479
236	0xbdfb4b3e	-0.12270211
237	0x3df77fe6	0.120849416
238	0xbd51f400	-0.051258087
239	0x3db56b66	0.08858375
240	0xbc5d2f20	-0.013500005
241	0xbdc2b18e	-0.09506522
242	0x3d6d0dec	0.057874605
243	0x3c3cf840	0.011533797
244	0xbde88d24	-0.113550454
245	0x3d266078	0.040619344
246	0x3da83fd4	0.08215299
247	0x3dbbe928	0.091753304
248	0x3debb3b0	0.11508882
249	0x3d8032d6	0.06259696
250	0xbd5a0820	-0.053230405
251	0xbd588e78	-0.052870244
252	0xbdfa644c	-0.12226161
253	0xbddcecca	-0.107873514
254	0x3dfddc6e	0.12395559
255	0xbd95860e	-0.073009595

pre_model.lstm.weight_ih_l1 f4 [256, 64]
0	0xbc6c9bb0	-0.014441416
1	0xbd412d04	-0.04716207
2	0xbdcc7ed8	-0.09985131
3	0x3dc896ce	0.09794389
4	0xbdbffde4	-0.09374598
5	0x3d6abbb0	0.0573079
6	0xbdd5b34c	-0.10434589
7	0xbd110bdc	-0.0354117
8	0xbd7ab8b8	-0.061211318
9	0xbd8b0cd4	-0.06789556
10	0x3d97d490	0.0741359
11	0xbd17d130	-0.03706473
12	0xbdf0682a	-0.11738618
13	0x3db4593a	0.08806081
14	0xbb5f0140	-0.0034027845
15	0xbc6014a0	-0.013676792
16	0x3cf071a8	0.02935107
17	0x3d4bf354	0.049792603
18	0x3cd2df60	0.02574128
19	0xbd94442a	-0.07239564
20	0xbc023a40	-0.007948458
21	0x3dfe3510	0.124124646
22	0x3df957ba	0.12174936
23	0x3db2b1f8	0.08725351
24	0xbdb4a650	-0.08820784
25	0xbdf5b9ca	-0.11998327
26	0xbdede23c	-0.116154164
27	0x3b143800	0.0022616386
28	0xba15d900	-0.00057162344
29	0x3d79675c	0.060889587
30	0xbd9cb2ea	-0.07651313
31	0x3d337f1c	0.043822393
32	0x3dc64da6	0.09682779
33	0xbb7db940	-0.0038715154
34	0xbdd099ac	-0.101855606
35	0xbda51f12	-0.08062567
36	0x3d32e0d4	0.043671444
37	0x3da639ba	0.08116479
38	0xbd8b9b40	-0.06816721
39	0x3bd75660	0.006571576
40	0xbdcb86ea	-0.09937842
41	0x3c9beec0	0.019034743
42	0xbd052218	-0.032503217
43	0x3dcfce6a	0.10146792
44	0xbdbf314a	-0.09335573
45	0x3d1a9ae8	0.037745386
46	0xbd9d4514	-0.07679191
47	0xbdc43098	-0.09579581
48	0x3d959d12	0.073053494
49	0xbbf2c7e0	-0.007409081
50	0xbd9f9c90	-0.07793534
51	0xbdb721f2	-0.089420214
52	0xbd4cb478	-0.049976796
53	0x3daf0810	0.0854646
54	0x3c5e95c0	0.013585508
55	0xbc59f3e0	-0.013302773
56	0xbc51c480	-0.012803197
57	0xbb830280	-0.0039981008
58	0xbd80d31c	-0.06290266
59	0x3de056b6	0.10954039
60	0x3dd687fc	0.10475156
61	0xbde55e08	-0.11199576
62	0x3be4fcc0	0.006988138
63	0xbd1adfa0	-0.03781092
64	0x3d74c4a4	0.059757844
65	0x3d564344	0.052310243
66	0x3d6f46e0	0.0584172
67	0x3df63964	0.12022665
68	0x3daff164	0.085909635
69	0x3c3d18e0	0.011541575
70	0xbc76ef10	-0.015071645
71	0xbd9dd960	-0.077074766
72	0xbd04c6d0	-0.032416165
73	0x3dbd744e	0.09250699
74	0x3d989490	0.07450211
75	0xbde3aecc	-0.11117324
76	0xbc125220	-0.008930713
77	0xbd9c2c72	-0.07625665
78	0x3d9e8f4e	0.07742177
79	0x3dbc7028	0.092010796
80	0x3da1223c	0.07867858
81	0xbd5888b4	-0.052864745
82	0xbbc26680	-0.005932629
83	0x3d9b0248	0.075687945
84	0x3daaab44	0.083334476
85	0xbd9081c4	-0.07056001
86	0xbdd82d8e	-0.10555564
87	0x3df2d95c	0.11857864
88	0xbd762ed0	-0.060103238
89	0x3d811d76	0.06304447
90	0xbda800a2	-0.08203246
91	0xbd9712ce	-0.073766336
92	0xbd7d3f4c	-0.061827943
93	0x3c8a2950	0.016865402
94	0xbdde0fc2	-0.10842849
95	0xbddb3c08	-0.107048094
96	0xbcfbd748	-0.030742303
97	0xbd8dd892	-0.06926073
98	0x3d43f970	0.047845304
99	0x3c928fa8	0.017890766
100	0xbd3e655c	-0.046483383
101	0xbd4ad944	-0.049523607
102	0x3db88cd0	0.09011233
103	0x3be1a7c0	0.0068864524
104	0xbd6d9644	-0.058004633
105	0x3cecd448	0.028909817
106	0xbdc9dbfa	-0.0985641
107	0x3db89916	0.09013574
108	0x3c344560	0.011002868
109	0xbdbc7bd6	-0.09203307
110	0x3d106a64	0.035257712
111	0x3d3fe00c	0.046844527
112	0x3dc05476	0.0939111
113	0x3de1a684	0.110180885
114	0x3d058e04	0.03260614
115	0xbdd5d106	-0.10440259
116	0xbd0c617c	-0.034272656
117	0x3db894ba	0.09012742
118	0x3d42af5c	0.047530517
119	0x3cc1f1f0	0.023674935
120	0x3da1853e	0.07886742
121	0xbd87c914	-0.066301495
122	0xbcc6c098	-0.024261758
123	0xbcd5b488	-0.02608706
124	0xbd09904c	-0.033584878
125	0x3d2f5640	0.042806864
126	0xbd4f6ca4	-0.050640717
127	0xbbb88a00	-0.0056316853
128	0x3da6ea06	0.08150105
129	0xbd0c38c0	-0.03423381
130	0x3df8abe6	0.12142162
131	0xbb8fcd60	-0.0043884963
132	0x3b8a7300	0.004225135
133	0xbdb6b128	-0.089205086
134	0xbd8fac18	-0.07015246
135	0x3c4b3210	0.012402073
136	0xbdfdc04e	-0.12390195
137	0x3da9f8f6	0.08299439
138	0xbdf22648	-0.11823708
139	0xbc8f1170	-0.01746437
140	0x3a0caf00	0.0005366653
141	0x3d9008d6	0.07032935
142	0xbda13abe	-0.07872532
143	0x3d8092ba	0.06277986
144	0x3b416180	0.0029507577
145	0xbd2b2a88	-0.041788608
146	0x3cc02a18	0.023457572
147	0xbc053df0	-0.008132443
148	0xbcff36d0	-0.031154066
149	0x3dbab100	0.09115791
150	0x3d4fbdfc	0.050718293
151	0x3d891458	0.066933334
152	0xbd1b6244	-0.03793551
153	0xbd1e32a0	-0.0386225
154	0xbcb73e38	-0.022368535
155	0xbdd583f6	-0.1042556
156	0x3df1ca12	0.1180612
157	0xbc9e0190	-0.019287854
158	0x3d7d43a4	0.061832085
159	0x3cfee9c8	0.031117335
160	0xbc86bdc0	-0.016447902
161	0xbcdbfdb8	-0.026854381
162	0x3cd6e230	0.026230901
163	0x3d85461c	0.06507513
164	0xbcb57440	-0.022150159
165	0xbde961d0	-0.113956094
166	0x3d3d0474	0.046146825
167	0xbc130ae0	-0.008974761
168	0x3da86f50	0.08224356
169	0x3dee1108	0.11624342
170	0x3d61da10	0.0551396
171	0x3dfd783a	0.12376447
172	0xbcd6b6b8	-0.026210174
173	0xbd828258	-0.06372517
174	0xbd5e609c	-0.054291353
175	0x3c9bb770	0.019008368
176	0xbcf45b40	-0.029828668
177	0xbca18c10	-0.019720107
178	0x3cf5bed0	0.029998213
179	0xbd9fc73c	-0.07801673
180	0x3da2d33a	0.079504445
181	0x3d113ecc	0.03546028
182	0x3d2ccdf8	0.042188615
183	0x3dd81174	0.10550204
184	0xbc8d4f60	-0.017249763
185	0xbd111998	-0.0354248
186	0xbcf6a7c0	-0.030109286
187	0xbdd64c14	-0.104637295
188	0x3c302d00	0.010752916
189	0x3d19a26c	0.037508413
190	0xbde53e08	-0.11193472
191	0x3d3a481c	0.045478925
192	0xbda0fa6e	-0.07860266
193	0x3d88d002	0.06680299
194	0xbd953eb0	-0.07287347
195	0x3da1b2b2	0.078954116
196	0x3c082ac0	0.008310974
197	0xbd33eb00	-0.043925285
198	0xbbe1fc00	-0.006896496
199	0xbd793960	-0.060845733
200	0x3d0a7184	0.033799663
201	0x3d7438c0	0.059624434
202	0xbdc03868	-0.09385759
203	0x3dfaa308	0.12238127
204	0xbdd454ae	-0.10367714
205	0x3da06772	0.07832231
206	0xbca991f8	-0.020699486
207	0xbd5dee90	-0.05418259
208	0x3c54b7d0	0.012983277
209	0x3dfaa0d4	0.12237707
210	0x3c8d4f90	0.017249852
211	0x3d13a508	0.036046058
212	0x3d5bf040	0.053695917
213	0x3dd6c216	0.10486238
214	0x3d2ceb3c	0.042216524
215	0xbcfa0958	-0.030522034
216	0x3c3c53b0	0.011494562
217	0xbdd5458c	-0.10413656
218	0x3d9ec9ae	0.07753311
219	0xbcceca58	-0.02524297
220	0x3d19646c	0.037449285
221	0x3ddb547c	0.107094735
222	0x3daab940	0.08336115
223	0xbd22873c	-0.03967975
224	0x3c777060	0.015102476
225	0x3d3a9710	0.04555422
226	0xbcfe4ab0	-0.031041473
227	0xbdc011de	-0.09378408
228	0xbdb4f822	-0.0883639
229	0xbc52b850	-0.012861326
230	0xbd7f98f4	-0.062401727
231	0x3aa49180	0.0012555569
232	0x3d58ef0c	0.052962348
233	0x3d182d8c	0.037152812
234	0xbd605e34	-0.05477734
235	0xbdb8ed64	-0.09029654
236	0xbdd9c9e4	-0.10634211
237	0x3d40ac58	0.04703936
238	0xbddc2062	-0.10748364
239	0x3db93fa6	0.09045343
240	0xbda12a52	-0.078694
241	0x3d8ae028	0.06781036
242	0x3c27a880	0.010233045
243	0xbde36700	-0.1110363
244	0x3cc54b48	0.024083748
245	0x3d73c640	0.059515238
246	0xbd44f194	-0.04808195
247	0xbdc7c2a0	-0.09753919
248	0xbc985518	-0.018595263
249	0x3db634b8	0.08896774
250	0x3dc628a8	0.09675723
251	0xbcf611e0	-0.03003782
252	0xbceee678	-0.02916263
253	0xbd81102e	-0.06301914
254	0xbda868d2	-0.08223118
255	0x3c30e880	0.01079762

pre_model.lstm.weight_hh_l1 f4 [256, 64]
0	0x3da16e26	0.07882337
1	0x3d210d08	0.03931907
2	0xbca86d18	-0.020559832
3	0xbd6292a4	-0.05531563
4	0xbd27fb94	-0.041011408
5	0x3cf6ae68	0.03011246
6	0xbdb33684	-0.087506324
7	0x3c194e00	0.009356976
8	0x3cebf4c0	0.02880323
9	0x3d26df94	0.040740564
10	0x3cde09c0	0.027104259
11	0x3dd612a8	0.10452777
12	0x3dd052b2	0.10172023
13	0xbd980120	-0.074220896
14	0x3bd12e80	0.006383717
15	0xbcd498d0	-0.025951773
16	0x3d3804c0	0.044926405
17	0x3b8cf760	0.0043019503
18	0x3d8ab706	0.0677319
19	0xbd0f191c	-0.034936056
20	0x3b4e8340	0.0031511337
21	0xbd813cba	-0.06310411
22	0x3d0bdcc8	0.0341461
23	0x3de9d4e6	0.1141756
24	0x3dbb1ce4	0.0913637
25	0xbd73294c	-0.059365556
26	0xbda68320	-0.08130479
27	0xbd8219a4	-0.06352547
28	0xbda2049e	-0.07911037
29	0xbd27dfa4	-0.040984765
30	0xbd53e334	-0.05173035
31	0xbd2bf0d8	-0.041977733
32	0x3d158250	0.03650123
33	0xbd64fea8	-0.05590692
34	0x3ca865b8	0.020556316
35	0xbce07cc8	-0.02740325
36	0x3dbdd220	0.09268594
37	0xbcd04510	-0.025423557
38	0xbc040720	-0.008058339
39	0xbcef4c18	-0.029211089
40	0xbda97efa	-0.08276172
41	0x3dafc57a	0.085825875
42	0x3d549828	0.05190292
43	0x3ab40300	0.0013733804
44	0xbdb12f20	-0.086515665
45	0xbc8fde00	-0.017561913
46	0x3d8e171e	0.06938003
47	0x3dd8e4c6	0.1059051
48	0x3dbe094c	0.09279117
49	0xbdc64226	-0.096805856
50	0x3d2e3f10	0.04254061
51	0xbdc5dd24	-0.0966132
52	0xbde8fd22	-0.11376406
53	0x3df2c99e	0.11854862
54	0xbdd03442	-0.101662174
55	0x3deda058	0.11602849
56	0x3d5ca058	0.053863853
57	0xbda67db2	-0.08129443
58	0x3d0841d8	0.03326592
59	0xb9ed6800	-0.0004528165
60	0x3dc2247e	0.094796166
61	0x3d32446c	0.043522283
62	0x3dfbb874	0.12291041
63	0xbd93614c	-0.07196292
64	0x3dec17ec	0.11528
65	0xbd065a0c	-0.03280072
66	0x3de5c486	0.112191245
67	0xbdda450e	-0.106577024
68	0x3deb1f46	0.11480574
69	0x3da7b59c	0.08188936
70	0xbdf426da	-0.11921473
71	0x3cb786b8	0.022403106
72	0xbd9f29c6	-0.077716395
73	0x3dacad28	0.084314644
74	0x3df5a608	0.119945586
75	0xbd3d959c	-0.046285257
76	0xbda5818e	-0.08081351
77	0x3bd68a20	0.0065472275
78	0x3d2bdfe4	0.041961566
79	0x3d906974	0.070513636
80	0xbd12e6a4	-0.035864487
81	0x3dc47a4c	0.09593639
82	0xbdf2a2ec	-0.11847481
83	0xbde035ac	-0.10947737
84	0xbdf1886c	-0.117935985
85	0xbdf0620a	-0.117374495
86	0xbdf5452e	-0.119760856
87	0xbdd8381a	-0.105575755
88	0xbda35788	-0.0797568
89	0xbdc870d4	-0.09787145
90	0x3cb16e90	0.021659166
91	0xbd1ca3a8	-0.038242012
92	0x3ce29af8	0.027661785
93	0xbc9e2b60	-0.019307792
94	0x3cc5d788	0.024150625
95	0x3d22bb44	0.03972937
96	0xbdc0ae0c	-0.09408197
97	0xbd50fafc	-0.051020607
98	0xbc603860	-0.013685316
99	0xbc835718	-0.01603274
100	0xbccef498	-0.025263116
101	0xbd738d54	-0.059460953
102	0xbd0eefa4	-0.034896508
103	0x3dc6091a	0.09669705
104	0xbd66b978	-0.05632922
105	0x3dbd6698	0.09248084
106	0x3c4d8fa0	0.01254645
107	0xbd60174c	-0.054709718
108	0xbd153ae0	-0.0364331
109	0xbc3d66d0	-0.011560157
110	0x3d9a4a8e	0.075337514
111	0xbd9b9fc0	-0.07598829
112	0x3de77596	0.113017246
113	0xbdb878e2	-0.090074316
114	0xbcdb0f38	-0.026740655
115	0xbd991328	-0.07474357
116	0x3d981ff6	0.07427971
117	0xb8845000	-6.309152e-05
118	0x3df91690	0.121625066
119	0x3dfbeec4	0.123014
120	0x3da20c74	0.079125315
121	0xbd4f5544	-0.050618425
122	0x3c54f930	0.012998864
123	0x3da2b9aa	0.07945569
124	0x3d8955ee	0.06705843
125	0x3cbf4b60	0.023351371
126	0xbd8641fc	-0.06555554
127	0xbdb191e6	-0.08670406
128	0xbbb4bd00	-0.0055156946
129	0x3ddd610c	0.10809526
130	0x3c6f7ed0	0.014617637
131	0xbdcde6fc	-0.100538224
132	0xbb564040	-0.0032692105
133	0x3c05b730	0.008161351
134	0xbda7338e	-0.0816413
135	0x3dcdd796	0.100508854
136	0xbd69f90c	-0.057122275
137	0x3dca36be	0.098737225
138	0xbdaad538	-0.083414495
139	0x3de977d0	0.113998055
140	0x3dc087c2	0.09400894
141	0xbd53cb4c	-0.05170755
142	0xbdc49676	-0.09599011
143	0xbc7b5700	-0.015340567
144	0x3d98986e	0.07450949
145	0xbde54768	-0.1119526
146	0x3cd22940	0.025654435
147	0x3dabea06	0.08394246
148	0x3b7d6fc0	0.0038671345
149	0x3d8da68c	0.06916532
150	0x3cf63888	0.030056253
151	0xbd81a630	-0.06330526
152	0x3d8992ea	0.06717475
153	0xbdee23d8	-0.116279304
154	0x3c9d8490	0.01922825
155	0xbd1cb4b0	-0.038258255
156	0x3d8fa8e6	0.07014637
157	0x3cd2ec48	0.025747433
158	0xbd9fbe3a	-0.07799955
159	0x3a5cd300	0.00084237754
160	0xbdba5ad0	-0.09099352
161	0xbdc66178	-0.096865594
162	0x3dd0ec44	0.10201314
163	0xbdcfbba0	-0.101432085
164	0x3dceb278	0.10092634
165	0x3daa6f28	0.083219826
166	0x3dd9f546	0.10642485
167	0xbdd76110	-0.1051656
168	0xbdf4b494	-0.11948505
169	0x3b8ba3e0	0.004261479
170	0x3dad9e9e	0.084775195
171	0xbd4e9188	-0.05043176
172	0x3d4b2818	0.049598783
173	0x3c95a878	0.018268809
174	0x3d633474	0.055469945
175	0x3db1db6a	0.08684428
176	0xbc9f7e08	-0.019469276
177	0xbd0c5574	-0.034261182
178	0xbde21a4a	-0.110401705
179	0x3d025a18	0.0318242
180	0xbdc63c00	-0.09679413
181	0x3dc8778c	0.09788427
182	0x3d86fab4	0.065907866
183	0xbdbf4b66	-0.09340553
184	0xbd9b671c	-0.07588026
185	0xba701200	-0.00091579556
186	0xbdbfe7c0	-0.09370375
187	0x3d39145c	0.04518543
188	0xbdad5ac6	-0.08464579
189	0x3d057db8	0.032590598
190	0xbd15d5b8	-0.03658077
191	0xbd1de754	-0.03855069
192	0x3d07d42c	0.033161327
193	0xbc944f30	-0.018104166
194	0x3b53e340	0.0032331496
195	0xbd4b7a90	-0.04967743
196	0x3d95f65c	0.0732238
197	0x3dd3c484	0.10340217
198	0x3dd4f55c	0.10398361
199	0x3dbb6dee	0.09151827
200	0x3c7f8290	0.015595093
201	0xbd7fda5c	-0.062464103
202	0xbc9b5e60	-0.0189659
203	0xbb2e9c80	-0.0026643574
204	0xbda436bc	-0.08018252
205	0xbdc99c9e	-0.098443255
206	0x3d92e61e	0.071727976
207	0xbdc29826	-0.09501676
208	0x3dc74210	0.09729397
209	0x3dc96b04	0.09834865
210	0x3dcaae20	0.09896493
211	0xb8159000	-3.565848e-05
212	0xbd2d7790	-0.04235035
213	0x3dc5ce7e	0.09658526
214	0x3d83e736	0.06440584
215	0x3dfb6c64	0.12276533
216	0x3ddc6542	0.10761501
217	0xbd409780	-0.04701948
218	0xbd7f16b4	-0.06227751
219	0xbdc26be8	-0.09493238
220	0xbde7cbe6	-0.113181874
221	0x3dbd3ad4	0.09239736
222	0x3d707ff4	0.058715776
223	0x3d791f10	0.06082064
224	0x3da43670	0.08018196
225	0x3defa9a8	0.11702281
226	0x3dfbe8c8	0.12300259
227	0x3bca0520	0.0061651617
228	0xbb3f3f00	-0.0029181838
229	0x3d055954	0.032555893
230	0xbda364a0	-0.07978177
231	0x3de3a39e	0.11115192
232	0x3c43fab0	0.011961624
233	0x3d90ca4a	0.070698336
234	0xbdd355d2	-0.10319103
235	0x3d5374cc	0.051625058
236	0xbd087384	-0.03331329
237	0x3d83dfac	0.064391464
238	0x3d15d920	0.03658402
239	0xbdf860de	-0.12127851
240	0xbdf10b5e	-0.11769746
241	0xbcb08a98	-0.021550462
242	0x3cac83b0	0.021058887
243	0xbde5014c	-0.11181888
244	0xbc374990	-0.011186972
245	0xbdf6e9ee	-0.12056337
246	0x3d8175ae	0.06321274
247	0x3de4690a	0.11152847
248	0xbd0a9bd4	-0.033840016
249	0xbdcbe0f8	-0.09955019
250	0xbd8be262	-0.068302885
251	0x3d090488	0.033451587
252	0xbdcd4562	-0.10022999
253	0xbd5aa4dc	-0.05337988
254	0xbdaef2c4	-0.085423976
255	0xbc0e3330	-0.008679196
