experiments/lstm/final_model_s1000000007.pt (torch, 449244 bytes, 90 tensors)

pre_model.start_conv.weight f4 [32, 2, 1, 1]
0.13639946 0.21143328 -0.11529951 0.56280595 0.591624 -0.34988645 0.60326904 0.609768
-0.3663059 0.16003825 0.6615484 -0.50362265 0.67957026 -0.2536889 -0.4520532 0.24358062
-0.16667405 0.60508966 -0.4371817 -0.083197095 0.65401 -0.0939788 0.1789256 -0.40051296
-0.29954532 -0.25798133 0.38007703 0.4155814 -0.57906187 -0.58799994 0.59551424 -0.06189943
-0.26718545 -0.3780841 0.72958195 0.17396222 -0.11408383 0.52121747 0.6856749 -0.12842976
-0.6456692 0.31848556 0.04354497 0.11195651 0.40336037 -0.23230451 -0.15924789 0.2237862
-0.54362017 0.027390568 0.54464185 -0.4246913 -0.54503685 -0.5491631 0.6082654 -0.5702562
-0.7052683 -0.56967384 0.34652975 -0.08991998 0.6034224 0.5702343 -0.289941 -0.41665453
00000000: 4dac 0b3e f781 583e 2622 ecbd 0d14 103f
00000010: ac74 173f 5124 b3be d76f 1a3f c119 1c3f
00000020: 728c bbbe 11e1 233e 3c5b 293f 6aed 00bf
00000030: 51f8 2d3f 83e3 81be 8473 e7be 336d 793e
00000040: 9aac 2abe 28e7 1a3f 48d6 dfbe 3d63 aabd
00000050: 336d 273f f577 c0bd 4638 373e 0910 cdbe
00000060: 015e 99be 2116 84be 7599 c23e 16c7 d43e
00000070: 663d 14bf 2a87 16bf 9f73 183f 428a 7dbd
00000080: 88cc 88be 3d94 c1be e2c5 3a3f 2723 323e
00000090: c8a4 e9bd 826e 053f 6488 2f3f 1783 03be
000000a0: 944a 25bf 8a10 a33e 365c 323d 7449 e53d
000000b0: 4085 ce3e 3ce1 6dbe e111 23be 3628 653e
000000c0: b12a 0bbf 2f62 e03c a66d 0b3f 2371 d9be
000000d0: 8987 0bbf f495 0cbf 48b7 1b3f 4ffc 11bf
000000e0: 778c 34bf 25d6 11bf 596c b13e f727 b8bd
000000f0: e479 1a3f e0fa 113f 2673 94be be53 d5be

pre_model.start_conv.bias f4 [32]
0.14899153 -0.6561128 0.12529905 0.29669303 0.35261393 0.58251035 -0.1795734 0.5360086
-0.21966743 0.382397 0.3390447 0.597375 -0.5701747 0.45082983 0.5473073 0.15755954
0.23726258 -0.5290557 0.29175928 0.18597323 0.64274186 -0.33807895 0.33351547 -0.4056963
-0.67676413 -0.047174815 -0.13797608 -0.1948127 0.16804193 0.14411461 0.43698615 0.66087806
00000000: 3c91 183e 02f7 27bf 654e 003e 26e8 973e
00000010: d089 b43e 661f 153f 17e2 37be dc37 093f
00000020: 80f0 60be 8ac9 c33e 4497 ad3e 91ed 183f
00000030: f8f6 11bf 2bd3 e63e 551c 0c3f 4a57 213e
00000040: f6f4 723e 3270 07bf 7961 953e c46f 3e3e
00000050: bb8a 243f af18 adbe 8ac2 aa3e 6db7 cfbe
00000060: 6a40 2dbf 613a 41bd 9a49 0dbe fb7c 47be
00000070: 2f13 2c3e c892 133e a6bc df3e 4e2f 293f

pre_model.lstm.weight_ih_l0 f4 [256, 32]
0.04201087 -0.06294175 0.032469485 0.12943423 0.03888001 0.09101474 0.012597239 0.06303827
0.002403829 0.0150141595 0.084715664 0.06899098 -0.11613897 0.11545896 -0.017067188 0.06033078
-0.008531754 -0.0013142781 0.07320876 0.06993819 0.04955693 -0.040451147 0.056088403 -0.051741045
-0.12755701 0.0014496606 -0.096587695 -0.0177347 -0.07383087 0.03634518 0.1438198 0.04051824
-0.040897816 0.0550698 -0.097475946 -0.1482507 0.022939192 -0.14395748 -0.087041765 0.014196134
0.024849357 0.041205924 -0.1346489 -0.06626139 0.108209155 -0.116712786 0.0680703 -0.11020623
0.038234413 -0.07894349 -0.025120016 -0.12697911 0.025985982 0.016974386 -0.08643725 0.051812086
0.14904664 -0.07133968 0.12143755 -0.061533473 0.12437301 -0.06618568 -0.15924902 0.0045571555
0.016780289 -0.025967667 0.04455402 0.06392812 -0.012579318 0.06462716 0.042361602 -0.012750468
-0.012864638 -0.019393729 0.05930396 0.029994732 -0.046509575 0.05006613 -0.029259885 0.049008623
-0.01586711 0.035206687 0.008281585 0.055691008 -0.024513567 -0.008066396 0.039420065 -0.022834022
-0.065052085 0.03395656 -0.052838393 0.034185972 -0.051832188 0.029893048 0.06845776 -0.0024794503
0.02023223 0.024499184 0.15779138 0.121877104 -0.13678181 0.14345676 0.20012005 -0.19018368
-0.035642013 -0.15727895 0.1554558 -0.0060915127 -0.029419234 0.0551167 -0.19509085 0.15232751
-0.086484425 0.2461752 -0.07562405 0.18025966 -0.24093682 0.05281188 0.089145005 -0.010433186
-0.07207686 0.15552872 -0.13913788 0.18019898 -0.20322147 0.08684735 0.13272758 -0.1467117
0.022317056 -0.029320648 0.049883865 0.07556887 -0.013556927 0.073767625 0.04895016 -0.016052755
-0.012132321 -0.022376314 0.06884611 0.03488153 -0.055545017 0.060289625 -0.036315285 0.05624503
-0.01898166 0.040624116 0.011947454 0.06475005 -0.025487693 -0.00993967 0.04460507 -0.027569044
-0.07531202 0.03863262 -0.062704965 0.035896286 -0.062623136 0.03387926 0.08064491 -0.003707706
0.010720801 -0.017154697 0.037027426 0.040625848 -0.017623406 0.04733699 0.03879675 -0.021715496
-0.012502704 -0.021302871 0.04353194 0.020067962 -0.026636237 0.029773505 -0.027709719 0.03759868
-0.0124330865 0.037192073 -0.002711384 0.043366916 -0.03245452 -0.0027199215 0.028631281 -0.015930306
-0.042173214 0.032138508 -0.034798056 0.034936525 -0.040027525 0.022496648 0.042630065 -0.008924316
0.012942469 -0.01681538 -0.0426903 0.011271136 0.05618838 -0.020858975 -0.067032054 0.07917436
0.020378139 0.051890016 -0.019955648 0.01573508 -0.034491267 0.02789875 0.0504705 -0.027552644
0.016614618 -0.0772604 0.052150365 -0.034523856 0.102304734 -0.023336891 -0.010045003 -0.010911554
-0.014011697 -0.056042876 -0.0011623716 -0.07790043 0.030579027 -0.013771544 0.019117244 0.048804216
0.022845011 -0.03967347 -0.030017748 0.04360459 0.06477785 0.010314774 -0.06259099 0.09375304
0.015807997 0.057526827 0.0054239817 0.039422765 -0.06698391 0.059149496 0.053076997 -0.010100591
0.018548053 -0.07891444 0.06795906 -0.0148443 0.11436858 -0.035931256 0.008629602 -0.028321577
-0.052869212 -0.051883858 -0.02389989 -0.07914582 0.016651291 -0.0027266927 0.056625873 0.06454584
00000000: 9713 2c3d 9be7 80bd b9fe 043d 688a 043e
00000010: a540 1f3d f065 ba3d a664 4e3c 351a 813d
00000020: 8f89 1d3b f3fd 753c 687f ad3d 254b 8d3d
00000030: 45da edbd bf75 ec3d 7dd0 8bbc 681d 773d
00000040: c5c8 0bbc db43 acba 79ee 953d c13b 8f3d
00000050: 35fc 4a3d 1ab0 25bd f4bc 653d 6bee 53bd
00000060: 4e9e 02be 8a02 be3a c5cf c5bd 5d48 91bc
00000070: a434 97bd afde 143d 7f45 133e 74f6 253d
00000080: 7884 27bd df90 613d 78a1 c7bd 08cf 17be
00000090: f9ea bb3c 9769 13be f442 b2bd e796 683c
000000a0: e190 cb3c 8bc7 283d 67e1 09be 0db4 87bd
000000b0: c39c dd3d 1d07 efbd 7168 8b3d ceb3 e1bd
000000c0: b09b 1c3d 20ad a1bd 7ec8 cdbc d006 02be
000000d0: 8ee0 d43c de0d 8b3c 0306 b1bd e938 543d
000000e0: af9f 183e 8a1a 92bd 40b4 f83d 860a 7cbd
000000f0: 47b7 fe3d 5c8c 87bd 2d12 23be 3154 953b
00000100: d176 893c 25ba d4bc 477e 363d bfec 823d
00000110: 7c19 4ebc 3f5b 843d 5c83 2d3d 57e7 50bc
00000120: 34c6 52bc 99df 9ebc b6e8 723d 83b7 f53c
00000130: d380 3ebd 2412 4d3d 6db2 efbc 44bd 483d
00000140: befb 81bc e334 103d 7caf 073c 411c 643d
00000150: add0 c8bc eb28 04bc ef76 213d 6a0e bbbc
00000160: 073a 85bd 0916 0b3d 126d 58bd 9706 0c3d
00000170: fd4d 54bd 44e2 f43c 9533 8c3d 467e 22bb
00000180: 10be a53c 83b2 c83c 1094 213e b49a f93d
00000190: 8810 0cbe 54e6 123e 45ec 4c3e 83bf 42be
000001a0: 5cfd 11bd bc0d 21be ce2f 1f3e 509b c7bb
000001b0: 9b00 f1bc 0cc2 613d e5c5 47be befb 1b3e
000001c0: bf1e b1bd 5a15 7c3e c8e0 9abd fd95 383e
000001d0: 24b8 76be 4551 583d a891 b63d f4ef 2abc
000001e0: 089d 93bd ec42 1f3e 297a 0ebe 1586 383e
000001f0: 4a19 50be 06dd b13d bde9 073e 983b 16be
00000200: 42d2 b63c db31 f0bc 0653 4c3d dac3 9a3d
00000210: e01d 5ebc 7b13 973d f77f 483d 1181 83bc
00000220: a4c6 46bc 884e b7bc 30ff 8c3d efdf 0e3d
00000230: 2c83 63bd 41f2 763d 56bf 14bd 3061 663d
00000240: 6d7f 9bbc 7965 263d 41bf 433c ad9b 843d
00000250: 91cb d0bc ffd9 22bc ceb3 363d 7ad8 e1bc
00000260: 303d 9abd 3d3d 1e3d 766b 80bd fc07 133d
00000270: 8f40 80bd fbc4 0a3d 2929 a53d fcfc 72bb
00000280: 4ca6 2f3c 0288 8cbc 12aa 173d 4a67 263d
00000290: f65e 90bc 6ee4 413d 57e9 1e3d b2e4 b1bc
000002a0: 24d8 4cbc 5c83 aebc 8c4e 323d 9165 a43c
000002b0: 3d34 dabc 91e7 f33c 7eff e2bc 1301 1a3d
000002c0: 25b4 4bbc b756 183d 7ab1 31bb 82a1 313d
000002d0: 08ef 04bd b640 32bb 268c ea3c 4680 82bc
000002e0: d2bd 2cbd aba3 033d 6888 0ebd 9a19 0f3d
000002f0: e7f3 23bd e44a b83c dd9c 2e3d 4b37 12bc
00000300: a60c 543c 68c0 89bc 06dc 2ebd 92aa 383c
00000310: c925 663d 71e0 aabc 1a48 89bd 2b26 a23d
00000320: 0ef0 a63c a08a 543d 077a a3bc dbe6 803c
00000330: b746 0dbd eb8b e43c 28ba 4e3d 15b6 e1bc
00000340: 611b 883c b33a 9ebd 9f9b 553d e368 0dbd
00000350: 2585 d13d 022d bfbc cc93 24bc 60c6 32bc
00000360: 5191 65bc 378d 65bd b85a 98ba 438a 9fbd
00000370: de80 fa3c 0ba2 61bc c49b 9c3c eee6 473d
00000380: 7625 bb3c a680 22bd c8e7 f5bc ba9a 323d
00000390: 40aa 843d 4cff 283c b42f 80bd 9801 c03d
000003a0: c67f 813c 40a1 6b3d a8bb b13b c479 213d
000003b0: dc2e 89bd be46 723d 4467 593d f37c 25bc
000003c0: 16f2 973c e59d a1bd 1f2e 8b3d 8235 73bc
000003d0: 133a ea3d a72c 13bd 2d63 0d3c a702 e8bc
000003e0: 638d 58bd 2b84 54bd b4c9 c3bc 3417 a2bd
000003f0: 4a68 883c 50b2 32bb 88f0 673d 9c30 843d

pre_model.lstm.weight_hh_l0 f4 [256, 64]
-0.024707302 -0.04608873 -0.010018882 0.0041308585 -0.010671729 0.0044107907 -0.02647265 -0.034076177
-0.036439825 -0.030282257 0.012486636 -0.012839217 -0.03743897 -0.004293803 0.025043484 0.014972227
-0.028012184 0.017122705 0.022853624 -0.025338285 0.01811661 0.024004837 -0.0059037153 0.017450122
-0.0057061897 -0.03406316 0.0064660585 0.02940595 0.009934268 -0.013501111 -0.02239426 -0.023366015
-0.027011896 0.061517693 -0.027581563 0.027609516 0.020797843 -0.036646154 0.0033822826 0.014798849
0.010514752 -0.0148824705 0.02357975 0.0147631485 0.016538257 -0.0138657205 -0.03791093 0.07069923
-0.00773432 0.06477875 0.021288412 0.036613178 -0.018107831 -0.0086762635 0.0130250435 -0.011073837
-0.023006398 0.0028881005 -0.022505043 0.016324183 0.04678982 0.021737343 -0.027101163 0.01752157
0.03641166 0.010915745 -0.006810649 -0.014617876 -0.008857417 0.009061974 0.037563235 0.031357624
0.024694255 0.01393487 0.0063437372 -0.0035578143 0.00965456 -0.022500478 -0.036952082 -0.009863137
0.01431237 -0.0026871022 -0.01474669 -0.03928528 -0.001127994 0.0042923857 0.06809451 0.012625593
-0.022331446 0.022922175 0.030620402 -0.026999535 0.0071218996 -0.0009634159 -0.076431245 0.0015046609
0.0145486165 -0.036021948 0.03057199 -0.017762331 -0.0010799919 0.03331357 0.030848445 0.024670811
-0.029129412 0.002086016 -0.020244066 0.0052317656 -0.0015306826 -0.00041268242 0.016695762 -0.030228887
-0.0098261675 -0.009901257 -0.035619322 -0.0123952525 0.03916289 0.0319153 -0.017929902 -0.005865339
0.042761736 0.041010723 0.020050682 -0.0042804256 -0.014238858 -0.014890363 0.022994284 0.011780341
0.006026245 0.013907998 -0.0004243069 -0.0043071797 0.0025599026 0.0033815894 -0.0042388253 -0.009586549
-0.017743662 -0.006361747 -0.0009777903 0.0013963506 -0.0037971302 0.013133024 0.021562964 0.0056832675
-0.005119505 0.0024565803 0.0048586456 0.01147901 0.015641924 0.01497125 -0.021334698 -0.0009917404
0.015971046 -0.007689071 1.9838379e-05 0.006991185 -0.00026324342 -0.0041491976 -0.001989597 0.0035650712
-0.0047546215 -0.006388178 -0.007988655 0.0070752185 -0.0020100405 -0.009168686 0.00501685 0.016805641
0.0075711543 -0.0026654315 0.007442124 -0.0005199781 -0.00082108413 -0.0018006095 -0.0151418215 -0.004318745
-0.0023061675 0.012104969 3.8990733e-05 0.008902317 -0.0074311644 -0.011509395 0.007402605 -0.0031245542
-0.0030361665 -0.014477799 -0.0097717 0.0050147506 -0.014027483 0.008519694 -0.008518149 -0.002869916
0.007248825 0.026002623 -0.040365692 -0.03134756 -0.04184215 0.033959083 0.040767364 0.040131316
0.056295548 -0.02940699 0.05376503 -0.051265076 0.10972076 -0.02955156 -0.05936266 0.033747762
-0.025603268 0.04928903 0.024066903 -0.073068015 0.031336762 -0.036805093 0.07409386 0.06019423
0.0038698392 0.028215043 0.027321175 -0.036450867 0.057618257 -0.038172003 0.03743674 -0.040092744
-0.016520657 -0.054838713 0.050973706 0.001383726 0.04149426 0.048587345 -0.03904431 0.0918088
-0.051518988 -0.049238738 -0.02780151 0.058424298 0.045637354 -0.03797265 0.041328575 -0.061594192
-0.03940578 -0.05540397 -0.06156831 0.008676765 0.06501634 0.06016751 -0.024694782 -0.04292234
0.034366827 0.03644863 0.024904761 0.037728526 -0.027454041 0.025172986 0.04949467 0.059212193
00000000: f866 cabc 89c7 3cbd 3d26 24bc 275c 873b
00000010: 7ad8 2ebc 6588 903b 2cdd d8bc 7693 0bbd
00000020: ed41 15bd 7f12 f8bc bf94 4c3c 945b 52bc
00000030: 9b59 19bd 08b3 8cbb fe27 cd3c 124e 753c
00000040: cf79 e5bc ea44 8c3c 8637 bb3c 3c92 cfbc
00000050: 4969 943c cba5 c43c f473 c1bb 8ff3 8e3c
00000060: fdfa babb d085 0bbd 3be1 d33b bfe4 f03c
00000070: 57c3 223c c433 5dbc 2b74 b7bc 166a bfbc
00000080: 0d48 ddbc faf9 7b3d bbf2 e1bc 5a2d e23c
00000090: 3d60 aa3c 471a 16bd 49a9 5d3b df76 723c
000000a0: 1146 2c3c 9bd5 73bc 522a c13c 22e1 713c
000000b0: 3d7b 873c 0c2d 63bc 7e48 1bbd c2ca 903d
000000c0: 2e70 fdbb b9aa 843d 0965 ae3c b3f7 153d
000000d0: e056 94bc e326 0ebc fe66 553c 0a6f 35bc
000000e0: ea77 bcbc 4946 3d3b 7f5c b8bc 4bba 853c
000000f0: afa6 3f3d 8312 b23c 4203 debc 6589 8f3c
00000100: 6524 153d f4d7 323c dd2b dfbb d17f 6fbc
00000110: b31e 11bc ac78 143c e8db 193d da70 003d
00000120: 9b4b ca3c 154f 643c 20df cf3b 382a 69bb
00000130: 292e 1e3c ec52 b8bc 115b 17bd ff98 21bc
00000140: 6e7e 6a3c 181a 30bb 1a9c 71bc 9ae9 20bd
00000150: 33d9 93ba 24a7 8c3b 2275 8b3d 93db 4e3c
00000160: 70f0 b6bc 49c7 bb3c a3d7 fa3c 212e ddbc
00000170: d35e e93b bf8d 7cba fc87 9cbd 0b38 c53a
00000180: 525d 6e3c c08b 13bd 1c72 fa3c 4f82 91bc
00000190: 848e 8dba cf73 083d e1b5 fc3c 711a ca3c
000001a0: cea0 eebc 8ab5 083b e2d6 a5bc 3b6f ab3b
000001b0: 2fa1 c8ba 4c5d d8b9 8dc5 883c 92a2 f7bc
000001c0: effd 20bc e238 22bc 91e5 11bd 7515 4bbc
000001d0: 4469 203d 9eb9 023d bbe1 92bc 0832 c0bb
000001e0: ee26 2f3d dcfa 273d 5441 a43c d042 8cbb
000001f0: 194a 69bc b6f6 73bc 825e bc3c 5502 413c
00000200: cf77 c53b 5fde 633c 8275 deb9 3e23 8dbb
00000210: 0ac4 273b a89d 5d3b d8e5 8abb e710 1dbc
00000220: 285b 91bc 3476 d0bb 3329 80ba c005 b73a
00000230: 46d9 78bb e52b 573c d0a4 b03c b43a ba3b
00000240: 85c1 a7bb 94fe 203b 4635 9f3b 7512 3c3c
00000250: 7e23 803c f949 753c 1bc6 aebc 49fd 81ba
00000260: b6d5 823c 9af4 fbbb 986a a637 4f16 e53b
00000270: ef03 8ab9 fef5 87bb e663 02bb f8a3 693b
00000280: a8cc 9bbb ec53 d1bb d9e2 02bc 3cd7 e73b
00000290: e2ba 03bb 4238 16bc 6364 a43b fcab 893c
000002a0: 7217 f83b 85ae 2ebb 10dd f33b 244f 08ba
000002b0: 063e 57ba 6e02 ecba 6715 78bc 4284 8dbb
000002c0: 1223 17bb eb53 463c fb89 2338 06db 113c
000002d0: 2081 f3bb e791 3cbc 8d91 f23b 52c5 4cbb
000002e0: 6cfa 46bb 4a34 6dbc 7b19 20bc c752 a43b
000002f0: 87d3 65bc 3096 0b3c b58f 0bbc 3315 3cbb
00000300: 8d87 ed3b 7403 d53c 7f56 25bd 4d66 00bd
00000310: ad62 2bbd ae18 0b3d aefb 263d bc60 243d
00000320: 2996 663d eee6 f0bc b838 5c3d 54fb 51bd
00000330: 47b5 e03d 1d16 f2bc 4326 73bd 183b 0a3d
00000340: f2bd d1bc 4be3 493d f427 c53c afa4 95bd
00000350: fa5a 003d f0c0 16bd 86be 973d 3a8e 763d
00000360: 219d 7d3b 3c23 e73c a8d0 df3c 814d 15bd
00000370: 1f01 6c3d 3f5a 1cbd 4457 193d 4a38 24bd
00000380: 5456 87bc 8f9e 60bd cec9 503d 245e b53a
00000390: e3f5 293d 8603 473d edec 1fbd 4106 bc3d
000003a0: 9305 53bd 8fae 49bd febf e3bc 514e 6f3d
000003b0: 3cee 3a3d 3689 1bbd 2748 293d 314a 7cbd
000003c0: f567 21bd 46ef 62bd 0d2f 7cbd fd28 0e3c
000003d0: 4927 853d 3572 763d b64c cabc 56cf 2fbd
000003e0: 3bc4 0c3d 294b 153d 1205 cc3c 3a89 1a3d
000003f0: 4ce7 e0bc 9437 ce3c ecba 4a3d 7c88 723d

pre_model.lstm.bias_ih_l0 f4 [256]
0.1433248 -0.09558115 0.036425386 -0.081132665 0.041902967 0.012297228 0.07299909 0.11330931
0.10134002 0.10224916 0.05167495 0.061771464 0.18169372 0.08624623 0.18284094 0.09354971
0.0960855 0.09871349 0.082734264 0.21885155 0.074074365 0.1286032 0.073089525 0.06891982
-0.008126841 0.11833757 0.026942052 0.045747153 0.07419925 0.05016392 0.14610575 0.08668495
0.0970922 0.025830701 0.029414617 0.076895915 0.06690618 0.059784643 -0.04699693 0.084940076
-0.034323987 0.11568709 0.056450043 0.0725055 0.09398552 0.06296722 0.121369705 0.025449844
0.01620573 0.09777996 0.12354286 0.10946762 0.048674222 -0.0119783515 0.061068483 0.05232757
0.09820631 0.08215715 0.089147165 0.07969037 -0.07063661 0.13207325 0.096090466 0.06697591
0.038347367 -0.072672315 -0.029658748 0.10020739 -0.029291881 -0.011601831 -0.04265155 -0.0008343467
-0.057946168 -0.026610197 -0.036073197 -0.034832787 0.09077112 0.017965471 -0.016336784 -0.030289112
-0.03431175 -0.033395763 -0.031763706 0.2677975 0.125786 0.1216457 -0.01859037 -0.035374537
-0.06564671 -0.007562551 0.0138282655 -0.052948337 -0.04327981 -0.031162832 0.12123481 -0.025531733
-0.032184787 0.021342253 -0.060441684 -0.013161412 -0.019220086 -0.052979063 0.1338397 0.056838546
-0.07952718 -0.04169912 -0.047060948 -0.0347619 -0.032335434 -0.038286164 -0.05052753 0.03890624
-0.016677257 -0.043418385 0.009465038 0.014219548 0.04369477 -0.06304253 -0.046140324 -0.03040096
-0.014927746 0.03993634 -0.010720302 -0.034351073 -0.05785021 -0.029748518 -0.018770125 -0.029975565
0.053818673 -0.15202737 0.025904253 0.051080253 0.100294955 0.02419757 -0.0028208501 -0.11507114
-0.019056793 0.04734391 0.045012597 -0.031617787 -0.0039984016 -0.048946563 -0.06749715 -0.05492388
-0.012530242 -0.039109122 -0.013287783 0.12378399 -0.08310433 -0.080062315 -0.099189036 -0.0051070424
-0.06601777 -0.04980163 0.03392811 0.068743415 -0.040532973 -0.072530486 0.00074325566 -0.0068535614
-0.067979395 0.032637153 -0.07773753 0.049217068 -0.0565658 -0.054777425 -0.0927534 0.005143156
0.03436299 0.07296766 0.035632733 -0.090398714 -0.040359102 0.08842458 -0.05115186 -0.020492494
-0.056943372 0.04904218 0.06800756 0.09328429 -0.0017968308 -0.08563782 0.025335075 0.034186635
-0.010588621 0.030995931 0.04334455 0.005488223 0.2537165 -0.063216224 0.037724465 0.0023756204
0.15461996 -0.11388341 0.04615599 0.12859842 0.05272533 0.017406715 0.07049063 0.11638887
0.08116175 0.120484166 0.06529927 0.0728752 0.14629743 0.076030634 0.092215806 0.10935759
0.11599097 0.115106106 0.095022075 0.067654334 0.08172265 0.14312185 0.081033215 0.057288345
0.13886903 0.11427673 0.025926108 0.039652966 0.06728784 0.059631065 0.1494084 0.107253335
0.116012044 0.023138994 0.025445618 0.0810083 0.123330735 0.05994299 0.20950274 0.10262002
-0.047589257 0.111459926 0.059824668 0.082441136 0.10708645 0.07562018 0.10723975 0.02549249
0.021924827 0.13822868 0.13287123 0.121763006 0.045452088 -0.039280783 0.06349602 0.06487121
0.097276345 0.093152024 0.09188452 0.09220913 -0.11009552 0.13921894 0.10405496 0.077755444
00000000: bdc3 123e 0dc0 c3bd c932 153d e228 a6bd
00000010: 72a2 2b3d 507a 493c 8c80 953d b60e e83d
00000020: 5b8b cf3d 0268 d13d 1da9 533d 1304 7d3d
00000030: eb0d 3a3e dda1 b03d a83a 3b3e fe96 bf3d
00000040: 7ac8 c43d 4c2a ca3d 9570 a93d 9f1a 603e
00000050: 4db4 973d 8fb0 033e f6af 953d d625 8d3d
00000060: 7126 05bc f85a f23d 94b5 dc3c 5e61 3b3d
00000070: c7f5 973d af78 4d3d bf9c 153e e187 b13d
00000080: 46d8 c63d e89a d33c ecf6 f03c 9b7b 9d3d
00000090: 1b06 893d bee0 743d da7f 40bd 10f5 ad3d
000000a0: 4f97 0cbd 5aed ec3d 2938 673d c37d 943d
000000b0: 7b7b c03d f5f4 803d ae90 f83d 317c d03c
000000c0: e1c1 843c dc40 c83d 0a04 fd3d 8f30 e03d
000000d0: 9f5e 473d d940 44bc f222 7a3d 6f55 563d
000000e0: 6420 c93d 0242 a83d ca92 b63d b434 a33d
000000f0: eda9 90bd 363e 073e 14cb c43d aa2a 893d
00000100: 2112 1d3d 39d5 94bd e7f6 f2bc 8839 cd3d
00000110: 87f5 efbc 9b15 3ebc 64b3 2ebd 0fb8 5aba
00000120: f658 6dbd a1fd d9bc 7dc1 13bd d3ac 0ebd
00000130: 35e6 b93d 532c 933c b8d4 85bc df20 f8bc
00000140: 7a8a 0cbd ffc9 08bd a91a 02bd c11c 893e
00000150: 0cce 003e 6121 f93d d54a 98bc e4e4 10bd
00000160: c871 86bd 47cf f7bb f38f 623c 5be0 58bd
00000170: 2c46 31bd 3249 ffbc f549 f83d ed27 d1bc
00000180: 32d4 03bd f3d5 ae3c b391 77bd f7a2 57bc
00000190: 7173 9dbc 9300 59bd 460d 093e 89cf 683d
000001a0: 25df a2bd b2cc 2abd fbc2 40bd 7e62 0ebd
000001b0: 2972 04bd f4d1 1cbd f5f5 4ebd 265c 1f3d
000001c0: be9e 88bc 7ad7 31bd 3f13 1b3c 1bf9 683c
000001d0: 4af9 323d 711c 81bd a3fd 3cbd 6f0b f9bc
000001e0: 8193 74bc 4a94 233d 35a4 2fbc b6b3 0cbd
000001f0: 58f4 6cbd 2ab3 f3bc cec3 99bc 518f f5bc
00000200: f870 5c3d 10ad 1bbe 2835 d43c 8739 513d
00000210: 7167 cd3d fb39 c63c 03de 38bb 6baa ebbd
00000220: fe1c 9cbc b0eb 413d 215f 383d a781 01bd
00000230: 0605 83bb 317c 48bd f23b 8abd ddf7 60bd
00000240: a54b 4dbc e330 20bd 00b5 59bc 7682 fd3d
00000250: 9a32 aabd b6f7 a3bd 9f23 cbbd fa58 a7bb
00000260: 5334 87bd cbfc 4bbd 34f8 0a3d 59c9 8c3d
00000270: e705 26bd dd8a 94bd 0bd7 423a d793 e0bb
00000280: c838 8bbd 89ae 053d db34 9fbd d697 493d
00000290: 8ab1 67bd 4b5e 60bd 7ff5 bdbd eb87 a83b
000002a0: 35c0 0c3d 1270 953d a1f3 113d f622 b9bd
000002b0: 964f 25bd f217 b53d 9d84 51bd e0df a7bc
000002c0: 743d 69bd 74e0 483d 8c47 8b3d d50b bf3d
000002d0: a383 ebba e262 afbd 818b cf3c 4907 0c3d
000002e0: e57b 2dbc 2eeb fd3c 0e8a 313d 8dd6 b33b
000002f0: 21e7 813e 8277 81bd f884 1a3d 4cb0 1b3b
00000300: b254 1e3e b53b e9bd 100e 3d3d 4eaf 033e
00000310: 84f6 573d 8798 8e3c 645d 903d 4a5d ee3d
00000320: 2238 a63d 67c0 f63d a0bb 853d 983f 953d
00000330: fece 153e f3b5 9b3d a4db bc3d dff6 df3d
00000340: ac8c ed3d c0bc eb3d ef9a c23d 5b8e 8a3d
00000350: 345e a73d 898e 123e bef4 a53d 2fa7 6a3d
00000360: af33 0e3e eb09 ea3d fd62 d43c 266b 223d
00000370: 35ce 893d b43f 743d 84fe 183e a3a7 db3d
00000380: b997 ed3d fd8d bd3c 5473 d03c aee7 a53d
00000390: d394 fc3d c886 753d e387 563e 722a d23d
000003a0: f4ec 42bd 1a45 e43d b60a 753d e6d6 a83d
000003b0: 2450 db3d c1de 9a3d 84a0 db3d a0d5 d03c
000003c0: b29b b33c d28b 0d3e 650f 083e e25e f93d
000003d0: f82b 3a3d e3e4 20bd 340a 823d 32db 843d
000003e0: d238 c73d 7dc6 be3d f42d bc3d 24d8 bc3d
000003f0: c379 e1bd 698f 0e3e c41a d53d 3f3e 9f3d

pre_model.lstm.bias_hh_l0 f4 [256]
0.14518368 -0.098493524 0.036157995 -0.1014403 0.041667424 0.012304108 0.072998874 0.113373354
0.10485507 0.10189312 0.05341157 0.061496176 0.17942986 0.086458035 0.15849519 0.08909086
0.09651194 0.09962844 0.08276038 0.2200186 0.10221661 0.12860303 0.10477257 0.06304077
-0.00772066 0.11266891 0.026944304 0.045742016 0.07529705 0.050168306 0.14609192 0.0888258
0.099665895 0.025831012 0.029335268 0.076895826 0.08445425 0.060074877 -0.06325369 0.08173674
-0.034316834 0.112774685 0.05645004 0.07218062 0.09298411 0.06281435 0.112582676 0.025443148
0.016096085 0.12003534 0.118315466 0.109470144 0.048651885 -0.012102376 0.061472755 0.047282144
0.098212756 0.082157135 0.089147165 0.07915582 -0.070546664 0.12538947 0.096085034 0.06651647
0.03842074 -0.0742057 -0.029636486 0.111373834 -0.029410314 -0.011602067 -0.04265144 -0.00077628833
-0.057625964 -0.026602635 -0.036087837 -0.034770403 0.0897317 0.016121704 -0.059519153 -0.03032448
-0.0343242 -0.03339573 -0.031763427 0.26290163 0.12681162 0.12164611 -0.006162146 -0.035057284
-0.06257371 -0.0109480815 0.01383056 -0.053070795 -0.04279322 -0.031162823 0.11921541 -0.022942241
-0.031916138 0.021341013 -0.060564976 -0.013161623 -0.012365806 -0.053279415 0.12887779 0.08012145
-0.0795056 -0.04066876 -0.047060974 -0.034737285 -0.032404643 -0.038285878 -0.05275575 0.03879341
-0.016789412 -0.040223274 0.010457166 0.014119339 0.043365274 -0.06257333 -0.045769855 -0.03053116
-0.014933905 0.03993634 -0.010722449 -0.034351185 -0.06080791 -0.029773224 -0.01874961 -0.030016057
0.05994509 -0.21987635 -0.01033048 -0.072195396 0.039585676 0.03909615 -0.022858424 -0.015578142
-0.029614095 -0.059222545 -0.046664316 -0.033176478 0.038044047 0.03026072 0.071952485 0.040229287
0.017876226 -0.019993268 -0.021675698 -0.036474258 0.047425315 -0.042715196 -0.08674588 -0.0149188405
0.07054339 -0.023338608 0.0019088441 0.0035422263 -0.010988708 0.02518043 0.03727394 -0.071120635
-0.06437175 -0.013002944 -0.039569713 0.043437596 0.020324428 -0.07082648 0.0070004575 0.034521844
0.1657811 -0.015288742 0.031483527 -0.09098146 -0.03440774 0.04462421 -0.033502724 0.062059328
0.03650187 0.05977806 0.04474769 0.096316874 -0.07374929 -0.11402732 -0.04933052 0.04011196
-0.0473364 -0.003288837 -0.026161792 0.027592683 0.25439999 -0.06456264 -0.030377045 0.016055534
0.1546202 -0.11198551 0.045887 0.114645705 0.052503426 0.017391458 0.070490725 0.116380915
0.08610518 0.12048379 0.06526327 0.0722333 0.15164009 0.07514417 0.11360745 0.1093377
0.115927756 0.115121834 0.0950156 0.08672636 0.0923393 0.1431217 0.09121509 0.056261633
0.15916233 0.114382915 0.025910296 0.039652552 0.08223373 0.059631024 0.14939225 0.10655145
0.11588921 0.023138253 0.025539761 0.08100834 0.12639064 0.05960252 0.20932984 0.15027244
-0.04761117 0.11147352 0.05982466 0.08179048 0.107406944 0.07558232 0.11070844 0.025694171
0.021346051 0.13860638 0.13362758 0.121761814 0.04510564 -0.03927495 0.0626675 0.06421925
0.097284995 0.09315199 0.091884494 0.09221198 -0.10819155 0.13921905 0.104206614 0.07746868
00000000: 08ab 143e f9b6 c9bd 681a 143d efbf cfbd
00000010: 76ab 2a3d 2b97 493c 6f80 953d 4a30 e83d
00000020: 41be d63d 57ad d03d 17c6 5a3d 6ae3 7b3d
00000030: 76bc 373e e910 b13d 904c 223e 4575 b63d
00000040: 0da8 c53d ff09 cc3d 467e a93d 8e4c 613e
00000050: f156 d13d 83b0 033e 0093 d63d 851b 813d
00000060: 97fd fcbb f5be e63d 4dba dc3c fb5b 3b3d
00000070: 5735 9a3d 487d 4d3d 1f99 153e 4dea b53d
00000080: a21d cc3d 8f9b d33c 8450 f03c 8f7b 9d3d
00000090: 5af6 ac3d 1311 763d 278b 81bd 9865 a73d
000000a0: cf8f 0cbd 6af6 e63d 2838 673d 6fd3 933d
000000b0: 746e be3d cfa4 803d bf91 e63d 266e d03c
000000c0: f0db 833c 17d5 f53d 614f f23d e231 e03d
000000d0: 3347 473d 0b49 46bc dbca 7b3d ecaa 413d
000000e0: c523 c93d 0042 a83d ca92 b63d 721c a23d
000000f0: c57a 90bd 1966 003e 3bc8 c43d c939 883d
00000100: 115f 1d3d 28f9 97bd 37c8 f2bc f717 e43d
00000110: e6ed f0bc 9916 3ebc 47b3 2ebd d47f 4bba
00000120: 3409 6cbd c5ed d9bc d7d0 13bd 696b 0ebd
00000130: 41c5 b73d aa11 843c 5bca 73bd 0b6b f8bc
00000140: 8897 0cbd f6c9 08bd 5e1a 02bd 0b9b 863e
00000150: e8da 013e 9921 f93d d4eb c9bb 3a98 0fbd
00000160: a526 80bd 955f 33bc 9399 623c c360 59bd
00000170: f247 2fbd 2d49 ffbc 3527 f43d 5ef1 bbbc
00000180: 7fba 02bd 59d3 ae3c fb12 78bd d9a3 57bc
00000190: f399 4abc 843b 5abd 8af8 033e b716 a43d
000001a0: d5d3 a2bd 4994 26bd 02c3 40bd af48 0ebd
000001b0: bbba 04bd a7d1 1cbd 6a16 58bd d7e5 1e3d
000001c0: f389 89bc 29c1 24bd 8854 2b3c cd54 673c
000001d0: c99f 313d 7226 80bd 2c79 3bbd 7c1c fabc
000001e0: 56ad 74bc 4a94 233d 36ad 2fbc d4b3 0cbd
000001f0: b711 79bd fae6 f3bc c898 99bc 3ce4 f5bc
00000200: fc88 753d 4427 61be 2c41 29bc 2edb 93bd
00000210: 9724 223d 4923 203d 9741 bbbc 773b 7fbc
00000220: 4299 f2bc 5793 72bd 1523 3fbd 0fe4 07bd
00000230: 13d4 1b3d 54e5 f73c d35b 933d 77c7 243d
00000240: 2a71 923c ecc8 a3bc 3c91 b1bc 0866 15bd
00000250: 0c41 423d 21f6 2ebd d3a7 b1bd 276e 74bc
00000260: 0e79 903d 9c30 bfbc 2e32 fa3a b224 683b
00000270: fb09 34bc 3047 ce3c 8fac 183d b2a7 91bd
00000280: 56d5 83bd 4d0a 55bc da13 22bd 9feb 313d
00000290: 6a7f a63c 790d 91bd 1864 e53b c766 0d3d
000002a0: 85c2 293e a27d 7abc dff4 003d 7d54 babd
000002b0: 21ef 0cbd e0c7 363d 273a 09bd ec31 7e3d
000002c0: fc82 153d d7d9 743d 5b49 373d c841 c53d
000002d0: de09 97bd 2887 e9bd cd0e 4abd 704c 243d
000002e0: d0e3 41bd 8789 57bb 4151 d6bc 0d0a e23c
000002f0: b740 823e 6b39 84bd 48d9 f8bc e586 833c
00000300: c254 1e3e a958 e5bd 02f4 3b3d 5ecb ea3d
00000310: d50d 573d 8878 8e3c 715d 903d 1e59 ee3d
00000320: ea57 b03d 35c0 f63d c0a8 853d 0def 933d
00000330: 8a47 1b3e 30e5 993d 06ab e83d 72ec df3d
00000340: 886b ed3d ffc4 eb3d 8a97 c23d 979d b13d
00000350: 631c bd3d 7f8e 123e face ba3d 9972 663d
00000360: 73fb 223e 9741 ea3d d441 d43c b76a 223d
00000370: 286a a83d a93f 743d 48fa 183e a637 da3d
00000380: 5257 ed3d 6f8c bd3c c338 d13c b3e7 a53d
00000390: 8c6c 013e c621 743d 905a 563e 05e1 193e
000003a0: ee03 43bd 3b4c e43d b40a 753d c481 a73d
000003b0: 2cf8 db3d e7ca 9a3d 1bbb e23d 957c d23c
000003c0: eadd ae3c d5ee 0d3e abd5 083e 425e f93d
000003d0: b1c0 383d c5de 20bd d157 803d 6285 833d
000003e0: 5b3d c73d 78c6 be3d f02d bc3d a2d9 bc3d
000003f0: 8893 ddbd 708f 0e3e 476a d53d e6a7 9e3d

pre_model.lstm.weight_ih_l1 f4 [256, 64]
-2.9391693e-05 0.0004898091 -0.00019219267 -9.3943505e-05 -9.60733e-05 1.6092112e-05 -0.00032544712 -0.0001621884
0.00066146516 -0.0002674391 1.3944447e-05 2.9304703e-05 0.0010039915 -0.0006116771 6.241015e-05 -0.00011723936
-6.0567545e-05 6.6658984e-05 0.00024823856 -0.0027119191 0.00031110967 -0.0008236723 -0.00049845397 -0.00017757028
-5.1751093e-05 -2.5874231e-05 0.00029456505 0.00017784938 0.00034101366 -6.1134386e-05 0.0017117087 0.000113098264
-5.208828e-05 -0.0009928317 -0.00020172787 0.000107856875 -0.00021901279 -0.0001577973 -0.00012773962 0.0009640248
0.00067310437 -6.662541e-05 0.00057530595 -8.6315915e-05 -0.00044517417 0.00013481561 0.0006276398 -0.000950181
-0.00019984294 -0.0010659489 -0.00013626127 0.00020181068 0.0003155559 -0.0004703531 2.743257e-05 -2.9513552e-05
-4.7695357e-05 0.00086068304 -7.790096e-05 2.6303444e-05 -0.00049747305 7.836943e-06 0.00015241912 6.8528585e-05
0.07709027 -0.0614996 0.015640134 -0.15416978 0.02799003 0.008400809 -0.0480744 -0.03340875
0.015066438 -0.067047134 0.003520581 -0.011008107 -0.003957721 0.04519415 -0.0067384294 0.054792885
-0.06635584 0.014676447 0.10453231 -0.04276379 0.08117656 0.04898509 -0.07985817 -0.013192596
0.15257747 -0.026499964 -0.03430559 0.036715854 -0.02412035 -0.010837464 0.11016161 0.0078098574
-0.07816381 0.09110766 -0.036213547 0.049254093 0.016985651 -0.07204172 -0.03252241 -0.017597672
0.056017853 -0.018777907 0.03861462 0.005382831 0.012955942 0.0060087196 0.04330325 0.07450818
-0.045346342 -0.03569627 -0.015152369 0.023299843 -0.009390443 -0.022086663 0.04746179 -0.0031039522
-0.007924507 -0.06448904 -0.046626817 0.0020099254 0.04744613 0.033051524 0.009715493 -0.02386183
-0.0014708745 0.0024391124 0.00045665415 0.000608694 -0.00021401132 -6.795667e-05 -0.00052412535 -0.0003583174
-0.0015577177 -0.00012212367 -0.00029391772 -0.00010413657 0.00027720936 -0.0002493058 0.001682969 -0.0003253963
0.00051778846 -0.00085125247 0.00013003973 -0.004445043 1.5650057e-05 -0.0021599245 -0.0024876827 0.00039344755
-0.0008448086 0.00035905375 0.0019625279 0.00023199401 0.0013730618 0.00028020586 0.0025168299 -8.022397e-05
-0.00037555394 -0.0032321787 -0.0007984453 -0.00052735046 -0.00016468704 -0.00035657157 -0.00040231636 0.0020751925
-0.000314677 6.2178337e-06 0.0011979846 -0.00027497395 0.00035877083 -0.0008712592 -0.0012319513 -0.003563024
0.00016672506 0.00023097731 0.0005123835 -0.0011927638 0.0010293982 -0.0001220881 0.0005817707 -0.00043415086
-0.001456241 0.0008992713 -0.00089365046 0.00049207057 -0.0029531822 0.00038255498 -0.00072622707 0.00074997725
0.013210379 -0.030286528 0.009586099 -0.003298465 0.007551652 -0.007690341 0.0058726585 0.0010869708
0.02565504 0.004097229 -0.009084613 0.009265325 -0.013606373 -0.010498168 -0.027802527 -0.013215971
0.0028821037 -0.012436791 -0.0016216892 -0.00056058244 0.0064210505 -0.008195529 0.023109999 -0.010682012
-0.03911894 0.0070023676 0.008606416 -0.0030476116 -0.014223417 0.008697572 0.0033848425 0.0065112584
0.0010824455 0.0122642685 0.0015812678 0.0026770842 -0.0069614705 0.004150102 -0.00044617458 -0.019448321
0.0049606157 0.012067045 -0.0016052709 -0.011159635 -0.009321185 0.01024661 0.020027079 0.017581379
0.009077132 -0.031473394 -0.013533942 0.0075692832 0.009184301 -0.006516922 0.0005276315 0.012920323
0.0066807047 0.012718446 0.0069096186 -0.014496249 0.029985758 -0.008407423 0.013720906 -0.0074788583
00000000: 2e8e f6b7 8866 003a 5487 49b9 8903 c5b8
00000010: f67a c9b8 8cfd 8637 c6a0 aab9 1e11 2ab9
00000020: 2d66 2d3a 1237 8cb9 f2f2 6937 5fd3 f537
00000030: 5d98 833a f558 20ba 32e2 8238 67de f5b8
00000040: e809 7eb8 45cb 8b38 0426 8239 74ba 31bb
00000050: 6f1c a339 b6eb 57ba aeaa 02ba 2932 3ab9
00000060: 500f 59b8 7d0c d9b7 da6f 9a39 147d 3a39
00000070: 14ca b239 4635 80b8 6a5b e03a 2b2f ed38
00000080: 5d79 5ab8 e721 82ba ea86 53b9 3831 e238
00000090: cca6 65b9 6476 25b9 d8f1 05b9 9cb6 7c3a
000000a0: 4573 303a 3fb9 8bb8 21d0 163a 8104 b5b8
000000b0: 4466 e9b9 4a5d 0d39 3288 243a 9115 79ba
000000c0: ee8c 51b9 4fb7 8bba 5be1 0eb9 249d 5339
000000d0: 3271 a539 b999 f6b9 ff1e e637 df93 f7b7
000000e0: 800c 48b8 769f 613a c25e a3b8 37a6 dc37
000000f0: da68 02ba 6a7b 0337 b2d2 1f39 01b7 8f38
00000100: 81e1 9d3d 01e7 7bbd bd1f 803c afde 1dbe
00000110: 594b e53c 8ca3 093c a9e9 44bd 9dd7 08bd
00000120: 39d9 763c 0250 89bd 8cb9 663b 595b 34bc
00000130: c5af 81bb 801d 393d 0bce dcbb 816e 603d
00000140: 92e5 87bd 7b75 703c 0915 d63d 1529 2fbd
00000150: e53f a63d 97a4 483d ae8c a3bd c225 58bc
00000160: 453d 1c3e 7416 d9bc 0584 0cbd 5d63 163d
00000170: 0a98 c5bc 9e8f 31bc 699c e13d d5e9 ff3b
00000180: 5914 a0bd a796 ba3d a854 14bd a9be 493d
00000190: 7e25 8b3c 9c8a 93bd 3836 05bd fe28 90bc
000001a0: fa72 653d 20d4 99bc 5d2a 1e3d 7662 b03b
000001b0: 2945 543c cbe4 c43b c05e 313d bf97 983d
000001c0: 16bd 39bd 4136 12bd a441 78bc 50df be3c
000001d0: 5fda 19bc 17ef b4bc 4b67 423d ad6b 4bbb
000001e0: cbd5 01bc d412 84bd c3fb 3ebd f4b8 033b
000001f0: e056 423d 0961 073d bb2d 1f3c e279 c3bc
00000200: 5cca c0ba 84d9 1f3b 156b ef39 c390 1f3a
00000210: 3a68 60b9 f683 8eb8 7565 09ba 8cdc bbb9
00000220: 552c ccba 530e 00b9 f818 9ab9 e563 dab8
00000230: 6956 9139 42b5 82b9 1297 dc3a f499 aab9
00000240: 32bc 073a 9626 5fba 465b 0839 b9a7 91bb
00000250: 3e48 8337 858d 0dbb 6408 23bb a347 ce39
00000260: 2576 5dba 613f bc39 c19d 003b 6b43 7339
00000270: 4ff8 b33a 98e8 9239 66f1 243b ea3d a8b8
00000280: ffe5 c4b9 f6d2 53bb c24e 51ba e43d 0aba
00000290: d7af 2cb9 3af2 bab9 fded d2b9 f4ff 073b
000002a0: 3bfb a4b9 c9a2 d036 b105 9d3a 612a 90b9
000002b0: 6819 bc39 3765 64ba 6d79 a1ba a081 69bb
000002c0: ebd2 2e39 8032 7239 7a51 063a 8356 9cba
000002d0: dfec 863a c604 00b9 f981 183a be9e e3b9
000002e0: 57df beba 13bd 6b3a de43 6aba 4cfe 003a
000002f0: 2d8a 41bb a991 c839 4660 3eba 1f9a 443a
00000300: 5870 583c 741b f8bc 030f 1d3c 0f2b 58bb
00000310: d973 f73b 42ff fbbb 6e6f c03b b078 8e3a
00000320: 852a d23c 0c42 863b a1d7 14bc 97cd 173c
00000330: 44ed 5ebc 8200 2cbc 20c2 e3bc cd87 58bc
00000340: ade1 3c3b afc3 4bbc dc8e d4ba 0df4 12ba
00000350: ad67 d23b 8a46 06bc 2e51 bd3c 9b03 2fbc
00000360: 2e3b 20bd 1e74 e53b ed01 0d3c 70ba 47bb
00000370: 5609 69bc 4380 0e3c 3cd4 5d3b 655c d53b
00000380: d8e0 8d3a 12f0 483c 8b42 cf3a 0572 2f3b
00000390: 0c1d e4bb 94fd 873b 8aec e9b9 1652 9fbc
000003a0: a98c a23b dbb4 453c f467 d2ba e7d6 36bc
000003b0: e2b7 18bc 66e1 273c d40f a43c d306 903c
000003c0: 40b8 143c 3fea 00bd 78bd 5dbc c007 f83b
000003d0: c079 163c e78b d5bb c050 0a3a c3af 533c
000003e0: d0e9 da3b 0761 503c 156a e23b ad81 6dbc
000003f0: b1a4 f53c 4abf 09bc a7cd 603c 3611 f5bb

pre_model.lstm.weight_hh_l1 f4 [256, 64]
-2.9809704e-05 9.9270546e-05 -1.7561018e-05 -6.546271e-05 -0.00014733312 -4.8283055e-05 -3.104901e-05 0.00011118809
1.4536545e-06 -0.00024104386 -0.0002149775 2.52381e-06 -2.5005975e-05 5.6299166e-05 0.00058865757 0.00042977187
-6.314895e-05 3.524726e-05 -0.0002734543 -4.4051172e-05 2.6219983e-05 -0.00018964488 0.00016169516 -0.00013314684
-0.00010661139 0.00032089182 0.0001860376 -0.00027131746 -7.196921e-05 6.449221e-05 -0.00048316928 -0.0003165683
6.0881513e-05 -0.00052112574 9.476052e-05 -2.610876e-05 0.0001437841 0.0011958535 -1.4296697e-05 5.744276e-05
3.648285e-05 0.00017996432 -0.00013108035 8.889739e-05 6.97939e-05 -6.182635e-06 -6.224707e-05 0.00029319111
-0.00047623218 2.736741e-05 7.8278834e-05 -7.131257e-06 0.00021272583 -1.7231107e-05 -3.5784775e-05 5.5756114e-05
0.000115762596 7.581766e-05 9.848422e-05 -2.8149852e-05 0.00020217332 1.3488326e-06 0.0001139951 -0.00016265073
-0.0045320233 -0.011681001 0.0025351685 -0.019823946 0.019626196 -0.00854185 -0.0004536611 -0.0025716631
-0.010699371 -0.071802735 -0.097883426 -0.00059325376 -0.0016201116 0.000117602314 0.034597684 -0.00085434254
0.024768941 0.010214264 6.855727e-05 -0.0034041354 -0.009014648 0.010586654 0.010075825 -0.010437596
-0.004674027 0.042807084 -0.035907216 0.000702588 0.0047052326 0.019477917 -0.04474815 0.06764403
-0.0059708594 0.08555121 0.0027020208 -0.013396752 0.00043399705 0.018075388 -0.003651262 -0.0025349658
0.0012956822 -0.06821726 0.0048471224 0.019004183 -0.030713316 -0.0016413715 0.02925674 0.002548607
-0.007417853 0.0039094314 -0.02450473 -0.020545352 0.032158803 0.0021491125 -0.023074698 0.0035461748
-0.026862282 -0.004223056 -0.009410774 -0.0046170256 -0.008989778 -0.036319472 -0.0039648297 -0.01054871
8.2534534e-05 0.0008278843 -0.00012453774 0.00046519245 0.000173104 -6.6446875e-05 -0.00016065656 9.834862e-05
7.57727e-05 -0.001294592 -0.0006204933 -0.00037588968 0.00044030527 0.00016423126 -0.00048058157 0.0006065703
-0.00043201714 0.00017830364 0.00028218233 -0.00012214678 -4.947853e-05 -0.00048617183 -0.00060160557 -0.00019501174
-6.1031545e-07 -0.0007731089 0.00024506167 0.0014280176 0.000162512 -0.0011126503 -0.0005109544 -0.0005994877
0.00015772927 -0.0021459716 0.00026743909 0.0002099725 -0.00075309386 -0.00094590127 -0.00012549073 -0.0004713435
1.1811044e-05 -0.0014998738 -2.879507e-05 -6.133273e-05 -0.00012766823 -0.0002642124 -0.0007311165 0.00036483156
-0.0019055987 0.00035586028 -0.00017661304 0.0008407054 0.00089114835 3.8629005e-05 7.226154e-05 6.099731e-05
0.00018829566 5.4011743e-05 0.00028259348 0.00036059585 -0.00021067781 0.0005951483 -7.005091e-05 0.0002009077
0.0009752119 -0.008716331 -0.00024843268 0.009669202 -0.00095267105 0.0010041832 -0.00087552116 -0.0024481362
3.429568e-05 -0.0020493015 -0.013719023 -0.003433689 0.0007125486 -0.0013547363 0.012533147 0.0016789294
-0.0013179671 0.00018062716 -0.0018399615 0.0001800786 -0.0022730932 0.00013545684 -0.0036876628 0.0007276802
0.00074235525 0.0101858135 0.006345588 -0.0025621047 0.0016264427 0.010812062 0.002861679 0.0037606098
-0.00094847736 0.016585294 -7.265974e-05 -0.00048235088 -0.034070738 0.0061453413 -0.0012228 -0.004341638
-0.0022450709 -0.0053543225 -0.00028875962 -0.0021917853 -0.0034067698 0.0018564797 -0.006550592 0.009654413
0.0064531513 -0.00092227076 -0.0008943704 -0.0025920977 -0.006854937 -0.00131009 0.00028514356 -0.00071397703
-0.0025512103 0.00032887465 -0.0029988482 0.00064561976 -0.0008212658 -0.00016482409 -0.0020972574 0.0020927235
00000000: da0f fab7 782f d038 0050 93b7 0649 89b8
00000010: 6f7d 1ab9 8983 4ab8 9f3a 02b8 a72d e938
00000020: 301b c335 b8c0 7cb9 956b 61b9 ba5e 2936
00000030: ecc3 d1b7 c522 6c38 2450 1a3a 0153 e139
00000040: d66e 84b8 75d6 1338 6a5e 8fb9 96c3 38b8
00000050: fcf2 db37 69db 46b9 b78c 2939 559d 0bb9
00000060: 8e94 dfb8 5f3d a839 1713 4339 9d3f 8eb9
00000070: 2dee 96b8 fe3f 8738 e251 fdb9 14f9 a5b9
00000080: 075b 7f38 289c 08ba 2bba c638 2304 dbb7
00000090: c0c4 1639 2fbe 9c3a d9db 6fb7 b2ee 7038
000000a0: 2905 1938 ceb4 3c39 9d72 09b9 6c6e ba38
000000b0: 515e 9238 6e74 cfb6 a48a 82b8 72b7 9939
000000c0: cdae f9b9 1193 e537 a129 a438 0849 efb6
000000d0: 280f 5f39 858b 90b7 9c17 16b8 acdb 6938
000000e0: 92c5 f238 4c00 9f38 5089 ce38 5923 ecb7
000000f0: 7dfe 5339 8909 b535 a710 ef38 398d 2ab9
00000100: 5e81 94bb ab61 3fbc 1225 263b d465 a2bc
00000110: 1ec7 a03c 1ef3 0bbc 5dd9 edb9 5989 28bb
00000120: 6a4c 2fbc 500d 93bd 1b77 c8bd 9684 1bba
00000130: ed59 d4ba 43a1 f638 4db6 0d3d f5f5 5fba
00000140: 3ce8 ca3c ba59 273c 67c6 8f38 ea17 5fbb
00000150: 2db2 13bc a573 2d3c 1315 253c 7302 2bbc
00000160: 9528 99bb 7b56 2f3d 7213 13bd e22d 383a
00000170: 5a2e 9a3b 2790 9f3c d649 37bd f488 8a3d
00000180: 33a7 c3bb 7935 af3d 6314 313b 0d7e 5bbc
00000190: 198a e339 d612 943c 034a 6fbb ab21 26bb
000001a0: e1d3 a93a 7eb5 8bbd 9cd4 9e3b a9ae 9b3c
000001b0: 7e9a fbbc 4a23 d7ba d5ab ef3c 8806 273b
000001c0: 7611 f3bb b01a 803b 25be c8bc ba4e a8bc
000001d0: f3b8 033d 20d8 0c3b 2607 bdbc f166 683b
000001e0: 4a0e dcbc 9061 8abb a62f 1abc 6b4a 97bb
000001f0: dd49 13bc bac3 14bd 67eb 81bb 7fd4 2cbc
00000200: 6416 ad38 6006 593a 5896 02b9 13e5 f339
00000210: 4083 3539 6559 8bb8 eb75 28b9 8340 ce38
00000220: 29e8 9e38 4daf a9ba 9aa8 22ba 0f13 c5b9
00000230: c6d8 e639 7e35 2c39 91f6 fbb9 3e02 1f3a
00000240: 5c80 e2b9 05f7 3a39 dff1 9339 8714 00b9
00000250: 2b87 4fb8 e1e4 feb9 11b5 1dba 117c 4cb9
00000260: 8fd4 23b5 76aa 4aba 9f7b 8039 522c bb3a
00000270: fc67 2a39 59d6 91ba 92f1 05ba f026 1dba
00000280: 2164 2539 6ea3 0cbb 1137 8c39 102c 5c39
00000290: 466b 45ba 5cf6 77ba 2996 03b9 a71e f7b9
000002a0: 0c28 4637 6a97 c4ba f18c f1b7 c29f 80b8
000002b0: aede 05b9 fd85 8ab9 66a8 3fba dd46 bf39
000002c0: 48c5 f9ba c292 ba39 3431 39b9 c962 5c3a
000002d0: f49b 693a 9405 2238 1e8b 9738 5dd7 7f38
000002e0: 3b71 4539 ab8a 6238 0e29 9439 5b0e bd39
000002f0: 65e9 5cb9 ba03 1c3a 4ce8 92b8 c0aa 5239
00000300: 5da5 7f3a f1ce 0ebc 1240 82b9 936b 1e3c
00000310: acbc 79ba cc9e 833a 3b83 65ba e970 20bb
00000320: b5d8 0f38 934d 06bb c1c5 60bc be07 61bb
00000330: 54ca 3a3a 6891 b1ba d457 4d3c 860f dc3a
00000340: a3bf acba bc66 3d39 dd2a f1ba 7bd3 3c39
00000350: 2df8 14bb 6b09 0e39 b7ac 71bb cbc1 3e3a
00000360: 9e9a 423a 66e2 263c a6ee cf3b fce8 27bb
00000370: 5c2e d53a 1325 313c 028b 3b3b 9074 763b
00000380: 3da3 78ba e2dd 873c e760 98b8 0ae4 fcb9
00000390: c28d 0bbd dc5e c93b 5c46 a0ba 4d44 8ebb
000003a0: 0a22 13bb 5073 afbb a964 97b9 0ea4 0fbb
000003b0: 1d44 5fbb 1f55 f33a 59a6 d6bb 8b2d 1e3c
000003c0: f574 d33b 8bc4 71ba 2e74 6aba 2fe0 29bb
000003d0: 619f e0bb 53b7 abba 527f 9539 302a 3bba
000003e0: 3532 27bb cf6c ac39 5388 44bb cf3e 293a
000003f0: 374a 57ba a1d4 2cb9 2472 09bb 1326 093b

pre_model.lstm.bias_ih_l1 f4 [256]
-0.008873208 -0.041728396 -0.0072565256 0.030745465 -0.025494577 -0.0032814213 -0.00807509 -0.0018201123
0.0031628315 0.029090611 0.02491734 -0.07914686 0.007203999 0.005664985 0.12325229 0.102777615
0.0052071 -0.0039529335 0.04477586 -0.0025925173 0.005279697 0.009107882 0.07198985 -0.0019052019
0.007100233 0.005270365 -0.034336627 0.097502775 0.0018823154 0.08885426 -0.005836652 0.0646463
0.0006708912 0.084132 0.0073366114 -0.009715305 0.1097066 0.021903418 -0.009858842 0.001096909
-0.0076938975 0.09878122 -0.008358632 0.014137144 0.03495273 -0.0059910403 0.111522116 0.24083036
-0.0019353081 0.03578848 0.005174463 0.034317672 -0.0014436675 -0.005723423 -0.0039359736 -0.0066630724
-0.007854907 -0.011631078 -0.0016487439 0.019309852 0.03027447 0.28332153 -0.0061003207 -0.025984468
-0.0077140504 0.25641254 -0.006396924 0.0889857 0.05155049 -0.0057847137 -0.0076348754 0.0075467997
0.00028839317 0.047859915 0.33046547 0.10315049 -0.0022977227 0.0036001294 0.05181163 0.13013166
0.005014291 -0.0029974887 0.09289842 -0.0029389826 -0.0014332598 -0.0009992656 -0.004466679 -0.0022071577
0.0026150094 0.13661012 0.15961075 0.056350376 0.0007610874 0.17353682 0.20847054 0.06765348
-0.0039496957 0.09373364 -0.0061306963 -0.0029612835 0.33112374 0.18628205 -0.00891835 0.2786077
-0.008219356 -0.16055746 -0.008661815 -0.004793789 -0.0034972609 -0.0061407913 0.12973279 0.2851759
0.11129597 0.106491655 -0.010738089 0.06671262 0.08556165 -0.004417353 -0.0045200917 -0.009439202
0.04732529 0.011958129 0.016653756 0.003149431 0.018683875 -0.24669613 0.014867686 0.005709879
0.0053501003 0.044955656 0.049291793 -0.0698518 0.0357423 0.0021333739 -0.033087637 -0.016994748
0.014783374 0.037852306 -0.014732926 0.116248935 -0.027871454 -0.06738793 -0.1277394 -0.005917595
0.022912959 0.029344957 -0.05729357 -0.036115475 -0.01212995 -0.00028588652 -0.047870025 -0.05789483
-0.010400604 0.04271778 -0.04145143 0.011485479 -0.015641294 -0.07141936 0.03955051 0.056593694
0.06550572 0.131974 -0.014744934 -0.044556573 -0.005090382 0.063300885 0.04966377 -0.08843873
0.024434041 0.0153068835 -0.0034570072 0.0015143437 -0.019035269 -0.0050938125 0.04619323 -0.05924614
0.019168818 -0.09358514 -0.05549533 -0.0364715 0.043652475 -0.019967932 0.016525356 0.0024761695
0.072338834 -0.045052815 0.004838491 0.009648329 -0.057840593 0.065624975 -0.038272507 0.061134443
-0.008704035 0.01933794 -0.0073001473 0.029732889 -0.018323308 -0.0033127146 -0.008056218 -0.0026056615
0.0031744663 0.024596635 0.042138588 0.024205528 0.007244493 0.005666267 0.019264728 0.09872365
0.0053056534 -0.0039575263 0.045706294 -0.0026204048 0.0053554615 0.009151694 0.07253109 -0.0019294034
0.0071773147 0.0024146514 0.03852648 0.09375137 0.0018756159 0.12794171 -0.016448 0.06643607
0.00066470966 0.09521183 0.0072158584 -0.010030017 0.24726911 0.061698295 -0.009841212 0.20435096
-0.0077114888 0.0849155 -0.008348976 0.014167676 0.035334896 -0.0060017775 0.12060879 -0.023684505
0.010043961 0.033585876 0.008432419 0.035314668 -0.05718299 -0.005727668 -0.0039275098 -0.0066712424
-0.009725931 -0.011239947 -0.005842273 0.019580318 0.030206984 0.29980138 -0.005574709 -0.009463182
00000000: ef60 11bc 65eb 2abd 26c8 edbb eadd fb3c
00000010: 01da d0bc 1d0d 57bb 624d 04bc d690 eeba
00000020: 8247 4f3b 6f4f ee3c 731f cc3c c017 a2bd
00000030: 860f ec3b 57a1 b93b b26b fc3d 127d d23d
00000040: 52a0 aa3b 9c87 81bb e466 373d 39e7 29bb
00000050: 4f01 ad3b 3a39 153c 6a6f 933d f8b7 f9ba
00000060: 12a9 e83b 07b3 ac3b 90a4 0cbd 89af c73d
00000070: 06b8 f63a 39f9 b53d 6341 bfbb 4865 843d
00000080: bfde 2f3a 664d ac3d f567 f03b f12c 1fbc
00000090: dbad e03d cc6e b33c fb86 21bc 29c6 8f3a
000000a0: 171d fcbb cf4d ca3d a5f2 08bc 7b9f 673c
000000b0: 982a 0f3d 7d50 c4bb b565 e43d 3c9c 763e
000000c0: 2aaa fdba f196 123d 8b8e a93b b090 0c3d
000000d0: 7139 bdba 8d8b bbbb 57f9 80bb e755 dabb
000000e0: deb1 00bc 4790 3ebc aa1a d8ba b22f 9e3c
000000f0: 2a02 f83c 850f 913e 33e5 c7bb 61dd d4bc
00000100: 25c6 fcbb 8148 833e 4a9d d1bb 223e b63d
00000110: 9b26 533d b28d bdbb fa2d fabb 254b f73b
00000120: 7a33 9739 c208 443d c532 a93e 9040 d33d
00000130: 6495 16bb 26f0 6b3b 6f38 543d 3c41 053e
00000140: ec4e a43b 8471 44bb 8741 be3d f29b 40bb
00000150: 38dc bbba caf9 82ba 385d 92bb f6a5 10bb
00000160: 9460 2b3b 86e3 0b3e 0071 233e a7cf 663d
00000170: b683 473a a3b3 313e 4d79 553e e88d 8a3d
00000180: 736c 81bb 6cf7 bf3d 02e4 c8bb 1812 42bb
00000190: 0d89 a93e b9c0 3e3e 451e 12bc aba5 8e3e
000001a0: 7aaa 06bc 2d69 24be 49ea 0dbc 3715 9dbb
000001b0: 4d32 65bb b138 c9bb acd8 043e 9302 923e
000001c0: 24ef e33d 4c18 da3d cfee 2fbc a0a0 883d
000001d0: f23a af3d 71bf 90bb 471d 94bb e2a6 1abc
000001e0: 2ad8 413d 07ec 433c 756d 883c af66 4e3b
000001f0: ed0e 993c e99d 7cbe 9897 733c f019 bb3b
00000200: e54f af3b 6c23 383d 31e6 493d 760e 8fbd
00000210: 8566 123d 13d0 0b3b e786 07bd 9238 8bbc
00000220: f735 723c 050b 1b3d 5f62 71bc ec13 ee3d
00000230: ad52 e4bc af02 8abd 1ece 02be 62e8 c1bb
00000240: f5b3 bb3c d664 f03c aaac 6abd d2ed 13bd
00000250: b3bc 46bc 0ae3 95b9 5c13 44bd 2123 6dbd
00000260: 4c67 2abc d7f8 2e3d fac8 29bd 972d 3c3c
00000270: 2c22 80bc 5044 92bd b7ff 213d cace 673d
00000280: dd27 863d 3124 073e bc94 71bc f480 36bd
00000290: 38cd a6bb e5a3 813d 3d6c 4b3d 5d1f b5bd
000002a0: e629 c83c b9c9 7a3c f58e 62bb f17c c63a
000002b0: daef 9bbc ffe9 a6bb 1d35 3d3d 15ac 72bd
000002c0: ed07 9d3c 91a9 bfbd 124f 63bd 2463 15bd
000002d0: f0cc 323d ca93 a3bc 2f60 873c 3b47 223b
000002e0: 6226 943d 4d89 38bd 348c 9e3b 0614 1e3c
000002f0: 42ea 6cbd 6366 863d a2c3 1cbd 1c68 7a3d
00000300: 5e9b 0ebc 996a 9e3c 1336 efbb 6392 f33c
00000310: c31a 96bc 211a 59bb 3afe 03bc bfc3 2abb
00000320: b50a 503b e27e c93c 8399 2c3d ac4a c63c
00000330: 3663 ed3b 18ac b93b 10d1 9d3c a02f ca3d
00000340: 0cdb ad3b 23ae 81bb 8636 3b3d 19bb 2bbb
00000350: de7c af3b fdf0 153c 2e8b 943d 09e4 fcba
00000360: ae2f eb3b 213f 1e3b f1cd 1d3d b800 c03d
00000370: 3ad7 f53a 2703 033e f5bd 86bc a20f 883d
00000380: e93f 2e3a 6cfe c23d 0273 ec3b f154 24bc
00000390: 1d34 7d3e 5ab7 7c3d 093d 21bc 6141 513e
000003a0: a8b0 fcbb 2de8 ad3d 25ca 08bc 8a1f 683c
000003b0: 53bb 103d 8faa c4bb be01 f73d 0206 c2bc
000003c0: 6d8f 243c 5891 093d 2128 0a3c 1da6 103d
000003d0: b638 6abd 29af bbbb 57b2 80bb 709a dabb
000003e0: 8359 1fbc c127 38bc 8a70 bfbb e766 a03c
000003f0: a374 f73c 917f 993e 0cac b6bb 760b 1bbc
