experiments/lstm/final_model_s7.pt (torch, 408006 bytes, 33 tensors)

pre_model.start_conv.weight f4 [32, 2, 1, 1]
000000 46 33 55 bd 76 f3 09 bf 7a c9 84 3e 34 9f e2 3e
       -0.05205085 -0.53887117 0.25934964 0.44262087
000010 f2 b6 ce be a7 21 d2 bc 95 42 cd be 9c 6c 9b 3e
       -0.4037395 -0.025650812 -0.4008986 0.303563
000020 d2 93 bc bd 10 17 16 3f 28 28 0c 3f e4 d1 b1 3d
       -0.09207882 0.5862894 0.54748774 0.086826116
000030 3b d4 a6 be 2c 96 27 bf 9f e7 1a be 22 c2 cc bd
       -0.32583794 -0.6546352 -0.15127419 -0.099979654
000040 c0 83 9a 3e 2f b4 48 bf d6 6f 22 3f 9c 3e 0c bf
       0.30178642 -0.7839994 0.634519 -0.54783034
000050 c1 b7 0e 3f 5e 85 03 be ef ae e1 3e 8d 18 3c 3e
       0.55749136 -0.12843844 0.44078776 0.1836874
000060 c7 9d 44 3d 47 f8 51 bd 5b 41 0f 3f 8b 43 10 3e
       0.04800203 -0.051262166 0.559591 0.14088266
000070 5f 5d c3 3e 82 99 23 bf f5 26 07 3f 9f 92 97 3e
       0.38157174 -0.6390611 0.5279382 0.2960405
000080 74 0b 8a 3e f1 52 11 3d da d9 c5 3e f4 df 4a 3f
       0.26961863 0.03547949 0.3864277 0.79247975
000090 26 7f 69 be 18 96 e9 be 8d 50 6d be 95 3f 2c bf
       -0.2280241 -0.45622325 -0.23175259 -0.6728452
0000a0 af db c8 3e 07 a1 fc bd 3d 87 ad be 8e 15 3d 3f
       0.39230105 -0.12335401 -0.3389224 0.73861015
0000b0 c4 a6 2b 3f 23 48 39 3d 40 84 6b bd 75 80 8d be
       0.6705134 0.04523481 -0.05749917 -0.27637067
0000c0 97 90 ae 3e 8c 96 3b bf 95 f9 0a bf 01 84 06 3f
       0.34094688 -0.7327659 -0.5428708 0.5254517
0000d0 d9 a5 36 3f 4e e8 04 3e bf 06 1b bf 5e ac 95 3c
       0.71346813 0.12979242 -0.6055717 0.018270668
0000e0 4d 29 a8 be 56 a1 05 be 5e dd a9 3e 60 c6 f4 3e
       -0.3284401 -0.13049826 0.33176702 0.47807598
0000f0 b5 ad 26 be a3 59 85 3e 3f fe 2b 3e ff 94 1a bf
       -0.16277201 0.2604495 0.16796206 -0.603836

pre_model.start_conv.bias f4 [32]
000000 04 fa af bd 0e d1 c8 3a 5e 74 ce be 5f f1 b9 be
       -0.085926086 0.0015321092 -0.40323156 -0.36316964
000010 65 c9 5b 3d d7 f4 d5 3e bd aa 8c 3d ac a6 82 be
       0.05365886 0.4178836 0.06868503 -0.25517786
000020 2a ab ef 3e 0c b3 9e be be 13 e6 bd 78 0a 26 3f
       0.46810275 -0.30995977 -0.11234234 0.64859724
000030 72 33 56 3d 0e 29 86 3d b2 40 a1 3e cc 4e 2a be
       0.052295156 0.06550799 0.3149467 -0.16631621
000040 bf b6 09 3f 80 71 1b bf 2d 69 48 be 2a f2 22 bd
       0.53794473 -0.6072006 -0.19571371 -0.039781727
000050 78 a5 5a be 4f f1 a2 be 7a c5 e7 3e 2c cb c0 3e
       -0.21352184 -0.3182473 0.4526785 0.37655008
000060 03 08 f7 3d f9 32 e7 3e 5f 5e ed be 66 8d ec be
       0.12062075 0.45156077 -0.46361062 -0.46201628
000070 45 34 81 3e 8c 18 92 bd 0f 94 15 bf ae 21 ac be
       0.2523519 -0.07133588 -0.58429044 -0.33619446

pre_model.lstm.weight_ih_l0 f4 [256, 32]
000000 13 08 3a bd 69 df c4 3c cf fc 72 bd 9c 37 08 bd
       -0.045417856 0.024032312 -0.05932313 -0.03325616
000010 9d 0c 38 3d 44 9c 82 3d 03 7c d0 bc 11 32 34 bd
       0.044933904 0.063774616 -0.025449758 -0.04399306
000020 1a 5b ad 3c f1 66 af bd a1 bd f7 bc f5 6c d9 3d
       0.021161605 -0.085645564 -0.03024179 0.10616485
000030 8e f0 86 3b 31 b2 56 3c 8c 66 b5 3b ef ab 4e bc
       0.004118032 0.013104008 0.005535906 -0.012614234
000040 7a 3c a8 3d 61 41 45 bd e4 de 61 bd c9 b0 34 bd
       0.0821466 -0.048158053 -0.055144206 -0.044113908
000050 fe e6 37 bd b0 1f cd b9 28 4c 86 3d 5a 0c 2d 3d
       -0.044898026 -0.00039124256 0.065574944 0.042248107
000060 f5 24 f2 bc 8b c7 d6 3d 87 4a 8b bd 59 3f 82 bd
       -0.029558638 0.104872786 -0.06801324 -0.06359739
000070 91 22 0e 3d f0 36 6a 3c 14 fd 94 bd 91 6c b7 bd
       0.034700934 0.014295325 -0.07274833 -0.08956254
000080 fe cb 6b 3c 09 aa b7 bb b2 f2 be bc 28 06 0c bd
       0.014391897 -0.0056049866 -0.023309086 -0.03418556
000090 ea aa b1 bc 4f 30 d8 3c 80 11 58 3c 63 cc 00 bc
       -0.021687943 0.026390223 0.013187766 -0.00786123
0000a0 f9 e9 51 3d fd 02 11 3d d0 cb b6 3c 6f 55 aa 3c
       0.051248524 0.03540324 0.022313982 0.020792691
0000b0 5e 43 a0 3b b7 ca 84 3c e8 86 38 3d e8 61 8e 3b
       0.0048908433 0.016209943 0.04505053 0.0043451674
0000c0 62 78 a2 3c 15 88 f2 bc e7 8d 64 3b 87 d4 64 3c
       0.019832794 -0.029605905 0.003487462 0.013966686
0000d0 69 2a 65 3c 84 95 40 bd 2c 59 ef 3c a2 c8 93 3c
       0.013987162 -0.04701759 0.029217325 0.018040005
0000e0 4e b7 28 3d a3 52 d5 bc 49 f0 41 3c 5d fa 00 bd
       0.041190438 -0.02604038 0.011837074 -0.031488765
0000f0 29 7a 99 ba 55 2a cb bb 0c c2 ec bc dd 95 93 3c
       -0.001170938 -0.0062001147 -0.028901123 0.018015796
000100 c3 23 e2 b9 64 97 3f 3b 3a 07 ea bc 7e 89 fd bc
       -0.00043132724 0.0029234523 -0.028567899 -0.03094935
000110 a1 65 ac bb 74 f5 ed 3c 99 ef b7 3a 25 90 75 bc
       -0.0052611385 0.029047705 0.0014033198 -0.01498798
000120 05 05 1d 3d 1b 3a 40 3c a5 58 47 3c ae 44 02 3d
       0.038334865 0.011732603 0.012167131 0.03180378
000130 a3 1d 88 3b 9c af 84 3c 57 b7 02 3d 39 e1 7c 3b
       0.0041539236 0.016197018 0.031913128 0.0038586392
000140 0e b8 f5 3c c4 92 d0 bc 45 f2 1d bc b7 f7 76 ba
       0.02999499 -0.025460608 -0.009640281 -0.00094210677
000150 0f fa 3b 3b 99 fe 01 bd 9b fa 0b 3d 08 4d 9c 3c
       0.0028682982 -0.031736944 0.034174543 0.0190797
000160 ea d5 b6 3c ee d8 2d bb 40 a5 c5 ba 84 e8 0a bd
       0.022318799 -0.0026527005 -0.0015079156 -0.03391315
000170 12 b0 73 3b 42 28 87 3a 8c 1f 0a bd 16 86 67 bb
       0.0037183804 0.001031168 -0.03372149 -0.0035327724
000180 4f 71 4f bc 43 26 09 3c bf 75 af bc c3 a6 79 bc
       -0.012661292 0.008370939 -0.02141845 -0.015237513
000190 a9 61 2b 3c a9 84 bd 3c 1f 20 01 bc 36 5b 7a bc
       0.010460296 0.023134546 -0.007881193 -0.015280535
0001a0 73 7c 5f 3c 56 eb 3e bc 41 d3 b1 bb bf fc 09 3d
       0.013640511 -0.011652788 -0.0054267948 0.033688303
0001b0 1d fa 0e 3b 44 73 e5 3b f9 e4 03 3c 4f c0 d6 ba
       0.002181656 0.007002266 0.008050197 -0.0016384217
0001c0 1d 09 db 3c c2 37 58 bc 21 ba 91 bc 83 40 5b bc
       0.026737744 -0.013196887 -0.017788948 -0.01338208
0001d0 53 1a 33 bc 71 ec dd bb 64 91 c3 3c e8 a6 55 3c
       -0.010931569 -0.006772571 0.023873039 0.013040282
0001e0 cf ac 45 bb 9f 05 dc 3c 5e 06 6e bc 45 89 c0 bc
       -0.0030162816 0.02685815 -0.014527885 -0.023502955
0001f0 9e 4e 09 3c 7f c2 ac 3b e8 62 c4 bc 30 0a b9 bc
       0.00838056 0.005272209 -0.023972943 -0.022587866
000200 a5 9c 6c bd f3 ef e2 3c 05 0a 97 bd a2 cc 26 bd
       -0.057766575 0.027702307 -0.07374958 -0.040722497
000210 61 42 6f 3d c3 ee 9f 3d e7 91 e5 bc 44 86 63 bd
       0.058412913 0.07809212 -0.028023673 -0.055547968
000220 0c 70 d4 3c b5 33 e0 bd 18 9e 31 bd 73 db 09 3e
       0.025932334 -0.10947362 -0.04336366 0.1346262
000230 28 b1 b0 3b 0d 71 3e 3c 24 5e ad 3b 10 90 b9 bc
       0.0053922124 0.011623633 0.0052907635 -0.022651702
000240 17 22 d7 3d bb 19 92 bd 7a d8 8b bd 72 1e 5b bd
       0.10504549 -0.07133814 -0.06828399 -0.05349583
000250 b4 4f 80 bd 16 24 9c 3a 25 9a a3 3d 56 bd 67 3d
       -0.06265202 0.001191261 0.07988385 0.05657705
000260 2b 4a 22 bd a3 b6 0d 3e 32 1f bf bd 6f cd 9f bd
       -0.039621513 0.13839202 -0.09332122 -0.07802855
000270 21 db 4a 3d d2 03 65 3c e4 1a c2 bd e0 9f ee bd
       0.049525384 0.013977962 -0.09477785 -0.116515875
000280 d2 18 59 bd e4 f0 3e 3d 5c 9f 72 bd 7d a1 02 bd
       -0.053002186 0.04661645 -0.05923401 -0.03189229
000290 ae c0 3c 3d 70 6c 8f 3d 73 e9 6d bd 04 75 2b bd
       0.04608219 0.07003105 -0.058083963 -0.04185964
0002a0 1a 66 1f 3a 51 ec f1 bc 8f 1f 8c 3b d5 47 ac 3d
       0.0006080583 -0.02953163 0.004276223 0.084121384
0002b0 b1 8a a8 3b c8 11 31 3d 08 9e a9 ba 14 d8 f0 3c
       0.0051434864 0.04322985 -0.0012940774 0.02939991
0002c0 4f 2e 82 3d f7 ec ac 3c bd 5f 81 bd 37 7c 85 bd
       0.06356489 0.021109087 -0.06317089 -0.06517833
0002d0 e6 c7 86 bc 68 a5 2f 3c 63 cd 98 3d 91 a5 82 3c
       -0.01645274 0.010720588 0.074610494 0.015948089
0002e0 db 81 eb bc a1 83 75 3d 30 7a 0f bc ea 39 8a bd
       -0.028748443 0.059939984 -0.008757159 -0.067493275
0002f0 7b 38 9a 3a 73 37 3a 3d 64 98 3c bd ac 94 8f bd
       0.00117661 0.045463037 -0.04604377 -0.07010779
000300 b4 70 23 bd 4a ec a1 3c 13 5a 81 bd 5d 56 29 bd
       -0.039902404 0.019765992 -0.063160084 -0.041342128
000310 02 2f 1b 3d f4 4c 88 3d 36 f3 92 bc 43 d4 3a bd
       0.037886627 0.06655303 -0.017938238 -0.045612585
000320 9d 16 15 3d 81 b9 9f bd f3 9d e7 bc 90 de dd 3d
       0.03639852 -0.07799054 -0.028273558 0.10833466
000330 76 3d d2 3b a3 d4 52 3c a0 9c 8f 3c 0f 96 86 bc
       0.006416018 0.012868079 0.01753074 -0.016428975
000340 28 8c b0 3d bf 9a 7a bd dc ca 54 bd dc 55 18 bd
       0.08620483 -0.061182734 -0.051951274 -0.037191257
000350 11 1f 34 bd 13 cf 60 bc 16 c8 8c 3d 82 42 46 3d
       -0.04397494 -0.013721245 0.06874101 0.04840327
000360 4b 26 97 bc 6f da c9 3d 7a 04 90 bd 41 17 8b bd
       -0.018450877 0.09856116 -0.07032104 -0.06791545
000370 76 c0 18 3d dc c6 12 3c a2 3a a5 bd f1 90 ab bd
       0.03729292 0.008958545 -0.08067824 -0.08377255
000380 d3 46 59 bd 74 e3 e6 3c a9 2a 66 bd ce dd df bc
       -0.05304606 0.02818463 -0.056193028 -0.027327444
000390 f2 c8 49 3d 85 bc 6e 3d 29 06 f8 bc f9 02 35 bd
       0.049263902 0.058285255 -0.030276375 -0.044192288
0003a0 af 19 d6 3b aa de 7c bd cf 9f 85 bc 81 bb d1 3d
       0.0065338234 -0.061735786 -0.016311554 0.10240842
0003b0 68 69 70 3b 95 23 28 3c 8f 2e d8 ba 51 e9 5a bb
       0.003668392 0.01026239 -0.0016493368 -0.0033403228
0003c0 e5 a4 9d 3d 91 f3 12 bd 46 90 7b bd 8f a1 56 bd
       0.07697467 -0.035876814 -0.061416887 -0.052400168
0003d0 03 1f 0e bd 41 e2 0e 3c 91 eb 81 3d 99 76 11 3d
       -0.034697544 0.008720935 0.06343759 0.035513494
0003e0 59 4f 01 bd 5a a3 94 3d 97 f6 fd bc 5e 53 66 bd
       -0.031569812 0.07257719 -0.031001372 -0.05623185
0003f0 35 fb e4 3c d6 14 9d 3c 7d f8 82 bd 4c 06 a1 bd
       0.027951816 0.019174974 -0.06395052 -0.07862529

pre_model.lstm.weight_hh_l0 f4 [256, 64]
000000 45 d6 46 3c 9c 82 96 bc d9 c7 64 bc e7 4a 45 3c
       0.012136047 -0.018372826 -0.013963663 0.012041784
000010 b9 6d 3c bc fa 3f 2a 3c 34 ca 67 bc ce 23 ad 3c
       -0.011500769 0.01039123 -0.01414733 0.021135237
000020 47 78 e6 3c 4e 1e 84 3b 7c 05 8f bc 83 64 82 bc
       0.028133525 0.004031933 -0.01745867 -0.015917068
000030 f9 ed 67 bc ae f7 7d bc 25 f1 56 3c 2d da bc bc
       -0.014155858 -0.015500946 0.013119017 -0.023053253
000040 d8 d2 05 ba 54 e8 46 3c 31 f6 ef 3b a0 6b 6d bc
       -0.00051049655 0.012140352 0.0073230495 -0.014490992
000050 2b 1f 28 bc 60 d8 e6 bb f9 96 26 3c 30 63 21 bc
       -0.010261337 -0.007044837 0.010167831 -0.009850308
000060 22 26 fe 3b 6e 05 21 3c 93 5c 90 bb ef 84 05 3c
       0.0077560106 0.009827955 -0.004405567 0.00814937
000070 8f a2 79 3c 91 73 1c 3d 5c eb 6c bb 7f ef 6a bc
       0.015236511 0.03819615 -0.0036151027 -0.014339327
000080 d9 18 11 3c 00 c1 69 3c d7 fe 50 3c ab ef 0b 3c
       0.008856022 0.014267206 0.012756071 0.008541028
000090 2e 14 71 3c 2e bd 22 3c f2 ce cb 3b 07 db 64 bc
       0.014714284 0.009932799 0.006219738 -0.013968236
0000a0 af d7 47 3c ea 89 5c bb 05 21 1c bc 1a 94 2e bc
       0.012197419 -0.003365154 -0.009529357 -0.010655427
0000b0 13 82 81 3c c0 ff b8 3c a6 14 65 3c 47 ad cb bc
       0.015809095 0.022582889 0.013981974 -0.024862899
0000c0 1b 07 80 3a e3 1b 59 3c a4 23 8d 3c 18 1a 2e bc
       0.0009767743 0.013251278 0.017228909 -0.010626338
0000d0 a9 5b 76 bb cb 67 83 bc a1 a8 e6 b9 56 22 68 3c
       -0.0037591255 -0.016040703 -0.00043994657 0.014168343
0000e0 3c 45 81 3d f5 09 4c bb 0e 70 e7 bb 55 25 53 bc
       0.063120335 -0.0031133865 -0.0070629185 -0.012887319
0000f0 a2 fe d5 bb e5 7f 6a bc 2a 88 a5 bc d0 b4 22 bc
       -0.0065305987 -0.014312719 -0.02020653 -0.009930804
000100 0c 77 1e 3b 6e c2 d0 bc 90 38 57 bc 6a e8 e4 3b
       0.0024179844 -0.025483336 -0.013136044 0.0069857137
000110 c4 95 0e 3b 62 53 2b 3c 0a b8 38 ba e7 d4 44 3d
       0.0021756748 0.010456892 -0.0007046467 0.048054602
000120 a6 e4 2c 3d 14 a3 83 ba 44 01 0f bc 98 45 18 bc
       0.042210244 -0.0010043108 -0.008728329 -0.009293936
000130 d1 bd 73 bc b4 53 08 bd 26 1f 04 bb f1 60 86 bd
       -0.014876799 -0.03328295 -0.0020160167 -0.06561459
000140 9f c6 53 bb 6f cf 38 3d 3d ea c5 bb be 4b 17 bc
       -0.0032314432 0.0451197 -0.0060398863 -0.009234367
000150 99 71 e4 bc 18 c2 50 bc 34 57 00 3c 4a f3 97 bd
       -0.027886199 -0.012741588 0.007833291 -0.074194506
000160 70 ec 02 3c 5b e6 18 3c 70 22 b7 bc bc 4e 89 bb
       0.007990941 0.009332265 -0.022355288 -0.004190294
000170 e6 2a 46 3b 2e 0f 96 bc d7 2e a3 3b ad 1e c3 bb
       0.0030237972 -0.018317785 0.004979949 -0.0059545846
000180 40 d0 14 3c 3b 2e 91 3c 10 e1 f0 b8 db 00 29 3d
       0.009082854 0.01772224 -0.00011486013 0.04126058
000190 7c 53 86 3c d1 ce fd ba 5a 87 e9 bb c3 38 9d bb
       0.01639723 -0.0019364004 -0.007126731 -0.0047980263
0001a0 d8 b0 95 b9 69 da 64 bd 9e 25 d7 3b a4 19 cf 3b
       -0.00028551253 -0.055872355 0.0065657636 0.0063201953
0001b0 4a ce ce bd 4b bb 7a bc 53 7c a9 3a ad c8 6b 3d
       -0.1009794 -0.015303443 0.0012930728 0.057564426
0001c0 e9 03 64 3c 12 ce 85 3c c8 5d 6d 3d 91 7f 92 bc
       0.013916948 0.016333614 0.057950765 -0.017883094
0001d0 b6 a7 6c bd 80 97 05 bc 4a 77 af bc 45 1c 9a 3c
       -0.05777713 -0.008153796 -0.021419186 0.018812308
0001e0 1a cb 2b bd fc 33 6c bc 3f fe f0 3b 37 37 4b 3b
       -0.04194174 -0.014416691 0.0073545272 0.0031008252
0001f0 1c 9b 9f 3b 74 cb 87 bc cc cb 4e 3c 04 73 6b bc
       0.0048707854 -0.016576506 0.012621831 -0.014370684
000200 28 0a 12 bb 35 18 5e bc eb e9 b1 bb 6d 37 66 3b
       -0.0022283886 -0.013555576 -0.0054294965 0.0035128251
000210 a4 45 9c 3b 4a 01 ec 3b 6e 5e ad 3a 0e 45 0d 3d
       0.004769044 0.007202302 0.0013226995 0.034489684
000220 e8 65 49 3c 61 4d ab 3b f3 3c 8f bb df 8d d6 bb
       0.012292363 0.00522773 -0.0043712794 -0.006547674
000230 6e a0 f2 bb d5 f4 a7 bc f7 02 08 bb c4 a1 21 bd
       -0.0074043786 -0.020502487 -0.002075372 -0.039460912
000240 3d bb bd 3a 5e ca dd 3c b6 2e e2 bb dc 45 e2 bb
       0.0014475357 0.027074035 -0.006902541 -0.0069053005
000250 02 fe 82 bc c0 ae f1 bb 5e 55 09 3b e6 21 17 bd
       -0.015990261 -0.007375568 0.0020955424 -0.036897562
000260 1e db 9b 3a 69 ba 81 3a 76 64 e0 3a bd 48 08 bc
       0.0011890864 0.0009897474 0.0017119783 -0.008318123
000270 01 5f 12 3a b7 f4 89 3c 00 fc ec 3b cf d1 06 bb
       0.00055836147 0.016840322 0.007232189 -0.0020571833
000280 4c f6 45 3c d0 ca 43 3c 95 78 15 bb d3 66 c0 3c
       0.0120826475 0.01195021 -0.0022807468 0.02348653
000290 18 c8 13 3c a7 60 b9 bb bd 75 06 bc 1e 98 79 ba
       0.009019874 -0.005657274 -0.008206782 -0.00095212634
0002a0 f1 b7 86 bb 30 81 be bc bc 5e 0f 3c f7 23 6a 3b
       -0.004111283 -0.02325496 0.008750614 0.0035727003
0002b0 57 b5 35 bd f7 91 b5 bb d3 e8 97 b9 b8 d1 9c 3d
       -0.044362392 -0.005541082 -0.00028974432 0.07657188
0002c0 cc f3 8b 3c f6 ac 36 3c 8c 2a 40 3d 2c 5f 8a bc
       0.017084025 0.011149636 0.046915576 -0.016891085
0002d0 fb e6 03 bd 12 08 a6 ba 19 e9 8e bc 89 fb 15 3c
       -0.032202702 -0.00126672 -0.017445134 0.009154209
0002e0 c5 92 11 bd 4c af 61 bc 00 d5 20 3c 66 f3 b3 3b
       -0.03554036 -0.013774704 0.009816408 0.005491662
0002f0 5a 6b 0b 3c c2 e0 32 bc ac 69 3a 3c ce af 06 bc
       0.008509481 -0.010917844 0.011377733 -0.008220626
000300 6b f1 05 3c 73 73 7b bc 48 18 65 bc 78 da 6c 3c
       0.008175234 -0.015347349 -0.01398284 0.014456384
000310 dc a3 54 bb d3 af a6 3b 77 02 04 bc dc 2f c2 3b
       -0.00324463 0.005086878 -0.008057228 0.0059261154
000320 d4 8a 85 3c c8 4b 83 3a 91 7b 43 bc 5c 2d 1e bc
       0.01630155 0.0010017091 -0.011931316 -0.009654369
000330 11 e5 85 bc 97 e3 8d bc 31 3c 2a 3c 2d 1f 00 bd
       -0.016344579 -0.017320437 0.010390327 -0.03127973
000340 54 b9 d1 3b 8b e6 93 3c e3 17 8f 3b 0d d7 67 bc
       0.0064002667 0.018054267 0.004366861 -0.014150393
000350 a9 e3 6e bc 77 3a 1d bb 97 d9 2b 3c f0 8e 25 bc
       -0.014580646 -0.0023991147 0.010488889 -0.01010488
000360 45 2e 40 3c 58 84 71 3c 6e e8 6f bc f6 8f 3b 3b
       0.0117297815 0.014741026 -0.014642818 0.0028619743
000370 91 6d 01 3c f3 17 75 ba 79 c6 0c bc 5a 53 3c bc
       0.007899658 -0.0009349577 -0.008592241 -0.011494482
000380 f3 1b 81 3b 95 57 8d 3c b9 40 28 3c f0 6a 8e 3c
       0.0039400994 0.017253676 0.010269337 0.017384976
000390 b9 0d 8f 3c 14 5e 91 3b 18 88 04 3c b6 05 0e bc
       0.017462598 0.004436264 0.008089088 -0.008668354
0003a0 e3 12 3d 3c 7c bb 92 bc 27 fa 99 bb 04 ec bd bb
       0.0115401475 -0.017911665 -0.00469901 -0.0057959575
0003b0 bb 52 ea bc 7a 7a 74 3c 6e 07 4a 3c e2 7d e1 3c
       -0.028603902 0.014921779 0.012330873 0.027525846
0003c0 6a 66 80 3b e0 1c 7e 3c 2b d9 a8 3c 85 cc 78 3a
       0.0039184587 0.015509814 0.020611366 0.0009490925
0003d0 c7 1f 8d bc 3a 1f 21 bc ec 7c fa bb e2 c9 9f 3c
       -0.017227067 -0.009834105 -0.0076442864 0.019505445
0003e0 a7 f2 f3 3a 5c 41 26 3b 97 36 8f bb df 95 d2 bb
       0.0018611745 0.0025368547 -0.0043705213 -0.0064265574
0003f0 7b 6c 25 bb 1b 4b 9a bc 59 b5 3f 3c 64 ba fb bb
       -0.0025241661 -0.018834641 0.0117009515 -0.0076821316

pre_model.lstm.bias_ih_l0 f4 [256]
000000 a0 88 1a 3e b8 ad b0 3c 34 c1 26 3d 6b 11 25 3d
       0.15091181 0.02156721 0.040711597 0.040299814
000010 80 8f 4a 3e 3b 0b 98 3d 06 98 1d 3e 38 7b f0 3d
       0.19781303 0.07424017 0.15390024 0.11742252
000020 85 66 0d 3e 0f 12 a7 3c 3d 33 77 3d 0c 18 30 3e
       0.1380864 0.020394353 0.0603516 0.17196673
000030 3d c7 84 3d f2 b5 6e b9 b4 93 ec 3d 99 00 88 bd
       0.06483314 -0.00022765229 0.1155161 -0.06640739
000040 cd 61 95 3d b4 b9 48 bd 08 e5 34 3e 41 ff d2 3d
       0.07294045 -0.049005225 0.17665493 0.10302592
000050 22 a2 a8 3c 8b a2 04 3c c6 1c 5f 3d fa d5 eb 3d
       0.020585123 0.008095394 0.0544708 0.11515422
000060 55 a3 06 3e 71 f9 1e 3d 94 6d 8b 3d 85 11 50 3e
       0.13148244 0.038812105 0.0680801 0.20319183
000070 8b 0d f7 3d 7d 5b 7f 3e 8c 1d 20 3e 65 68 97 3d
       0.1206313 0.24937244 0.15636271 0.073929586
000080 63 42 8d 3d 6c f1 21 3d 8f b9 2d 3e 32 ec 45 bd
       0.06897428 0.03953688 0.16965316 -0.048320957
000090 3c cf 46 3d c5 19 15 3e 3a 3e 30 3e 43 87 16 3e
       0.048537478 0.14560612 0.17211238 0.14700036
0000a0 34 3f 07 3e 95 26 6b 3d ed 3f 29 3e a0 58 18 3e
       0.13207704 0.05740984 0.16528292 0.14877558
0000b0 43 af b4 3c 46 3f c4 3d 66 98 24 3e 01 a4 d6 3d
       0.022056228 0.09582381 0.1607376 0.104805
0000c0 7c 0b f6 3b c8 dc 9c 3d 14 bc 73 bd 38 b9 cc 3d
       0.0075086933 0.07659298 -0.059505537 0.09996265
0000d0 bf eb 3b bd a1 13 12 3d 18 44 6c 3c da 4b e5 3d
       -0.045879122 0.03566325 0.014420532 0.11196108
0000e0 08 bc b0 3e 56 88 a2 bd b9 4c 44 3e fe c5 32 3e
       0.34518456 -0.0793616 0.19169892 0.1745834
0000f0 ee 83 0b 3e b6 66 8d 3d c4 f2 09 3c 5c b2 f5 3d
       0.13624546 0.06904356 0.008419696 0.1199691
000100 d0 68 34 bd 49 d8 c0 bc 43 47 07 bd e3 71 18 bd
       -0.04404527 -0.023540633 -0.033026945 -0.037217986
000110 15 29 19 bd 52 1e 8a 3a 2b 82 48 bd 81 fc a2 3c
       -0.037392695 0.0010537601 -0.048952263 0.019895794
000120 c3 17 09 3e 8e 52 72 3b e0 4b 9e bc 4e f5 2a bd
       0.1338797 0.0036975476 -0.01932329 -0.041737847
000130 34 34 de bc bb 0b b7 bb 30 96 56 bd 96 86 88 3d
       -0.027124502 -0.005586115 -0.052389324 0.06666295
000140 f9 26 56 bb 31 2e 42 bd 94 78 b3 bc 25 f0 07 bd
       -0.0032677038 -0.047407333 -0.021908082 -0.033188004
000150 08 85 28 bd 35 c7 02 bc 9a a3 00 bc 9e 02 37 3d
       -0.041142493 -0.007982065 -0.007851506 0.04468023
000160 fc f8 50 3c e6 89 d9 bc ad bd 36 3e d8 4d 08 bd
       0.012754675 -0.026555013 0.17845793 -0.033277363
000170 16 5f 21 bd d8 ec 59 3e 58 47 19 bc c7 7b 37 bd
       -0.03939732 0.21281755 -0.009355389 -0.044795778
000180 7e fa d1 3d 9c 9c 2d bc 0d 14 31 bd 71 4d 49 bd
       0.10252856 -0.010596421 -0.043232013 -0.04914612
000190 32 40 da bc 11 ab 30 bd 23 15 01 3d 84 73 1f bd
       -0.026641939 -0.04313189 0.0315143 -0.038928524
0001a0 1a c0 43 bd 5b 1d 63 3e 2f 20 18 bd 22 02 33 bd
       -0.047790624 0.22179167 -0.037140068 -0.043703206
0001b0 00 70 32 3e 72 52 7c 3e 7f 09 4e bd a1 e8 aa bc
       0.17425537 0.24640825 -0.050302025 -0.02086288
0001c0 6b 83 4e bb 6f ed 49 bc 73 02 7c 3d eb af 92 3c
       -0.0031511437 -0.012324675 0.061525773 0.01790615
0001d0 90 6f 09 bd 93 8b 44 bc 9f 54 80 bd 78 2a 7e bc
       -0.03355366 -0.011996168 -0.0626614 -0.015513055
0001e0 a3 1a df 3d 0e a1 39 3d 37 ad cd bc 8e fb 2e bd
       0.108937524 0.04531961 -0.02510701 -0.04272037
0001f0 cc 06 4e bd 3b e6 34 bd 88 f9 86 bd 7f 94 0d 3d
       -0.05029945 -0.044164877 -0.06590563 0.034565445
000200 56 75 48 3d 2f 6c e4 bb a3 0a ae bd 48 9c 97 bb
       0.048940025 -0.0069709043 -0.084981225 -0.0046267845
000210 9e b9 4e bd 9d 5b 8c 3d 5a cd 3f 3d ad 00 e7 3d
       -0.050469987 0.06853411 0.046826698 0.11279426
000220 9e 83 29 3d 51 6f 29 bd d7 b4 f2 bb bc 4e 89 bd
       0.041385286 -0.041365925 -0.0074068117 -0.067044705
000230 1f c0 c4 3d da 63 3b 3d e9 c6 21 3d c6 18 b8 3d
       0.09606957 0.045749523 0.039496336 0.089891
000240 7f 4a 03 bd f8 74 b3 bc f0 ac 59 bd a4 bc 99 bd
       -0.032053467 -0.021906361 -0.05314344 -0.075066835
000250 6c d2 1c bd b9 5e 15 3d e8 02 1d bd ab e4 cd bd
       -0.03828661 0.036467288 -0.03833285 -0.100533806
000260 05 7f 7e 3d 0a 69 ac bb 9c 8f 0b 3c b2 2d ae 3d
       0.062132854 -0.005261545 0.008518126 0.085048094
000270 e6 0b 5a bd 23 68 2f 3d 9e ae e4 bd 87 bd d8 3d
       -0.053234003 0.042823922 -0.11166118 0.105830245
000280 08 29 b7 3c be 6e 95 bd 16 c9 6b bd 4b 19 87 bd
       0.022358432 -0.07296513 -0.057564817 -0.06596621
000290 21 bd 7b 3a 97 66 4c bd ee fe ca bb 4e 67 6f 3d
       0.00096030725 -0.049902525 -0.006194941 0.05844813
0002a0 38 7c 57 3d c0 10 6e 3d 63 c3 b7 bd e0 6d 82 bb
       0.0526087 0.058121443 -0.08972814 -0.0039803833
0002b0 37 f3 69 3c 78 97 b8 3d b0 ad 06 bd dc 0d e2 bd
       0.014279178 0.09013265 -0.032880485 -0.110378
0002c0 e7 c2 9e bd e9 e2 a2 bd 27 05 dd 3c 62 61 84 3d
       -0.077520184 -0.07953436 0.026979996 0.06463887
0002d0 75 81 f8 3d 80 24 ef bc bb 3a 1f bc f8 bd b9 3d
       0.12134067 -0.02919221 -0.009718592 0.09069437
0002e0 6a 1b e9 bd 82 dd eb bd 22 88 20 3d 52 74 2c bd
       -0.11382182 -0.11516859 0.039192326 -0.04210312
0002f0 d1 1c 58 bd 8f 7d 68 3d 7d e0 7b bd 8f e6 b0 bd
       -0.052761856 0.056760367 -0.061493386 -0.086377256
000300 7b 8b 25 3e f1 45 6f 3d 3b 3f 5c 3d bb 39 3c 3d
       0.16166489 0.05841631 0.05377124 0.045953494
000310 9e 06 57 3e 79 a0 3e 3d af be 28 3e f6 d1 17 3e
       0.20998618 0.046539757 0.1647899 0.14826187
000320 f3 98 bf 3d 00 d7 f8 bc 83 1d ee 3c be 66 40 3e
       0.093553446 -0.030375957 0.029066807 0.18789193
000330 16 e7 97 3d 69 13 4c 3d b2 47 fe 3d 61 69 c5 3d
       0.07417123 0.0498232 0.124160185 0.0963924
000340 84 1b 9d 3c a6 8e fb bc 4a 86 44 3e fc 18 d0 3d
       0.01917816 -0.030707669 0.19191852 0.101610154
000350 12 d9 87 3b d1 16 2c 3d 9a 27 4a 3d 8d 88 c9 3d
       0.00414575 0.042013947 0.049354173 0.09840498
000360 19 98 fc 3d 33 b4 6c 3d 1d d1 c1 3d b0 41 60 3e
       0.12333698 0.05778904 0.09463713 0.21900058
000370 b5 c6 09 3e c2 ae c8 3d 2d 69 2d 3e 75 ef aa 3d
       0.13454707 0.097989574 0.16934653 0.08346454
000380 34 88 7c 3c e9 28 5e 3d 35 5c 3c 3e fe 7b bc bc
       0.015413333 0.054238234 0.18394549 -0.023008343
000390 47 68 6a 3d 45 dc 22 3e 71 82 42 3e e9 bc 1e 3e
       0.057228353 0.15904339 0.18995072 0.15501751
0003a0 47 b5 11 3e 42 93 b0 3d 11 7e 35 3e 67 6d 22 3e
       0.14229308 0.08621837 0.17723872 0.15862046
0003b0 11 15 a8 3c 55 1d 09 3e 73 7b 30 3e 47 10 07 3d
       0.020517858 0.13390096 0.17234592 0.032974508
0003c0 3a 9f 44 3d 8e 6c b2 3d d7 bd 38 3d ce 2a 0b 3e
       0.048003413 0.087121114 0.04510292 0.13590547
0003d0 f2 0e 32 bd 17 a6 4f 3d 94 33 aa 3c 88 c3 e7 3d
       -0.043471284 0.050695505 0.020776547 0.113165915
0003e0 8b 30 2c 3e 95 32 23 3d 00 ef 51 3e a6 fb 40 3e
       0.16815393 0.03984316 0.20501328 0.18845996
0003f0 b8 f1 2b 3e 12 f2 6b 3d 14 e1 51 bb 74 a7 0c 3e
       0.16791427 0.057603903 -0.0032025026 0.13735753

pre_model.lstm.bias_hh_l0 f4 [256]
000000 1c 7a 1a 3e 4b 36 a8 3c 2e 72 20 3d df 0c 32 3d
       0.15085644 0.020533701 0.03917139 0.043469306
000010 63 ea 4a 3e d6 9e ac 3d 78 bc 1d 3e f5 eb dc 3d
       0.19815974 0.08428733 0.15403926 0.10787193
000020 ce 17 af 3b 41 f7 29 3d 6b aa 10 3d 86 15 30 3e
       0.005343414 0.041495565 0.035318773 0.1719571
000030 a5 9d 81 3d 92 ba 91 3c 1e 53 ee 3d 21 a3 17 bd
       0.063288964 0.017789159 0.11636947 -0.037020806
000040 d1 48 9c 3d d6 45 5f bd de c7 34 3e f4 91 d2 3d
       0.07631076 -0.05450996 0.17654368 0.102817446
000050 0d 9a 07 bc c3 0f 36 3d 0c aa 16 3d f2 00 9b 3d
       -0.008276475 0.044448625 0.036783263 0.0756854
000060 ae 8b fa 3d 30 dd 27 3d c9 cd fe 3d 98 49 50 3e
       0.12233673 0.040982425 0.12441594 0.20340574
000070 b3 0f 04 3e 80 37 8f 3e 62 17 20 3e aa 51 96 3d
       0.12896614 0.2797203 0.1563392 0.07339795
000080 40 aa 69 3d 60 1e 46 3d 7e 81 2d 3e 56 e7 34 bd
       0.05704713 0.04836881 0.16943929 -0.04416593
000090 da e1 4a 3d 74 4b 14 3e 0c 9a 30 3e 82 67 16 3e
       0.049531795 0.14481908 0.17246264 0.14687923
0000a0 3e 3f 07 3e 58 cc 74 3d df c2 28 3e 56 ae 15 3e
       0.13207719 0.05976519 0.16480587 0.14617285
0000b0 ae db c4 3c 65 eb a2 3d 6c 3f 24 3e 81 6b 22 3e
       0.024030533 0.07955054 0.16039819 0.15861322
0000c0 df fb a8 3b 96 2c 9d 3d 4b 40 b3 bc 1c f2 e9 3d
       0.0051569785 0.0767452 -0.021881243 0.11423132
0000d0 3d 6e d3 bc af 0d 39 3d 4c 98 a4 3c 7b a7 e0 3d
       -0.025809402 0.045179065 0.020092152 0.10969444
0000e0 47 ab a9 3e 2c 87 e1 bc 89 23 44 3e 76 fb 32 3e
       0.33138487 -0.027530275 0.1915418 0.17478737
0000f0 d7 49 10 3e d4 c3 49 3d 30 f6 d1 bd 29 ff f0 3d
       0.14090668 0.049259022 -0.10252035 0.11767418
000100 07 c8 35 bd 5d 1f b6 bc 30 c4 09 bd 85 d3 15 bd
       -0.044380214 -0.022231752 -0.033634365 -0.036578674
000110 c9 de 1e bd fc 4f 97 3c e9 48 46 bd 0b be df 3c
       -0.038786683 0.018470757 -0.048409376 0.0273123
000120 e9 f4 e2 3d c5 81 9e 3d 53 4b f8 3b b8 77 45 bd
       0.11081869 0.07739595 0.0075773387 -0.048209876
000130 a7 5e e5 bc ec ce 95 bb 14 47 53 bd 85 65 26 3e
       -0.027999235 -0.004571786 -0.051581457 0.16249664
000140 7e 11 77 3d a4 6a 47 bd 24 89 bb bc e3 a1 fc bc
       0.060319416 -0.048685685 -0.022892542 -0.030838912
000150 ec 6b 19 bd a3 87 60 3b 42 44 6f bc 60 7b 4c bc
       -0.037456438 0.0034260533 -0.014603676 -0.012480587
000160 42 42 5e 3c 10 0c c8 bc 67 b9 d5 3d 21 1f 0b bd
       0.013565602 -0.024419814 0.10435753 -0.033965234
000170 a7 06 14 bd be b0 ef 3d 49 05 32 bc 87 98 36 bd
       -0.036139157 0.11703633 -0.010865518 -0.044579055
000180 a5 f0 a3 3d dc 90 2c bc 23 ae 31 bd 6c 86 4b bd
       0.08004884 -0.010532584 -0.04337896 -0.04968874
000190 1f 99 db bc 3c 03 29 bd fe c5 ec 3c 22 e5 0f bd
       -0.026806412 -0.04126285 0.028903004 -0.035130627
0001a0 62 bf 43 bd 3b 96 05 3e 46 03 45 bd 8f a1 2f bd
       -0.04778994 0.1304559 -0.048098825 -0.042878684
0001b0 ef c5 31 3e 0d da 6d 3e ad 5e 4b bd 52 6d 2a 3d
       0.17360662 0.23227711 -0.049650837 0.041608162
0001c0 72 8d 08 bd e0 b7 2a bc c0 ee 9e 3d 13 eb c2 3c
       -0.033338018 -0.010419816 0.07760382 0.023793733
0001d0 d1 8a f7 bc c7 e8 6f bc 80 14 bc bc 65 58 3b bc
       -0.03021756 -0.014642901 -0.022958994 -0.011434649
0001e0 e0 ad a6 3d c7 7d 1a 3d fb 66 cc bc ed 43 2a bd
       0.08138633 0.037717607 -0.024951449 -0.041568685
0001f0 c3 9e 32 bd 13 c7 e1 b6 70 68 67 3d 8a 96 ef 3c
       -0.04360844 -6.728698e-06 0.056496084 0.029246587
000200 b2 71 9d bd 0b 6f 6c 3d 21 1e df 3c e5 b9 63 bd
       -0.07687701 0.057723086 0.027236046 -0.055597205
000210 bc c0 d1 bc 78 8e f3 bc 43 0f 6d bd d5 06 1d 3d
       -0.025604598 -0.02973102 -0.057875883 0.038336594
000220 c7 a7 e1 bc 4f 18 50 3d ff c1 a8 bd f5 bb b6 bc
       -0.027545823 0.050804432 -0.08240127 -0.022306422
000230 66 67 ad 3d 1d dd d0 3d b7 3f 25 bd 26 21 9d 3d
       0.08466987 0.10198424 -0.040343966 0.07672338
000240 6a f0 bf bd 2f 7f 7b bd 0c 02 c2 3d ff 4f 50 ba
       -0.09372027 -0.06140059 0.09473047 -0.00079464907
000250 fe c2 19 3b ef a5 04 3d 44 51 9c 3c 94 0e ac bc
       0.0023462172 0.03238481 0.01908172 -0.021003045
000260 b0 21 e3 3b 40 b7 90 bd e0 b3 4a 3d 48 bf b5 bd
       0.006931506 -0.07066202 0.04948795 -0.08874375
000270 dd 9a 65 bd be 64 92 3d f7 e0 28 bd 3b 2c 77 bd
       -0.056055892 0.07148121 -0.04123017 -0.060344916
000280 4f fc cd 3c 67 6c 16 3b 3c 18 c8 3d 24 22 6e bd
       0.025144724 0.0022952796 0.09770247 -0.058138028
000290 d1 d2 a9 bd 93 68 71 3d 37 56 bf bc 7a 0a 77 bc
       -0.08292163 0.05893762 -0.02335654 -0.015078181
0002a0 3f 08 16 3b 50 29 82 3d a3 27 70 3d 36 e4 c4 bd
       0.0022893099 0.06355536 0.05863155 -0.0961384
0002b0 35 e2 c4 3c f1 4d 17 3e 9f a5 eb 3c 2f 7c 32 be
       0.024033645 0.14775826 0.028765498 -0.17430185
0002c0 ff 8e 70 bd 52 3b 98 bd 7e da e5 3c 35 19 89 bd
       -0.05873012 -0.074331895 0.028058287 -0.06694261
0002d0 c9 b6 de 3d 71 c1 22 bd df ea 0a 3e 8b d6 95 bc
       0.10874707 -0.03973526 0.13566159 -0.018290779
0002e0 87 cb 7e bd fb 16 38 3d ab 32 3f bc 28 e0 80 bd
       -0.062205818 0.04494379 -0.011669795 -0.062927544
0002f0 88 c8 f2 bb 86 dd 50 3c 02 e0 2e be 44 77 b9 3d
       -0.007409159 0.012748128 -0.1707764 0.09055951
000300 a3 a8 25 3e 80 a8 67 3d 75 9f 54 3d 2a dc 46 3d
       0.16177611 0.05655718 0.051909883 0.04854981
000310 61 fe 57 3e c3 7e 21 3d c2 39 29 3e 3b 01 10 3e
       0.21093132 0.03942753 0.16525939 0.1406297
000320 7b 58 ec 3d 59 7d 5c bd b3 5d 8e 3d e5 51 3f 3e
       0.11540314 -0.05383048 0.069514655 0.18683584
000330 09 16 92 3d d3 d2 2c 3c fe d3 ff 3d 91 3d 69 3d
       0.07133109 0.010548311 0.12491606 0.05694348
000340 e2 5a 1f bd 20 60 e5 bc c6 6f 44 3e 0b e1 d8 3d
       -0.038905032 -0.027999938 0.19183263 0.105897985
000350 bd 68 75 3d 3a 7e 51 3d d8 93 f4 3c d9 aa e6 3c
       0.05991434 0.05114577 0.029855654 0.028157638
000360 62 92 06 3e 7f 37 75 3d 15 a5 1e 3e aa 95 5f 3e
       0.13141778 0.05986738 0.15492661 0.21834436
000370 29 8d 13 3e e6 a7 f3 3d 70 60 2d 3e ce de aa 3d
       0.14409317 0.118972585 0.16931319 0.08343278
000380 af 35 4e 3d a4 17 52 3d 53 2c 3c 3e 2f ae ae bc
       0.050344165 0.051292077 0.18376283 -0.021323292
000390 48 bb 69 3d ca c9 20 3e af 0d 43 3e 72 9a 1e 3e
       0.05706337 0.15701976 0.19048189 0.15488604
0003a0 ca b5 11 3e 60 b7 ee 3d 4d cc 34 3e 2f 2f 22 3e
       0.14229503 0.1165607 0.1765606 0.15838312
0003b0 bc 96 31 3c 61 cb 90 3d 8a b9 30 3e 46 50 86 3d
       0.0108391605 0.070700414 0.17258278 0.0655828
0003c0 d3 62 f0 3c c9 2f b5 3d af 5d 45 bd 85 39 eb 3d
       0.029343998 0.08847005 -0.048185047 0.1148558
0003d0 5b 2c 43 bd 66 e2 8b 3d 00 89 3b 3d 00 01 fa 3d
       -0.047649723 0.068302915 0.04578495 0.12207222
0003e0 ec e7 7c 3e 8a 69 bb bc d2 fc 51 3e 37 ee 40 3e
       0.24697846 -0.022877473 0.205066 0.18840872
0003f0 26 30 1c 3e ad bb 38 3d 28 13 39 3c c3 ad 0f 3e
       0.15252742 0.045100857 0.011296071 0.14031129

pre_model.lstm.weight_ih_l1 f4 [256, 64]
000000 66 93 2b 3b 37 7d 5c bb 45 48 3d bb 28 6f 56 3b
       0.0026180386 -0.003364397 -0.0028882187 0.0032720063
000010 a0 ae dc ba d2 30 55 3b 02 29 02 bb 18 ee d4 ba
       -0.001683671 0.003253032 -0.0019860868 -0.0016245274
000020 cf a6 11 ba 33 16 26 3b 83 38 59 bb 5a c4 ed ba
       -0.00055561675 0.0025342822 -0.0033145256 -0.0018140182
000030 4e 81 5b bb 70 16 56 bb 49 b6 2c 3b b1 e4 5b 3a
       -0.003349382 -0.0032667182 0.0026353768 0.00083882647
000040 ba 11 d5 3a 24 ac 40 3b b6 a9 e6 3a 5c 6e f7 ba
       0.0016255893 0.0029399479 0.0017598185 -0.0018877494
000050 84 0d 62 bb 54 bb 55 3b 51 8f 72 3b a5 56 25 b8
       -0.003449292 0.0032612877 0.0037011693 -3.941976e-05
000060 32 d9 4c 3b 89 ad 61 3b 1f 99 c7 3a 6a 8a 11 3b
       0.0031257388 0.003443571 0.0015228129 0.0022207745
000070 c4 e3 da 3a b4 09 05 3b 34 f3 93 ba 4f 86 1c bb
       0.001669996 0.0020299973 -0.001128769 -0.0023883765
000080 d7 39 35 3b 44 3d 45 3b d9 56 21 3b 87 b7 06 3b
       0.0027652883 0.0030096332 0.0024618416 0.0020556168
000090 95 0e 42 3b 87 59 f7 3a 32 5d 9b 3a 54 60 2d bb
       0.0029610742 0.0018871286 0.0011853336 -0.002645512
0000a0 0f 5d 46 3b e7 88 1f 3b 37 10 c8 ba 0a 84 d7 ba
       0.003026787 0.0024343075 -0.0015263621 -0.0016442549
0000b0 a5 ae 58 3b 29 d4 f7 39 9c d0 11 3b fb 58 9a bb
       0.003306308 0.00047269583 0.0022249585 -0.0047103143
0000c0 ef 6a 3e bb 9c 58 41 3b 54 0f 9e bb 1c ac 72 3a
       -0.0029055437 0.0029502278 -0.0048236046 0.00092572137
0000d0 37 6b 2d bb 07 34 4e bb b8 70 c6 3a ac d6 31 3b
       -0.002646161 -0.0031464116 0.0015139794 0.002713601
0000e0 63 20 a9 3a 70 d0 7c 3b 4b 55 df ba fe af 0b bb
       0.0012903329 0.0038576387 -0.0017038969 -0.0021314616
0000f0 ba 00 0a bb 74 32 18 bb 7a 15 31 bb f3 a0 89 b9
       -0.0021057562 -0.0023223432 -0.0027020858 -0.00026250593
000100 70 82 9f 3b dc 9d d0 bb 61 32 c4 bb e6 77 bb 3b
       0.0048678443 -0.0063664746 -0.005987451 0.00572108
000110 ab dd 75 bb b7 7c b3 3b 25 10 97 bb 82 39 3c 3b
       -0.0037516158 0.0054775137 -0.004610079 0.00287208
000120 e0 d5 fd bb e6 0d 0a 3c ef 66 bf bb 1a 78 91 bb
       -0.007746443 0.008426165 -0.005841128 -0.004439366
000130 9a 6e b1 bb e8 03 c0 bb 29 a7 8a 3b 84 7a 06 3b
       -0.005414796 -0.0058598407 0.004231353 0.0020519802
000140 f2 3e 85 3b 6e 90 b9 3b 39 9e 57 3b de 41 ee bb
       0.0040663416 0.0056629693 0.0032900705 -0.0072710356
000150 64 70 98 bb 8a 0a 0b 3b 1f 81 9f 3b aa a8 a6 b8
       -0.00465207 0.0021215999 0.0048676874 -7.946913e-05
000160 7d af 0d 3c 16 2d d0 3b 88 ea 82 3c 70 4d 33 3b
       0.008647797 0.006353031 0.015980974 0.0027359389
000170 76 f3 76 3b 55 58 53 3c 47 9c 01 bb 53 c6 b0 bb
       0.0037681735 0.012899478 -0.0019776986 -0.005394736
000180 21 0f 22 3c 08 c6 c0 3b e8 9c 45 3b c6 af 11 3b
       0.009891302 0.005882982 0.0030153338 0.0022230013
000190 68 b2 eb 3b 50 00 36 3b b1 b3 c8 3a c1 f9 c3 bb
       0.0071928985 0.0027771182 0.0015312341 -0.0059807007
0001a0 1e 70 90 3b 5a 54 2e 3c 91 ef 80 bb fb c3 80 bb
       0.0044078967 0.010640228 -0.0039348085 -0.0039296127
0001b0 9b 4e 25 3b 30 12 e7 ba 1b e7 84 3b 10 06 79 3a
       0.0025223854 -0.0017629322 0.00405587 0.00094994996
0001c0 1b 7e 60 bb 1b d0 03 3c 49 37 5f bb 46 76 8b bb
       -0.0034254852 0.008045222 -0.0034060052 -0.0042560427
0001d0 00 fa 40 bb 65 69 a9 bb ad 2a 5b 3b 80 8a 9d 3b
       -0.0029445887 -0.0051700347 0.0033442185 0.0048077703
0001e0 28 ec 63 3c d1 1d 74 3b ff 8f 91 bb cb 14 7b bb
       0.0139112845 0.0037249217 -0.0044422145 -0.0038311954
0001f0 7c 63 62 bb 0b 85 d5 bb 4c 8a d2 bb 8d 04 f4 bb
       -0.003454416 -0.006516104 -0.0064251777 -0.0074468316
000200 0f d3 fd 3c cb d4 4a bc c5 14 0a bd 4e 0e 15 3d
       0.03098443 -0.012379835 -0.033711214 0.036390595
000210 54 0c 59 3a ab 6d b0 3c 36 f6 bb bc 18 b9 b2 3c
       0.000827973 0.021536669 -0.022944551 0.021816775
000220 73 f5 e7 bc 07 1e f3 bc 68 7a 98 3c ef 2c 7c bc
       -0.028315281 -0.029677404 0.018613055 -0.015391572
000230 76 de 84 bd 1a 99 ea 3b 2a ed e4 3c a5 01 82 bd
       -0.064877436 0.0071593644 0.02794512 -0.0634797
000240 b5 77 85 3c fa 07 be 3c bf f3 fe 3b b5 74 b8 b9
       0.016292432 0.023197163 0.0077805216 -0.00035182168
000250 ae d6 07 bd d6 ef de 3b 55 f3 5f 3c fb 66 50 bd
       -0.03316372 0.006803493 0.013668855 -0.05087946
000260 95 94 be 3c 16 43 7b 3d 47 d1 0f bd 31 74 2b 3c
       0.023264209 0.061343275 -0.03511169 0.010464714
000270 2c 73 a7 3c 22 ce 8b bd 93 a1 50 bc 99 c6 0b bd
       0.02044066 -0.06826426 -0.012733835 -0.034124944
000280 58 67 5f 3c b8 e8 26 3d 45 98 21 3d eb b8 82 3d
       0.013635479 0.04074928 0.039451856 0.063829266
000290 65 b6 74 3d 00 39 0d 3d 3a 39 1a bb 02 b2 cd bc
       0.059744257 0.034478188 -0.0023532645 -0.025109295
0002a0 07 7d de 3c 07 3d da bc 15 70 c1 bb 26 63 18 3a
       0.027159227 -0.026640428 -0.005903254 0.0005813114
0002b0 02 ac 9e bc 2c 73 54 bc 32 7c ea 3c 70 af 77 3d
       -0.01936913 -0.012966912 0.028623674 0.060470045
0002c0 f5 72 13 3a 5f 35 e2 3c 95 c2 4c 3c fb e6 37 bc
       0.0005624735 0.02761334 0.012497564 -0.011224504
0002d0 3e 97 8a bd 28 14 ac 3c 7a 05 64 3b 25 da 90 3d
       -0.067671284 0.021005705 0.0034793303 0.07072858
0002e0 58 4e bc 3c 0a 1b 0a 3d 78 f6 1d b7 bd e0 9f bc
       0.022986576 0.033717193 -9.415315e-06 -0.019516343
0002f0 1e d0 0d bd cf 1f 2d bd 24 31 4b 3b 85 47 fd 3a
       -0.034622304 -0.042266663 0.0031004632 0.0019323683
000300 29 13 84 bc c5 a1 41 3b 7d e9 a8 3b a5 13 5c bc
       -0.016122418 0.0029545885 0.005154787 -0.013432418
000310 21 74 64 3c 87 00 c6 bc d6 69 6a 3c 78 3c d0 3b
       0.013943703 -0.024170173 0.01430746 0.0063548647
000320 36 7a 25 bc 43 3f f8 3b 63 af 76 bb 5b 82 0a 3c
       -0.010099938 0.0075759008 -0.003764116 0.008453931
000330 0d 6f 96 3c 8c 97 53 3b 54 23 33 bc 75 2b e9 ba
       0.0183635 0.0032286374 -0.010933716 -0.001778944
000340 d2 e8 26 bc 8e 42 bb b9 f2 c7 fc bb 64 e6 3c 3c
       -0.010187345 -0.00035717007 -0.007714265 0.011529539
000350 8a fa ac bb 45 31 7c bb c1 fd c8 bb 53 b2 92 bc
       -0.00527889 -0.0038481515 -0.0061337654 -0.017907297
000360 88 c5 a4 bc ce 5c 17 bc f5 4f 36 3b db 7e 63 bc
       -0.020113721 -0.009238435 0.0027818654 -0.013885225
000370 ef f5 6a bc cc 20 5c bd 5c c5 a9 3a d9 b7 30 3c
       -0.014340862 -0.053742215 0.0012952494 0.01078602
000380 98 5c 43 3c 3c 07 72 bc 54 ec 5f bc c3 2f 3d ba
       0.011923932 -0.014772233 -0.013667185 -0.0007216895
000390 33 ab 83 bc 5a 89 82 bc b4 f8 1f b9 71 d6 86 3c
       -0.016072845 -0.015934635 -0.00015256071 0.016459676
0003a0 30 56 76 bc 11 d4 25 bc f4 98 70 3c b5 1d 39 3c
       -0.015035197 -0.010121361 0.014684904 0.011298587
0003b0 21 71 08 bd 5e 44 0c bb 4f 8a 13 bc f1 b3 b6 3c
       -0.033311013 -0.0021403055 -0.009005143 0.0223026
0003c0 83 7c 03 3c 68 d7 69 bc 79 39 97 3b 72 63 18 ba
       0.008025291 -0.014272548 0.0046150056 -0.00058131584
0003d0 55 66 02 3c 32 90 95 3a 2b a7 7c bb 4f 53 03 ba
       0.007958968 0.0011410771 -0.0038551788 -0.00050096674
0003e0 cb 20 99 bd d3 19 cc bb 90 bc 34 3c 86 b8 66 3c
       -0.07476958 -0.0062286644 0.011031285 0.01408208
0003f0 76 ab 8b 3c ab 9f 34 3c c6 33 d6 3c b3 1a e4 3b
       0.017049532 0.011024396 0.026147734 0.0069611906

pre_model.lstm.weight_hh_l1 f4 [256, 64]
000000 a9 30 73 b8 af 56 8b b9 a3 6c b3 3a b2 5a 51 ba
       -5.7981033e-05 -0.0002657673 0.0013688992 -0.0007986232
000010 79 66 c4 3a a8 30 bc 39 9e 84 d1 3a 78 90 0e 3b
       0.0014984153 0.00035894406 0.0015984958 0.002175359
000020 7e 33 33 39 b1 8a f0 b8 b5 9a 72 b9 62 51 c5 3a
       0.00017089953 -0.00011469925 -0.00023136551 0.0015054161
000030 39 ca 86 b9 4c ab 04 bb f2 ac 70 3a ca 00 b4 3a
       -0.0002570914 -0.0020243702 0.00091810443 0.0013733145
000040 98 ab 0d 3a 0e 1e 40 39 6b f4 cf 37 cf 37 cd 3a
       0.00054042926 0.00018321743 2.4790139e-05 0.0015656891
000050 0c a3 04 ba 5d c1 29 39 82 2b 91 39 d4 ce dd ba
       -0.0005059696 0.0001618913 0.0002768897 -0.0016922601
000060 6c c0 d1 3a da 23 ab 3a 91 89 2f b6 ea e6 ea ba
       0.0016002781 0.0013056949 -2.6157106e-06 -0.0017921601
000070 37 7d 2f 3b 01 82 61 3a ff f1 85 3a 47 2d c7 3a
       0.0026777515 0.0008602441 0.0010219215 0.0015195989
000080 8e 5e 28 bb 6e 10 46 ba 5f 40 54 37 14 ad ce ba
       -0.0025691125 -0.0007555549 1.2651172e-05 -0.0015768134
000090 6a 1e 81 b9 60 60 49 3b 29 9c ca ba 91 9f 34 b9
       -0.00024627458 0.003072761 -0.0015457916 -0.00017225581
0000a0 78 cc 57 ba bb aa 9c 39 fb 90 63 b9 34 46 94 38
       -0.00082320673 0.00029881843 -0.00021702416 7.070266e-05
0000b0 26 61 8e 3a c9 6d e9 38 fb f6 2b 39 ee a8 d7 b7
       0.0010862693 0.00011130755 0.00016399838 -2.5708661e-05
0000c0 ef db 24 37 d6 82 03 b7 2e bd b5 b9 7d 8e d3 b9
       9.826369e-06 -7.838671e-06 -0.0003466396 -0.00040351218
0000d0 0c ab a3 3a 4a b9 03 3b 0c 77 aa b8 c4 b1 cd 39
       0.0012486889 0.0020099455 -8.128406e-05 0.00039233093
0000e0 76 ec 81 ba 0e f6 27 3b 77 6a b3 3a 83 75 2c 39
       -0.000991239 0.0025628838 0.0013688345 0.00016446975
0000f0 17 f2 84 39 5a 60 1b bb df af 57 3a 4d 94 0e 3a
       0.00025357373 -0.0023708553 0.0008227806 0.00054389687
000100 f2 05 36 ba 2f d7 3c b8 5a f0 e0 3a f8 ad 14 3a
       -0.0006943635 -4.50231e-05 0.0017161474 0.00056716753
000110 ab 45 39 3b 9a f0 ce b9 cb c7 87 3b d7 45 7c 3b
       0.0028270285 -0.00039470644 0.00414369 0.0038493776
000120 79 b5 d4 3a 66 fd 01 ba 81 b0 a2 3a 3b b5 f0 3a
       0.00162284 -0.0004958719 0.0012412221 0.0018364558
000130 0e e0 cd ba 1d b6 bf ba c0 d5 23 3b 21 87 a8 3a
       -0.0015707032 -0.0014626418 0.002499923 0.0012857654
000140 df 9d c2 3a 63 4d 2e 39 0b 21 a7 ba 43 aa d7 3b
       0.0014848075 0.00016622762 -0.0012750936 0.006581576
000150 16 32 7a bb d1 13 36 39 25 e5 93 3a ea 54 a4 ba
       -0.0038176826 0.00017364255 0.00112835 -0.0012537513
000160 be 3d ba ba a2 8c 56 3b c7 3d b3 39 e0 df 2d bc
       -0.0014209074 0.0032737632 0.00034187568 -0.010612458
000170 f5 ca 9c 3a 8d 51 dc 3b 18 ac b7 3a 1a ac 62 3b
       0.0011962341 0.006723589 0.001401308 0.0034587444
000180 85 8f fe bb 76 2e 61 b8 6d 78 12 ba 96 b6 bc bb
       -0.0077685737 -5.368745e-05 -0.0005587403 -0.0057590706
000190 d6 bb 7c 3b 28 79 d4 3b 5d c4 a9 bb cb 89 41 3c
       0.0038564107 0.0064841695 -0.005180879 0.011812638
0001a0 6a a0 e1 bb 4d be a7 ba c8 7d c2 3a 9a 13 74 ba
       -0.006885578 -0.0012797803 0.0014838511 -0.0009310782
0001b0 49 04 cd b8 6d 47 d3 b9 a9 22 52 b9 a2 5c 98 ba
       -9.77596e-05 -0.00040298273 -0.00020040073 -0.0011624286
0001c0 fb 1a 42 3a 21 96 84 ba bd 82 ce 39 60 84 2d ba
       0.0007404533 -0.0010115543 0.0003938879 -0.00066191517
0001d0 86 44 d2 3b 78 f6 13 3c a3 89 29 3b 5a ef fd 3b
       0.00641686 0.009030931 0.0025869391 0.00774948
0001e0 a1 d7 38 bb b4 98 ca ba 6d 2c 4e 3b 9a 58 1b 3a
       -0.0028204697 -0.0015456886 0.0031459585 0.00059259834
0001f0 99 35 80 b8 db 76 41 bb 3a b7 19 3b 49 12 b4 b9
       -6.113499e-05 -0.0029520306 0.0023455159 -0.000343459
000200 d4 0f 5f bb ab 0e 0e 3a 5e b4 e9 3c 7a 5d df 3b
       -0.0034036534 0.0005419056 0.028528389 0.006816563
000210 c8 05 8c ba 2f 73 b7 bb 9e be 94 3c 12 48 bd bb
       -0.0010682875 -0.0055984478 0.0181573 -0.0057764137
000220 09 31 da 3c 6c ff 67 3b d9 93 7d 3b 7b a3 f9 3c
       0.02663471 0.0035400046 0.003869286 0.030473461
000230 17 24 3b 3c 70 df d4 3c 10 5f 7c bd da d0 ad 3b
       0.011422179 0.02598545 -0.061614096 0.005304438
000240 eb 56 d9 bc 19 69 ea 3a 29 6a 87 bc d1 78 87 bd
       -0.026530704 0.0017884105 -0.016530113 -0.06614841
000250 e4 fc cc bc f4 c4 09 3c 5f 86 be 3c b9 e0 40 3c
       -0.025022931 0.008408774 0.023257433 0.011772328
000260 5c fe 11 bc e9 87 52 3d b2 bf 4b 3b de 48 57 3c
       -0.008910742 0.051399145 0.00310896 0.0131399315
000270 88 c9 7f 3a cc 60 1a 3d 14 c0 9a 3c 7d 42 eb 3c
       0.00097575085 0.03768997 0.018890418 0.028718228
000280 de fc 15 3d a6 ca 14 bc 23 cc d8 bb a4 ba c4 bb
       0.036618106 -0.009081518 -0.006616132 -0.0060036946
000290 56 5a 5a 3d 47 5c 8b bc 6d ee d7 bc e4 93 79 3d
       0.053308807 -0.017011775 -0.026358807 0.060932055
0002a0 df a0 17 bd 45 d8 88 bc 4d da 47 3a e9 a2 81 bb
       -0.037018653 -0.016704688 0.0007623777 -0.003956188
0002b0 a6 f4 82 3b 21 17 62 3c e2 ed 45 3a dd 7e f6 bb
       0.0039964495 0.01379946 0.0007550401 -0.0075224475
0002c0 96 30 01 bd ea 24 b4 3b c6 12 bd bb c1 62 35 bc
       -0.031540476 0.0054975646 -0.0057700602 -0.011070908
0002d0 19 dc 89 3c a4 a1 10 bd 71 dc 1a 3c 05 02 1d 3d
       0.016828584 -0.035310403 0.009451971 0.038332004
0002e0 0c f3 29 bc c8 9a 0e 3d 87 10 29 3d c6 dd 66 3b
       -0.010372888 0.03481558 0.041275527 0.0035227402
0002f0 ba 93 79 3c 9a 11 bc bc c7 75 08 3c e9 f5 19 3b
       0.015232975 -0.022957612 0.008328862 0.002349252
000300 f6 28 54 ba 1d 13 89 3a 15 eb 88 3b a9 12 65 3c
       -0.0008093262 0.0010457967 0.0041784146 0.0139815
000310 5b 8c bd bb 68 70 95 bb e5 f1 10 bc 7e b2 b8 3b
       -0.005784554 -0.004560519 -0.008846735 0.0056365123
000320 c3 67 64 bc 8f 1c b4 b9 bd 58 18 3b 7d 58 0a bc
       -0.013940754 -0.00034353553 0.0023246252 -0.008443949
000330 74 1c b4 bb 98 ec a2 3b 51 40 f7 3a 8d 9f 39 bb
       -0.005496556 0.004972052 0.0018863772 -0.002832386
000340 53 1b e2 3c 4b 26 c8 b9 7b 36 04 bb a3 00 8f 39
       0.02760092 -0.00038175503 -0.0020174074 0.0002727556
000350 28 a1 97 3b ab 64 e0 bb ca 82 9c b9 a4 6c c4 3c
       0.0046273656 -0.006847938 -0.00029852084 0.023977585
000360 96 e3 c3 ba 74 96 08 3c cd 31 a5 39 93 04 39 3c
       -0.0014945145 0.008336652 0.00031508357 0.0112925945
000370 b3 51 8e bb 9e e5 02 bc 4e 42 9d 3a 5f 6a 8e 3c
       -0.0043432354 -0.007989315 0.001199791 0.017384706
000380 bc 23 d5 bb cc e7 0e 3c 18 b3 16 bb f8 88 4c bc
       -0.006504504 0.008722257 -0.0022994932 -0.012483828
000390 c5 6b 72 3c d5 7d a2 bc 4f bd 73 b9 95 6a 5f bc
       0.014796202 -0.019835392 -0.00023244809 -0.013636251
0003a0 40 1c af 3c ae fd 27 3b ca e0 48 3c 59 9e e4 b9
       0.021375775 0.0025633383 0.012260625 -0.00043605527
0003b0 1a 30 bd 3b 39 16 eb 39 1e c8 c0 38 6d 5a 04 bb
       0.0057735564 0.0004483925 9.192548e-05 -0.00201955
0003c0 94 87 21 3c 70 0c a4 ba 89 c2 bc 3b 27 78 ee 3a
       0.0098589845 -0.0012515914 0.005760495 0.0018193767
0003d0 34 7e b4 bb be 2c ce 3b ca fb be bb 68 d1 ac bc
       -0.0055082086 0.006291955 -0.0058283554 -0.021095946
0003e0 08 3c 1e bc ce 45 96 bc b8 3c ea 37 a3 1b d2 3a
       -0.009657867 -0.018343832 2.7923248e-05 0.0016029965
0003f0 92 82 1f 3d c0 a1 cb 3c 53 d0 b2 ba b8 f7 0b 3c
       0.03894288 0.024857402 -0.0013642408 0.0085429475
