experiments/lstm/final_model_s3.pt (torch, 408006 bytes, 33 tensors)

pre_model.start_conv.weight f4 [32, 2, 1, 1]
-0.721438 -0.47249275 -0.3887293 -0.6981959 -0.059923965 -0.8506853 0.43833157 0.42857942
0.18733811 0.38974795 -0.11126961 0.3997763 -0.46103615 -0.19483091 -0.65893674 -0.2082506
-0.48089612 0.7089753 0.46255627 0.61456335 0.27254832 -0.5225817 0.6171292 -0.75090504
-0.4678295 -0.5413443 -0.32978922 0.1229989 -0.5720171 -0.6022658 -0.35369402 0.32470977
-0.53591245 -0.70927 -0.65397733 -0.338871 -0.26751187 -0.53334063 -0.39262483 0.063554995
0.1783642 -0.2546075 -0.12831724 -0.34133255 0.403694 -0.33722287 -0.53654194 -0.1287437
-0.14315408 0.81585634 0.42881206 -0.31029105 -0.157456 0.8028705 0.4563409 0.09012235
-0.3092084 0.7365142 0.35374933 -0.48704314 0.55526567 0.0010514348 -0.571667 -0.3565225
00000000: 29b0 38bf 92ea f1be 8707 c7be f7bc 32bf
00000010: d572 75bd 83c6 59bf ff6c e03e c36e db3e
00000020: 90d5 3f3e 0b8d c73e 52e1 e3bd 7baf cc3e
00000030: ee0c ecbe c181 47be 14b0 28bf a53f 55be
00000040: 0438 f6be 687f 353f 2dd4 ec3e 0654 1d3f
00000050: 748b 8b3e eac7 05bf 2efc 1d3f 503b 40bf
00000060: 5987 efbe 8a95 0abf 22da a8be d9e6 fb3d
00000070: b66f 12bf 172e 1abf 6217 b5be 5c40 a63e
00000080: 8f31 09bf b892 35bf 0f6b 27bf 8080 adbe
00000090: 51f7 88be 0389 08bf 1f06 c9be 1f29 823d
000000a0: 1ba5 363e ea5b 82be 9865 03be 24c3 aebe
000000b0: fbb0 ce3e 7aa8 acbe d05a 09bf 63d5 03be
000000c0: fc96 12be f6db 503f 418d db3e 78de 9ebe
000000d0: 253c 21be ec88 4d3f 84a5 e93e 1192 b83d
000000e0: 9050 9ebe 328c 3c3f a21e b53e b85d f9be
000000f0: e425 0e3f 4cd0 893a c558 12bf 1e8a b6be

pre_model.start_conv.bias f4 [32]
-0.49781325 -0.4401424 0.12759875 -0.49951813 0.23027264 0.25136706 0.14202802 0.5493864
-0.3790951 -0.00046890508 0.433659 0.28532308 0.11781874 0.46275878 0.17109972 0.30085102
-0.5543169 -0.5861564 -0.44920668 -6.585015e-05 0.50488627 -0.41663936 0.31268376 -0.62666625
-0.5370944 -0.2031096 -0.33567446 0.1955448 -0.61698693 0.6827375 0.079024784 0.24597111
00000000: 61e1 febe 585a e1be 3fa9 023e d7c0 ffbe
00000010: 97cc 6b3e 2fb3 803e cb6f 113e 96a4 0c3f
00000020: c118 c2be 60d7 f5b9 8d08 de3e de15 923e
00000030: f44a f13d b8ee ec3e c434 2f3e 2509 9a3e
00000040: b6e7 0dbf 590e 16bf 6bfe e5be 0819 8ab8
00000050: 3a40 013f c151 d5be 1618 a03e 336d 20bf
00000060: 057f 09bf f7fb 4fbe 86dd abbe e53c 483e
00000070: dbf2 1dbf e3c7 2e3f bfd7 a13d dadf 7b3e

pre_model.lstm.weight_ih_l0 f4 [256, 32]
0.03149637 0.06688437 0.01103929 -0.04070069 -0.024310302 0.0012443204 0.030671626 0.0072412216
0.032765202 -0.047985908 -0.028146809 -0.041598774 0.048253287 -0.023348756 0.05429431 0.030446123
0.022381598 0.026354311 0.0090028355 0.011570696 -0.005213087 0.057057407 -0.03213916 0.08345939
0.022067161 -0.04622063 0.015883043 -0.044660702 0.023651544 -0.045388885 -0.031156376 0.03294977
-0.022247726 0.0016803996 0.03014469 0.025530761 0.034613892 -0.019134272 -0.05687937 -0.0060925554
0.024323443 0.04530592 -0.038488306 -0.007868403 -0.06851178 -0.013930418 -0.013978444 0.013037044
-0.033822678 -0.014831926 0.018333426 -0.054642312 0.021640848 0.076439954 -0.03096554 0.07726693
0.01321395 0.08003656 0.0086966725 -0.04376795 0.044494305 -0.006887044 0.024044165 -0.042878177
-0.073709436 -0.082615025 -0.014708423 -0.06386218 0.04465755 0.055354126 0.023134293 0.083616525
-0.013628449 0.014277877 0.033682425 -0.0043071923 0.0056096334 0.07920949 0.013186322 0.065049924
-0.09554843 -0.082391046 -0.080179274 0.011894392 0.05789796 -0.07109855 0.021125067 -0.08239846
-0.039596286 -0.051685534 -0.0122993365 0.020906962 -0.050405588 0.06943775 -0.0014803347 0.033603225
-0.05056403 -0.03473982 -0.009931182 0.01448492 0.016552106 0.0049559884 -0.019134127 -0.0119368
-0.01896493 0.026733223 0.012495002 0.0244022 -0.023265058 -0.003913902 -0.027338544 -0.0068978425
-0.044548456 -0.046811886 -0.027642012 -0.015325911 0.01351365 -0.01739351 0.018315038 -0.03824754
-0.00563889 0.010103974 -0.0030535348 0.023951337 -0.015011411 0.021837896 0.025071828 -0.02240273
-0.0719598 -0.06551041 -0.0024109292 -0.0394219 0.034739435 0.032867175 0.005531318 0.046062186
-0.034874097 0.017525218 0.041760743 0.02519063 -0.0035792976 0.048300788 -0.0006713588 0.034549933
-0.07983438 -0.077524744 -0.061988186 -0.0042189546 0.05289618 -0.05319162 0.033546843 -0.07647075
-0.045482848 -0.021984408 -0.024388894 0.029076058 -0.057814773 0.069615334 0.016144438 0.01185783
0.04958103 0.024667043 0.028466834 -0.07366426 -0.01066051 0.014869668 0.051546607 0.09247844
0.006393023 -0.052805327 0.0110983 -0.02313384 0.057256833 0.05295301 0.07088547 0.038847096
0.029522723 0.033248004 0.008296015 0.03170774 0.017912436 -0.0063838926 -0.010719139 0.015596947
-0.033328068 -0.040769238 -0.020311981 -0.030788388 -0.022141946 0.016139982 -0.04358084 0.07067033
-0.0981812 -0.1183848 -0.03933577 -0.07524621 0.06499588 0.08087278 0.02899262 0.11010675
0.003935873 0.028677342 0.028581133 -0.029567778 -0.0016293083 0.10749554 0.007743859 0.094541416
-0.1336084 -0.1064662 -0.11254222 0.02009759 0.06588068 -0.09786358 0.015571048 -0.10271931
-0.029475385 -0.07764389 0.00623255 0.024770798 -0.044047583 0.07352977 -0.0069411104 0.03976297
-0.09697675 -0.123056 -0.03775928 -0.09380039 0.067461066 0.08951574 0.040441185 0.1354037
0.007005182 0.0217365 0.031228106 -0.037602957 0.008313037 0.124705225 0.020860355 0.10903707
-0.13827237 -0.10815422 -0.119171605 0.027722323 0.072677694 -0.10547657 0.013698701 -0.10689617
-0.035921313 -0.09147583 0.0035855896 0.020655869 -0.04932923 0.08029327 -0.015982006 0.055461332
00000000: 5602 013d acfa 883d 23de 343c c4b5 26bd
00000010: 6626 c7bc 7718 a33a 1043 fb3c c547 ed3b
00000020: ce34 063d df8c 44bd 2394 e6bc 7a63 2abd
00000030: 3da5 453d e445 bfbc b663 5e3d 266a f93c
00000040: 9d59 b73c ffe4 d73c a180 133c 0493 3d3c
00000050: 8bd2 aabb 07b5 693d 5aa4 03bd c2ec aa3d
00000060: 31c6 b43c d851 3dbd 281d 823c 24ee 36bd
00000070: e2c0 c13c b2e9 39bd a83b ffbc 57f6 063d
00000080: dd40 b6bc db40 dc3a fff1 f63c e325 d13c
00000090: 4cc7 0d3d 7abf 9cbc 58fa 68bd 0fa4 c7bb
000000a0: f541 c73c b392 393d eaa5 1dbd 79ea 00bc
000000b0: e74f 8cbd 683c 64bc d805 65bc 5399 553c
000000c0: a689 0abd 9b01 73bc fb2f 963c 9ed0 5fbd
000000d0: 2648 b13c 8d8c 9c3d 72ab fdbc 203e 9e3d
000000e0: 537f 583c 35ea a33d 7d7c 0e3c 0646 33bd
000000f0: a93f 363d b6ac e1bb 45f8 c43c 07a1 2fbd
00000100: f9f4 96bd 1132 a9bd 99fb 70bc 2dca 82bd
00000110: d6ea 363d 02bb 623d 2184 bd3c 243f ab3d
00000120: dc49 5fbc c2ed 693c 95f6 093d 5923 8dbb
00000130: 04d1 b73b 9638 a23d 710b 583c e538 853d
00000140: e5ae c3bd a3bc a8bd 0835 a4bd b2e0 423c
00000150: 6926 6d3d 1e9c 91bd 7a0e ad3c 86c0 a8bd
00000160: b72f 22bd 36b4 53bd 2883 49bc 1445 ab3c
00000170: 1776 4ebd 6135 8e3d ca07 c2ba 89a3 093d
00000180: 3a1c 4fbd 574b 0ebd 65b6 22bc 2852 6d3c
00000190: 4898 873c d865 a23b 2cbf 9cbc 9192 43bc
000001a0: 575c 9bbc a2ff da3c d6b7 4c3c 1fe7 c73c
000001b0: 5d96 bebc 3140 80bb 15f5 dfbc 4c07 e2bb
000001c0: 7178 36bd d2bd 3fbd 8071 e2bc 8819 7bbc
000001d0: 5b68 5d3c d67c 8ebc 6b09 963c 74a9 1cbd
000001e0: 70c6 b8bb 238b 253c d01d 48bb 9835 c43c
000001f0: 6cf2 75bc 63e5 b23c 6f63 cd3c ee85 b7bc
00000200: a95f 93bd 522a 86bd ae00 1ebb dc78 21bd
00000210: f04a 0e3d bb9f 063d 0f40 b53b b4ab 3c3d
00000220: 24d8 0ebd 0c91 8f3c 500d 2b3d 955c ce3c
00000230: a692 6abb 0cd7 453d 20fe 2fba 3b84 0d3d
00000240: 3580 a3bd 4bc5 9ebd 53e7 7dbd 283f 8abb
00000250: aaa9 583d 75df 59bd 6a68 093d b29c 9cbd
00000260: 394c 3abd a518 b4bc 38cb c7bc ea30 ee3c
00000270: 2fcf 6cbd 7c92 8e3d 5741 843c 5847 423c
00000280: 7a15 4b3d 8a12 ca3c 4733 e93c 4add 96bd
00000290: 6ba9 2ebc e89f 733c 8922 533d 5665 bd3d
000002a0: 907c d13b 664a 58bd a5d5 353c 2e83 bdbc
000002b0: 2486 6a3d 41e5 583d 672c 913d 221e 1f3d
000002c0: a3d9 f13c 0f2f 083d 02ec 073c fadf 013d
000002d0: 1abd 923c f92f d1bb 549f 2fbc 568a 7f3c
000002e0: 0383 08bd a5fd 26bd 5065 a6bc ee37 fcbc
000002f0: 0763 b5bc ff37 843c d381 32bd 9bbb 903d
00000300: 3a13 c9bd bb73 f2bd 8b1e 21bd af1a 9abd
00000310: 8f1c 853d a1a0 a53d ee81 ed3c a67f e13d
00000320: 7ff8 803b bfec ea3c fb22 ea3c 2038 f2bc
00000330: 848e d5ba 9f26 dc3d 33c0 fd3b ee9e c13d
00000340: a4d0 08be f30a dabd 897c e6bd b3a3 a43c
00000350: 73ec 863d b36c c8bd b51d 7f3c 805e d2bd
00000360: 5d76 f1bc c303 9fbd 6b3a cc3b 21ec ca3c
00000370: 3d6b 34bd c796 963d 4172 e3bb 7fde 223d
00000380: bf9b c6bd c904 fcbd 7aa9 1abd 6b1a c0bd
00000390: 0729 8a3d 0754 b73d a8a5 253d 44a7 0a3e
000003a0: ba8b e53b bf10 b23c 16d2 ff3c 8f05 1abd
000003b0: 6833 083c 7465 ff3d 56e3 aa3c d44e df3d
000003c0: 4697 0dbe f67f ddbd 3e10 f4bd ed19 e33c
000003d0: 0bd8 943d 1a04 d8bd 8470 603c 61ec dabd
000003e0: 3a22 13bd ae57 bbbd 36fc 6a3b 7f36 a93c
000003f0: 720d 4abd cc70 a43d b2ec 82bc 6c2b 633d

pre_model.lstm.weight_hh_l0 f4 [256, 64]
-0.05018673 0.12621978 -0.03699579 -0.0049073678 -0.032815605 -0.029910557 -0.05547728 -0.05869158
-0.024357516 0.004636483 -0.028041756 0.07450595 -0.052762467 0.058384586 0.007912713 0.15397957
0.06459738 -0.010694366 -0.061436225 0.06655795 -0.010294028 0.05949786 0.04360322 0.029335903
0.025362488 -0.043637138 0.029383002 -0.012651112 0.055160932 0.032123227 -0.07995866 0.013566517
-0.1236852 0.03258781 -0.048432402 -0.110913135 -0.061136257 -0.04437576 0.040835917 0.025326503
-0.0031928013 0.038747344 -0.024258625 -0.09289477 0.031154158 -0.23394026 -0.0005744899 -0.021219235
0.0400429 -0.050293077 -0.059617426 0.0010809252 -0.027886065 -0.078904286 0.011846117 -0.066293724
-0.055255964 -0.008828885 0.052338716 0.0038062397 -0.059371404 0.042584956 -0.009109652 -0.11100154
-0.10408016 0.027266137 0.008309716 -0.039052624 0.07667223 -0.08057104 -0.014051553 0.0049478505
-0.03699544 0.016424434 -0.10904351 0.028997008 0.021920776 0.13140926 0.025939008 0.08150164
-0.10353879 0.120098606 0.005979704 -0.0028928404 0.032627467 0.0043702284 0.024994066 -0.008919257
-0.009096078 0.05039094 0.021752806 -0.02112318 0.0013024169 0.08721347 0.23500651 -0.047433846
0.115052246 -0.03760445 0.12377315 0.123582676 0.00090671564 -0.011864452 0.018998085 -0.052151464
-0.041096084 0.002218383 0.018398931 0.045508537 0.01039039 -0.1132958 -0.11520898 -0.067539245
-0.007318589 0.0032046875 0.01111831 -0.0012487427 0.025210833 -0.07516879 0.07214473 -0.0030981305
-0.019124925 -0.017608872 0.0026056094 0.0013616552 -0.16313113 0.06646097 0.024767725 -0.14541386
-0.037369676 -0.02836324 0.0011246101 -0.008686521 0.007273282 -0.011919613 -0.004339082 -0.004306239
-0.03235261 0.004137483 -0.0120567465 0.008631676 -0.0064675137 0.009635673 0.008488431 -0.0065361895
-0.0032383783 0.00079968217 -0.003909153 0.0014599008 0.011056933 0.000687806 -0.0038904308 -0.005077479
-0.000562738 0.015032427 -0.00077183504 0.00029980895 -0.0021491637 0.012247931 0.061024033 -0.018047143
0.06395677 -0.0044961357 0.054074693 0.019367747 -0.0029609806 0.0035540739 0.0109846415 -0.017036643
-0.009233571 -0.006724069 0.008405876 0.015255527 -0.011172405 0.026487414 -0.016616357 -0.0102681685
-0.0064086365 0.0099417325 -0.0035805316 -0.0058382866 0.0027496752 -0.018179482 0.016875306 -0.0022115675
0.0036201903 -0.006298669 0.004558574 -0.005526607 -0.021033492 -0.0024472522 0.002979088 0.032785263
-0.0005719647 -0.019865485 -0.0067918384 -0.010107741 0.00576598 -0.010802817 -0.007694676 -0.004967562
0.024965031 0.018949648 -0.020356774 0.01080338 -0.0014184673 -0.023159519 0.020159466 -0.026434038
-0.014098109 0.013990205 -0.00530146 0.005402639 0.031180682 0.007078158 0.0035980016 -0.01442971
0.008591409 -0.009253397 -0.01304546 0.011240351 0.0016483036 0.011867166 0.01920466 0.0077290656
0.011365047 -0.00027781233 0.0012990361 0.027881386 -0.005705506 -0.002670899 -0.00980892 0.037259918
0.005251771 -0.0072270236 0.00911286 0.0054536904 -0.01698459 -0.0006630313 -0.00015846736 -0.024155846
-0.0039593736 0.013938957 -0.0063718897 0.0030887607 0.011419462 0.012057791 0.0020724211 -0.006879226
-0.0011599622 0.023805035 0.008214366 -0.022966985 0.012129975 0.007412237 -0.0074853855 -0.02719562
00000000: 9a90 4dbd c23f 013e e688 17bd fccd a0bb
00000010: a869 06bd fc06 f5bc 253c 63bd 9566 70bd
00000020: 6a89 c7bc a3ed 973b d3b7 e5bc 9396 983d
00000030: 751d 58bd ad24 6f3d 53a4 013c d2ac 1d3e
00000040: a24b 843d 6c37 2fbc 8da4 7bbd 894f 883d
00000050: 48a8 28bc 07b4 733d 4a99 323d d951 f03c
00000060: fec4 cf3c dbbc 32bd 9fb4 f03c 9c46 4fbc
00000070: 6ef0 613d a593 033d 5ec1 a3bd 1946 5e3c
00000080: ab4e fdbd cc7a 053d 0e61 46bd 6d26 e3bd
00000090: 036a 7abd 5bc3 35bd 9043 273d 8779 cf3c
000000a0: 513e 51bb 89b5 1e3d 06ba c6bc 9d3f bebd
000000b0: 0137 ff3c 098e 6fbe 5d99 16ba f6d3 adbc
000000c0: 0604 243d 1d00 4ebd 6731 74bd d5ad 8d3a
000000d0: 5171 e4bc 9298 a1bd 3716 423c 01c5 87bd
000000e0: 1454 62bd 07a7 10bc 1f61 563d 1b72 793b
000000f0: 6e2f 73bd 906d 2e3d a640 15bc c754 e3bd
00000100: fb27 d5bd 3c5d df3c 7a25 083c a5f5 1fbd
00000110: 5506 9d3d 6e02 a5bd 7c38 66bc 9421 a23b
00000120: 8888 17bd 898c 863c 3452 dfbd 228b ed3c
00000130: 3393 b33c 2690 063e 0b7e d43c 55ea a63d
00000140: 250c d4bd 42f6 f53d 65f1 c33b cf95 3dbb
00000150: 61a4 053d 2234 8f3b 5bc0 cc3c 1322 12bc
00000160: b707 15bc bb66 4e3d f132 b23c 850a adbc
00000170: dcb5 aa3a fa9c b23d 8ca5 703e fe49 42bd
00000180: 83a0 eb3d 2007 1abd c77c fd3d ea18 fd3d
00000190: a8b0 6d3a 1e63 42bc dfa1 9b3c c69c 55bd
000001a0: 5e54 28bd 4a62 113b 5bb9 963c 2967 3a3d
000001b0: 743c 2a3c a107 e8bd b0f2 ebbd 0452 8abd
000001c0: c6d0 efbb bc05 523b 9229 363c daac a3ba
000001d0: f386 ce3c 18f2 99bd 9ec0 933d 010a 4bbb
000001e0: e0ab 9cbc 7b40 90bc dfc2 2a3b 9179 b23a
000001f0: d90b 27be b01c 883d afe5 ca3c 5fe7 14be
00000200: f210 19bd 075a e8bc a767 933a e951 0ebc
00000210: b654 ee3b 7b4a 43bc dc2e 8ebb 5a1b 8dbb
00000220: 2c84 04bd b993 873b a989 45bc e06b 0d3c
00000230: 70ed d3bb f1de 1d3c 0f13 0b3c 882d d6bb
00000240: f93a 54bb c3a1 513a 5a18 80bb 245a bf3a
00000250: 2328 353c e14d 343a 99f6 7ebb fb60 a6bb
00000260: b584 13ba 924a 763c f954 4aba ad2f 9d39
00000270: fcd8 0cbb 8cab 483c 56f4 793d 9ad7 93bc
00000280: c4fb 823d 5254 93bb 6d7d 5d3d 1ca9 9e3c
00000290: 030d 42bb 77eb 683b edf8 333c 6e90 8bbc
000002a0: 6748 17bc 9455 dcbb cdb8 093c 51f2 793c
000002b0: 770c 37bc 22fc d83c 071f 88bc d23b 28bc
000002c0: 8aff d1bb a6e2 223c 5aa7 6abb 194f bfbb
000002d0: e533 343b 23ed 94bc 153e 8a3c f2ef 10bb
000002e0: b740 6d3b 1165 cebb 1760 953b 8a18 b5bb
000002f0: 6e4e acbc 1462 20bb ce3c 433b d749 063d
00000300: e7ef 15ba f1bc a2bc 128e debb f09a 25bc
00000310: 8cf0 bc3b 4cfe 30bc 9f23 fcbb eec6 a2bb
00000320: 7783 cc3c 4b3c 9b3c 40c3 a6bc a900 313c
00000330: ddeb b9ba 08b9 bdbc 7725 a53c 328c d8bc
00000340: c1fb 66bc 2c37 653c dfb7 adbb 9f08 b13b
00000350: a16e ff3c e5ef e73b 73cc 6b3b 976a 6cbc
00000360: fbc2 0c3c 8f9b 17bc a0bc 55bc 7329 383c
00000370: e40b d83a 806e 423c 1753 9d3c 1a44 fd3b
00000380: 7634 3a3c 57a7 91b9 6b44 aa3a 8167 e43c
00000390: 41f5 babb 400a 2fbb 98b5 20bc db9d 183d
000003a0: 0c17 ac3b abd0 ecbb 1b4e 153c dfb4 b23b
000003b0: 4423 8bbc 47cf 2dba 422a 26b9 7be2 c5bc
000003c0: a2bd 81bb 3960 643c 49cb d0bb ce6c 4a3b
000003d0: b218 3b3c 0b8e 453c 75d1 073b 216b e1bb
000003e0: df09 98ba c702 c33c 8c95 063c 4225 bcbc
000003f0: cdbc 463c 5ae2 f23b f747 f5bb 59c9 debc

pre_model.lstm.bias_ih_l0 f4 [256]
0.021516718 -0.022433676 0.1416815 0.019771209 0.10678121 0.051761217 0.18285067 0.20584214
0.16692664 0.0006316703 0.09758385 0.18442023 0.18263124 0.105747595 -0.02458466 0.07606166
0.08234729 0.20191106 0.19231832 0.18099435 -0.044588763 0.1721196 0.11447022 0.032731395
0.13812017 -0.011392976 0.052167155 0.017668957 0.14159785 0.05413677 0.026637906 0.023325488
0.031814814 0.0983917 0.03638049 0.085597105 0.1943955 0.108773716 0.117323935 -0.099315345
0.040148355 0.06942346 0.040845953 0.09838681 0.022464888 0.0030958387 0.057270724 -0.09487337
0.08801281 0.06750285 0.20476016 0.03660889 0.10023828 0.076707795 0.11596716 0.18363184
0.12325888 -0.0035393704 0.19656123 -0.010550676 0.1318412 0.05758603 0.11387269 0.12405981
0.11144445 0.1669926 -0.042083066 -0.03217709 -0.020277306 -0.02771429 -0.04658857 -0.03286383
0.1032478 -0.020417623 0.0984166 0.08340187 -0.028759507 0.012626725 -0.03940207 -0.078473635
0.023618925 0.16998746 -0.037383012 -0.050213393 -0.026014213 -0.0459776 -0.04767218 -0.038137313
-0.057233375 -0.011283803 -0.03949933 -0.027999913 -0.04591161 -0.02051233 0.20452458 -0.008383661
0.13093422 -0.046269607 0.04226846 0.25266457 -0.044390507 -0.04073556 0.08033549 -0.056368824
0.027321257 -0.05115591 -0.0438743 0.11446144 -0.02492252 0.09506276 0.0036874572 0.08247247
-0.041740075 -0.035376396 -0.040995028 -0.020732436 0.031742282 0.056370087 0.016101157 -0.0503328
-0.04782423 0.018194186 -0.043526422 -0.031817082 0.044388052 -0.017911524 -0.044394918 0.14979734
0.0014271729 -0.03945219 0.032195695 -0.027654005 -0.018849365 -0.03540281 0.031478085 -0.08876911
0.1632159 0.0128269205 0.04514805 0.037863124 -0.09420003 0.011039518 0.045728646 0.033762902
-0.069802105 -0.041339062 -0.09858296 -0.042786576 0.031311657 0.069310464 0.08975526 -0.033398475
0.06808958 0.015013575 0.077696316 -0.09209396 0.023987124 -0.103049785 0.056627292 -0.108420804
0.072461314 -0.02809595 0.020872565 -0.022278136 -0.019515608 -0.028085785 0.03592819 0.03430818
0.0474599 0.067171864 -0.038375262 -0.06688435 0.029969687 0.13715784 0.08300438 0.041213747
-0.05609334 0.06411097 0.0583927 0.04093827 -0.0675439 -0.0028675653 0.053443883 0.0051117865
0.01714504 0.054840032 0.060723193 -0.014740034 0.11318134 -0.031073099 0.05705389 -0.04693796
0.057069406 0.09041376 0.15690902 0.017821027 0.11723026 0.061312318 0.19794068 0.22097608
0.10172014 0.01366781 0.013445983 0.23050182 0.19336936 0.113604575 0.025884805 0.038900305
0.104216784 0.075351134 0.2062232 0.19773063 0.022804957 0.18824431 0.12216753 0.06993949
0.15016997 0.025713129 0.06705007 0.009240914 0.15794848 0.074624255 0.09271084 0.007826271
0.008778695 0.10860915 0.03345113 0.10697511 0.20689489 0.122782506 0.11955806 -0.036517143
-0.028447932 0.09160273 0.06610698 0.066749305 0.07322687 0.041437767 0.062315356 0.038782958
0.10388454 0.09580886 0.21951193 -0.011888441 0.102275 0.08621987 0.13387135 0.19986612
0.13992739 0.0372928 0.2105669 0.055134144 0.14918825 0.124264956 0.12242389 0.11202895
00000000: d443 b03c d4c6 b7bc f514 113e 3bf7 a13c
00000010: 1bb0 da3d 9203 543d 353d 3b3e 48c8 523e
00000020: d1ee 2a3e ad96 253a 0bda c73d a8d8 3c3e
00000030: af03 3b3e 3292 d83d c565 c9bc 37c6 9b3d
00000040: b2a5 a83d c6c1 4e3e 18ef 443e 9556 393e
00000050: b5a2 36bd 1f40 303e 5d6f ea3d 5b11 063d
00000060: 606f 0d3e 9ba9 3abc 3aad 553d 7dbe 903c
00000070: 07ff 103e 85be 5d3d bd37 da3c 1815 bf3c
00000080: 4050 023d 9681 c93d b503 153d 894d af3d
00000090: 9d0f 473e c1c4 de3d 8847 f03d d865 cbbd
000000a0: 9a72 243d e32d 8e3d 164e 273d 067f c93d
000000b0: 4908 b83c 8ee3 4a3b b594 6a3d f84c c2bd
000000c0: 0f40 b43d ef3e 8a3d a6ac 513e 34f3 153d
000000d0: ba49 cd3d fa18 9d3d 3180 ed3d fc09 3c3e
000000e0: 276f fc3d c8f4 67bb 5947 493e bedc 2cbc
000000f0: 6101 073e 54df 6b3d 1636 e93d 1213 fe3d
00000100: fd3c e43d 1c00 2b3e 4b5f 2cbd 20cc 03bd
00000110: 981c a6bc 1409 e3bc a8d3 3ebd 399c 06bd
00000120: 9573 d33d dc42 a7bc a48e c93d 9ace aa3d
00000130: 0f99 ebbc 53e0 4e3c 1164 21bd c9b6 a0bd
00000140: 7a7c c13c 3111 2e3e ee1e 19bd 8fac 4dbd
00000150: c21b d5bc 0253 3cbd e743 43bd df35 1cbd
00000160: 8b6d 6abd b3df 38bc 0dca 21bd 1360 e5bc
00000170: d00d 3cbd 7909 a8bc e46e 513e 9f5b 09bc
00000180: 9f13 063e 3385 3dbd b121 2d3d 405d 813e
00000190: d2d2 35bd 55da 26bd ef86 a43d ffe2 66bd
000001a0: d4d0 df3c dc88 51bd 8ab5 33bd c26a ea3d
000001b0: 502a ccbc 44b0 c23d 44a9 713b 54e7 a83d
000001c0: a4f7 2abd d7e6 10bd 67ea 27bd 12d7 a9bc
000001d0: 3204 023d 52e4 663d 93e6 833c c429 4ebd
000001e0: 57e3 43bd f90b 953c c348 32bd a152 02bd
000001f0: 3fd0 353d 30bb 92bc 72d7 35bd 7964 193e
00000200: fa0f bb3a 9f98 21bd a2df 033d a78a e2bc
00000210: fc69 9abc 8902 11bd 2aef 003d 94cc b5bd
00000220: 1222 273e 0128 523c 29ed 383d 5d16 1b3d
00000230: f2eb c0bd 18df 343c f64d 3b3d f84a 0a3d
00000240: 68f4 8ebd 2653 29bd dde5 c9bd fa40 2fbd
00000250: a740 003d a5f2 8d3d 9bd1 b73d d7cc 08bd
00000260: 8d72 8b3d 7ffb 753c 3f1f 9f3d c29b bcbd
00000270: a580 c43c c40b d3bd 05f2 673d ba0b debd
00000280: 9966 943d 7a29 e6bc f1fc aa3c a380 b6bc
00000290: 32df 9fbc 2914 e6bc 7029 133d bc86 0c3d
000002a0: 5065 423d 6791 893d 612f 1dbd a9fa 88bd
000002b0: fd82 f53c 1b73 0c3e 33fe a93d bfcf 283d
000002c0: 21c2 65bd 9d4c 833d 2f2d 6f3d e3ae 273d
000002d0: 7554 8abd c3ed 3bbb f9e7 5a3d c680 a73b
000002e0: c173 8c3c f19f 603d e2b8 783d 2f80 71bc
000002f0: 9ecb e73d 038d febc 57b1 693d 0542 40bd
00000300: 9cc1 693d d92a b93d c2ac 203e 67fd 913c
00000310: 6b16 f03d a022 7b3d f6b0 4a3e 8e47 623e
00000320: a652 d03d f3ee 5f3c 8a4c 5c3c ab08 6c3e
00000330: 9e02 463e 84a9 e83d 5f0c d43c ed55 1f3d
00000340: 9c6f d53d b251 9a3d 2d2c 533e e679 4a3e
00000350: 76d1 ba3c 1ec3 403e f832 fa3d 6f3c 8f3d
00000360: 28c6 193e 57a4 d23c 8c51 893d 3467 173c
00000370: 3fbd 213e 9ad4 983d 2edf bd3d c239 003c
00000380: 84d4 0f3c 796e de3d 0d04 093d c415 db3d
00000390: 41dc 533e 6575 fb3d dbda f43d 0093 15bd
000003a0: a30b e9bc 369a bb3d 1963 873d dcb3 883d
000003b0: f8f7 953d a6ba 293d 633e 7f3d e1da 1e3d
000003c0: 6bc1 d43d 7037 c43d bcc7 603e bcc7 42bc
000003d0: 8e75 d13d 0b94 b03d 9215 093e b4a9 4c3e
000003e0: 2049 0f3e 56c0 183d d99e 573e 57d4 613d
000003f0: cec4 183e a07e fe3d 60b9 fa3d 6f6f e53d

pre_model.lstm.bias_hh_l0 f4 [256]
-0.056765255 0.042903688 0.1416581 0.021529473 0.107108064 0.04860819 0.18282068 0.20584692
0.12399824 -0.008964874 0.12279399 0.18457556 0.1830578 0.10679573 -0.023362484 0.078033045
0.06974737 0.08204376 0.19237596 0.18099433 -0.033420086 0.17211886 0.09989377 0.032270093
0.13878615 0.06889352 0.055883836 0.010884284 0.141605 0.058369484 0.081263006 0.0060330797
0.08337475 0.098409995 0.00712334 -0.008395188 0.19431569 0.10876654 0.11608005 -0.08898073
0.0026054862 0.06887233 0.04020378 0.0055137225 0.020196246 0.012365693 0.05867657 -0.05431638
0.08798185 0.06760936 0.2047602 0.044351544 0.09960621 0.07814001 0.116001606 0.18363215
0.12325849 -0.0016270542 0.196559 -0.03367445 0.13218087 0.059420828 0.11386361 0.14321932
0.11260946 0.19879481 -0.042235713 -0.029532949 -0.021422874 -0.023679554 -0.046150398 -0.03263423
0.116373755 -0.0029493342 0.09104751 0.085731834 -0.029123852 0.020776218 -0.03935454 0.0082369475
0.023199849 0.18239568 -0.03835925 -0.050226185 -0.040606465 -0.04598365 -0.05944367 -0.03828643
-0.05809786 0.09004349 -0.03483341 -0.026996428 -0.04591349 -0.021820849 0.11964714 0.063134946
0.10339213 -0.046515666 0.04889252 0.24119166 -0.044280745 -0.040721957 0.084209025 -0.055621836
0.0020174473 -0.050924238 -0.043015808 0.07704858 -0.02346524 0.08996081 -0.008138486 0.034591876
-0.041800074 -0.035902012 -0.040972814 0.053398386 0.028596384 0.05860303 0.02049883 -0.050332073
-0.047829084 -0.029054904 -0.043483324 -0.036564626 0.045567352 -0.012871043 -0.044395376 0.14454164
-0.04657903 0.05707734 -0.062491752 0.058277883 0.061578672 -0.023785796 0.04356744 -0.020428775
-0.074760295 0.007280884 -0.10124106 -0.04429335 0.0793396 -0.050998256 0.035255965 -0.1623613
0.05907238 0.0010292892 0.058984745 0.038485672 0.07411969 -0.08316473 0.019426016 -0.0020791981
-0.048520897 0.08558836 0.02092645 0.074083425 0.07696195 0.046063997 0.017399961 -0.0375577
0.020103326 -0.05187813 -0.05439162 -0.06823761 0.014271624 0.018507246 0.0028981573 -0.0181559
-0.043736864 0.06001163 -0.13050583 0.0273691 -0.014629036 0.14460994 -0.03769793 0.08661933
-0.012038043 -0.016299786 -0.13437028 0.030606063 -0.0039774254 -0.006505188 0.021139998 0.0029582677
-0.059497297 -0.069378644 0.003115678 -0.012327795 0.09192321 -0.052216817 0.022215841 -0.02455037
0.05131205 0.14713995 0.15704425 0.030627333 0.11687859 0.058587175 0.19797094 0.2209789
0.23394868 0.0047638584 0.026537804 0.23055471 0.19303724 0.11456511 -0.00120919 0.057394043
0.10353495 0.018874656 0.20619525 0.19773051 0.010164027 0.18824296 0.1281953 0.06997794
0.15061721 0.064436354 0.07015609 0.023058636 0.15794142 0.071038075 0.1674093 0.010163577
0.1793998 0.1086348 0.103236206 0.061900597 0.20647392 0.12279053 0.115521476 0.0036609739
0.062210914 0.09172829 0.06665554 0.14456794 0.06942318 0.023299076 0.060900472 0.0031377336
0.10388513 0.09692319 0.21951279 0.07739966 0.09475534 0.09447311 0.13092023 0.19986656
0.13992742 0.034259707 0.21056664 0.042768728 0.14781873 0.12272997 0.12241159 0.06869286
00000000: af82 68bd c7bb 2f3d d20e 113e 945e b03c
00000010: 795b db3d 6219 473d 5835 3b3e 89c9 523e
00000020: caf2 fd3d 68e1 12bc 6a7b fb3d 6001 3d3e
00000030: 8173 3b3e b8b7 da3d ae62 bfbc cacf 9f3d
00000040: b6d7 8e3d 8f06 a83d 34fe 443e 9456 393e
00000050: 80e3 08bd ed3f 303e 1b95 cc3d a52d 043d
00000060: f51d 0e3e 0c18 8d3d 73e6 643d ff53 323c
00000070: e700 113e d714 6f3d 386d a63d 24b1 c53b
00000080: 62c0 aa3d 2e8b c93d e86a e93b f88b 09bc
00000090: b1fa 463e fec0 de3d 61bb ed3d 873b b6bd
000000a0: cec0 2a3b f00c 8d3d b8ac 243d 75ac b43b
000000b0: 9972 a53c 7a99 4a3c d856 703d da7a 5ebd
000000c0: d42f b43d c776 8a3d a8ac 513e f7a9 353d
000000d0: 57fe cb3d df07 a03d 4092 ed3d 110a 3c3e
000000e0: f26e fc3d e142 d5ba c346 493e 38ee 09bd
000000f0: 6c5a 073e 4163 733d 5331 e93d 16a8 123e
00000100: ca9f e63d de90 4b3e 5bff 2cbd 15ef f1bc
00000110: 067f afbc a0fb c1bc 3308 3dbd 78ab 05bd
00000120: 5d55 ee3d 9e49 41bb 1e77 ba3d 2c94 af3d
00000130: 2595 eebc e332 aa3c 3a32 21bd 43f4 063c
00000140: 9c0d be3c efc5 3a3e 971e 1dbd f9b9 4dbd
00000150: f752 26bd 5a59 3cbd 357b 73bd 3bd2 1cbd
00000160: 06f8 6dbd b968 b83d 7aad 0ebd 9d27 ddbc
00000170: c90f 3cbd a3c1 b2bc 8f09 f53d e54c 813d
00000180: 41bf d33d 3687 3ebd 8643 483d f2fa 763e
00000190: ba5f 35bd 11cc 26bd c875 ac3d b9d3 63bd
000001a0: 2637 043b ef95 50bd 5831 30bd a5cb 9d3d
000001b0: 2d3a c0bc 603d b83d 4957 05bc 36b0 0d3d
000001c0: 8e36 2bbd fd0d 13bd 1cd3 27bd 44b8 5a3d
000001d0: f742 ea3c bb09 703d 2aed a73c 0129 4ebd
000001e0: 6ee8 43bd 8d04 eebc 921b 32bd cac4 15bd
000001f0: d5a4 3a3d 11e1 52bc edd7 35bd b902 143e
00000200: a7c9 3ebd eec9 693d 5af7 7fbd cab4 6e3d
00000210: eb39 7c3d 6eda c2bc c673 323d 3f5a a7bc
00000220: ed1b 99bd 7b94 ee3b 7957 cfbd f26c 35bd
00000230: cd7c a23d 8ce3 50bd 8f68 103d 0a42 26be
00000240: e1f5 713d 37e9 863a fd99 713d 27a3 1d3d
00000250: 10cc 973d 4552 aabd 4f23 9f3c 2843 08bb
00000260: d9bd 46bd f348 af3d f26d ab3c 0db9 973d
00000270: 3a9e 9d3d 9aad 3c3d 5d8a 8e3c 1ad6 19bd
00000280: bbaf a43c 297e 54bd bfc9 5ebd 29c0 8bbd
00000290: 88d3 693c 829c 973c 03ef 3d3b afbb 94bc
000002a0: 6d25 33bd c1ce 753d 52a3 05be 2a35 e03c
000002b0: a0ae 6fbc a114 143e 2569 1abd 7a65 b13d
000002c0: 363b 45bc 2187 85bc 5d98 09be 91b9 fa3c
000002d0: 1055 82bb 7929 d5bb ca2d ad3c 7fdf 413b
000002e0: 70b3 73bd 6416 8ebd 6730 4c3b 85fa 49bc
000002f0: 3c42 bc3d 4de1 55bd fffd b53c dc1d c9bc
00000300: 962c 523d dbab 163e 35d0 203e 2ce6 fa3c
00000310: 0b5e ef3d 1bf9 6f3d e5b8 4a3e 4b48 623e
00000320: 3e90 6f3e 241a 9c3b cf65 d93c 8916 6c3e
00000330: 8eab 453e 1da1 ea3d af7d 9eba 0416 6b3d
00000340: 220a d43d 069f 9a3c d924 533e de79 4a3e
00000350: 0587 263c c3c2 403e a145 033e 9850 8f3d
00000360: 663b 1a3e 35f7 833d ffad 8f3d 77e5 bc3c
00000370: 65bb 213e 697c 913d 586d 2b3e 2285 263c
00000380: 95b4 373e ec7b de3d 816d d33d 7b8b 7d3d
00000390: e66d 533e 9a79 fb3d 8696 ec3d f3ec 6f3b
000003a0: dfd0 7e3d 0bdc bb3d b382 883d 9e09 143e
000003b0: bd2d 8e3d b4dd be3c c672 793d 6fa2 4d3b
000003c0: bac1 d43d aa7f c63d f6c7 603e b783 9e3d
000003d0: 160f c23d 1e7b c13d f40f 063e d2a9 4c3e
000003e0: 2249 0f3e e853 0c3d c89e 573e 432e 2f3d
000003f0: cb5d 173e da59 fb3d edb2 fa3d d8ae 8c3d

pre_model.lstm.weight_ih_l1 f4 [256, 64]
0.0030795115 0.007651824 0.012399998 -0.01553585 0.01363305 0.0072119613 0.013181434 0.013702747
-0.012068458 0.013680799 0.013851019 -0.0058124834 0.009249099 -0.01014399 0.0150938295 0.0038977542
0.009314967 -0.02632186 0.01071782 -0.013492816 0.011012369 -0.0132271005 -0.012567049 -0.012061487
-0.011388363 -0.01174682 -0.013764986 0.0095878355 -0.013253853 -0.00746966 -0.01500133 -0.024884565
-0.016817952 -0.012751241 -0.007443272 -0.02118475 0.011756811 0.013475271 0.024360033 -0.024561977
0.008095477 -0.014745403 0.012676832 -0.011942144 -0.009921005 -0.0045871846 -0.016776066 -0.009698295
-0.012993167 0.012357909 0.014386415 -0.0064832023 0.0046183807 -0.010347666 0.014023534 0.012003209
0.015997183 -0.01915429 -0.010194801 -0.01181634 0.011105733 -0.009442298 0.01410641 -0.009896547
-0.031698104 -0.025664434 -0.0025829347 -0.004222353 0.0060448605 0.029986138 -0.019200886 -0.023826228
-0.0058397898 -0.008106037 -0.100036405 0.04493657 -0.044941667 -0.03595476 0.00013898026 -0.05923756
0.052231018 0.069549866 -0.030759418 0.019779691 0.00045561366 0.0018067884 -0.007350457 -0.006695756
0.003441856 0.035438478 0.0009638045 -0.0021404512 -0.0058761146 -0.023519574 0.045588393 0.00030129877
0.060621426 -0.012873938 0.030536806 0.023100872 -0.01592645 0.012314052 0.027662363 -0.013325375
-0.01695434 -0.014167348 0.012066472 0.034038994 -0.00542888 0.031103216 0.03406391 0.03166685
-0.010676256 0.008479815 -0.030995768 -0.049209878 0.070154004 0.029497419 0.044605885 -0.013296973
0.016331444 -0.012384442 0.025821842 -0.0057134475 -0.002669836 0.006115887 0.0036923669 0.101804
0.05269815 -0.036407616 0.0022464907 0.022373034 -0.014052929 0.050799385 -0.002375966 -0.00335077
0.049894657 0.0030097421 -0.018422903 0.010933527 -0.0044913003 -0.06969968 -0.012568341 -0.09776663
0.03596521 0.060139976 0.0064835697 -0.006901934 0.017259626 -0.0034945314 -0.018737826 -0.01393522
-0.0050320104 0.008109771 -0.01283234 0.011134786 -0.008053171 -0.049369115 -0.006702525 -3.8972714e-05
0.048276525 -0.0017511754 -0.021270197 0.015991861 -0.0003240417 0.015133604 0.01711968 0.028171293
0.02184494 -0.015512765 0.010102731 0.0013580207 -0.011879308 0.061072078 0.051058307 0.014719521
-0.015752796 0.025763363 0.00017435082 -0.0033068804 -0.006621607 0.018698238 -0.021941658 0.0007355705
0.01321253 -0.00014772607 0.0028618048 0.0045266403 0.06689755 -0.047549296 -0.0059988857 0.074504144
0.026907759 0.0011796824 0.0010682415 0.006509033 -0.00069897616 0.009676838 0.0034865334 0.0026168132
-0.014170338 0.0024741846 0.035384215 -0.0048132245 0.0019026203 -0.005864099 -0.006174586 -0.02161871
0.0039283354 -0.037587337 0.0024902173 -0.0019633742 -0.006104829 -0.0014351598 -0.0029376235 -0.0011718918
-0.0029360426 -0.007190258 -0.0030726227 0.0056342864 -0.0011866814 -0.010996802 -0.041466597 -0.015913347
-0.008974851 0.0030198286 -0.024569783 -0.01738804 0.0019326959 0.0031356015 -0.04689237 -0.027602896
0.008805528 -0.0004776158 -0.0011279836 0.013595208 -0.0051291776 0.043496385 0.0035573642 -0.0032161027
-0.002580821 0.0024566934 0.0010129558 -0.004535608 0.0007868651 0.013024478 -0.0042669983 0.0024565016
0.0033251534 0.00025326744 -0.003453936 -0.0017226867 0.011516642 -0.012810512 -0.0015144572 0.06278713
00000000: a1d1 493b 27bc fa3b 5c29 4b3c 148a 7ebc
00000010: 285d 5f3c 5152 ec3b f1f6 573c 7d81 603c
00000020: c8ba 45bc 6e25 603c 62ef 623c a576 bebb
00000030: 8889 173c fa32 26bc 1c4c 773c 7771 7f3b
00000040: ce9d 183c f1a0 d7bc cc99 2f3c f910 5dbc
00000050: 396d 343c 7bb6 58bc 06e6 4dbc 8b9d 45bc
00000060: 4296 3abc bc75 40bc 8986 61bc 4c16 1d3c
00000070: b026 59bc 0dc4 f4bb 23c8 75bc b7da cbbc
00000080: cdc5 89bc 95ea 50bc b1e6 f3bb a48b adbc
00000090: a49f 403c 62c7 5c3c b18e c73c 3336 c9bc
000000a0: e4a2 043c b496 71bc 7db2 4f3c fba8 43bc
000000b0: b68b 22bc 1850 96bb f66d 89bc 99e5 1ebc
000000c0: 4be1 54bc d478 4a3c ffb4 6b3c 0b71 d4bb
000000d0: c955 973b 4289 29bc f7c2 653c 1ca9 443c
000000e0: 860c 833c 75e9 9cbc 1808 27bc 5299 41bc
000000f0: d2f4 353c deb3 1abc 921e 673c 2025 22bc
00000100: dfd5 01bd 383e d2bc 7446 29bb aa5b 8abb
00000110: f713 c63b 7da5 f53c 2d4b 9dbc 392f c3bc
00000120: b55b bfbb 2fcf 04bc e3df ccbd 690f 383d
00000130: c114 38bd 4c45 13bd 3bbb 1139 15a3 72bd
00000140: 31f0 553d 2970 8e3d 2dfb fbbc 0509 a23c
00000150: 6edf ee39 c2d1 ec3a 1adc f0bb 1368 dbbb
00000160: c390 613b f027 113d d3a7 7c3a d046 0cbb
00000170: 6c8c c0bb 1fac c0bc e5ba 3a3d a3f7 9d39
00000180: 2c4e 783d 36ed 52bc 5328 fa3c 0a3e bd3c
00000190: 3078 82bc e1c0 493c 2e9c e23c ac52 5abc
000001a0: d4e3 8abc 2a1e 68bc 74b2 453c 796c 0b3d
000001b0: bfe4 b1bb 2ccc fe3c 9986 0b3d 19b5 013d
000001c0: 77eb 2ebc ecee 0a3c d6ea fdbc 4c90 49bd
000001d0: e7ac 8f3d 92a4 f13c a9b4 363d 8cdb 59bc
000001e0: 85c9 853c 1de8 4abc 5488 d33c df37 bbbb
000001f0: 6af8 2ebb c767 c83b a3fb 713b 9e7e d03d
00000200: 04da 573d 2720 15bd dc39 133b a747 b73c
00000210: 423e 66bc 0413 503d 18b6 1bbb 9898 5bbb
00000220: 575e 4c3d 183f 453b a1eb 96bc 8922 333c
00000230: c22b 93bb b5be 8ebd 71eb 4dbc df39 c8bd
00000240: 4250 133d 5655 763d 2074 d43b 9e29 e2bb
00000250: 0f64 8d3c 8204 65bb 1280 99bc 8d50 64bc
00000260: 90e3 a4bb d8de 043c bc3e 52bc ad6e 363c
00000270: 73f1 03bc 4537 4abd dba0 dbbb a276 23b8
00000280: 9bbd 453d b287 e5ba d63e aebc 5d01 833c
00000290: 24e4 a9b9 f0f2 773c 923e 8c3c 7cc7 e63c
000002a0: 29f4 b23c 4129 7ebc ed85 253c 9dff b13a
000002b0: 6ea1 42bc b726 7a3d 8422 513d 252a 713c
000002c0: 020c 81bc b00d d33c f1d1 3639 3fb8 58bb
000002d0: 11fa d8bb 0c2d 993c febe b3bc 4dd3 403a
000002e0: 5e79 583c eae6 1ab9 1e8d 3b3b 3654 943b
000002f0: 9501 893d 0dc3 42bd 4d92 c4bb a195 983d
00000300: a96d dc3c 939f 9a3a 3d04 8c3a ba49 d53b
00000310: 7f3b 37ba 9a8b 1e3c 537e 643b d77e 2b3b
00000320: b52a 68bc ee25 223b 0aef 103d 41b8 9dbb
00000330: 5861 f93a a127 c0bb 2e54 cabb b919 b1bc
00000340: 44b9 803b 2ef5 19bd ea32 233b f4ab 00bb
00000350: 040b c8bb f91b bcba 2585 40bb 2a9a 99ba
00000360: 9f6a 40bb 419c ebbb 0e5e 49bb d29f b83b
00000370: 6c8a 9bba ee2b 34bc e1d8 29bd b55c 82bc
00000380: 410b 13bc 51e8 453b 9246 c9bc 5d71 8ebc
00000390: 8352 fd3a aa7e 4d3b 3712 40bd 781f e2bc
000003a0: 1045 103c 8268 fab9 d9d8 93ba 6fbe 5e3c
000003b0: a912 a8bb 4429 323d ab22 693b 40c5 52bb
000003c0: fe22 29bb 7a00 213b 28c5 843a 709f 94bb
000003d0: 9f45 4e3a 9f64 553c 2dd2 8bbb 42fd 203b
000003e0: d1ea 593b fbc8 8439 6e5b 62bb c6cb e1ba
000003f0: 4cb0 3c3c 2fe3 51bc c080 c6ba 8a96 803d

pre_model.lstm.weight_hh_l1 f4 [256, 64]
0.008397307 -0.013305826 -0.011915859 0.00035838512 0.0065613207 0.0060086153 -0.0039440035 -0.014344211
-0.005183967 0.0051127938 0.017854221 0.00073891977 -0.0046731606 0.005833882 -0.00088064885 -0.0026754667
0.015102875 -0.019502208 0.0093884 0.009567005 -0.008934114 -0.006200971 -0.0076669347 0.003322979
-0.0014036866 0.002321087 0.018969046 0.013488624 -0.001100474 -0.00352327 0.0106921485 0.0017633059
-0.002126232 4.8113114e-05 -0.0045594373 -0.008901943 0.0130064 0.002659564 -0.0024820704 0.0023328408
-0.001513709 0.01136059 -0.005990074 0.012689384 -0.0016979465 0.002451698 0.012329164 -0.0026297546
-0.0053904117 -0.006672326 -0.01044626 0.00063571363 0.0025956305 -0.004484536 0.00045191584 -0.0063876915
-0.0018676515 0.0069607575 -0.0119115235 -0.002591568 0.0044516185 -0.012379525 -0.0072479243 -0.004454322
0.025803404 0.0020913717 -0.01918611 -0.018972803 0.00080890383 -0.0046113525 -0.037557043 -0.07792229
-0.026859835 0.018527167 0.027858641 -0.10655876 -0.0042635594 0.012142411 0.008108732 -0.012843874
0.025697572 -0.10340542 -0.05626311 -0.08852219 0.023762409 0.03828718 0.03926691 0.016758647
0.007560205 0.010900832 0.073184505 -0.009922107 -0.0029476315 -0.037503894 0.04664037 -0.0014904643
-0.011708961 0.0021061294 0.079581566 -0.00888819 -0.016508644 0.011551879 1.876009e-05 0.00036051037
0.0015829417 0.043145712 -0.016270386 0.003925721 0.007486952 -0.026618946 0.0016662289 0.019956509
0.04137184 -0.054406047 -0.03560646 0.0017196904 0.06839303 -0.025716476 -0.0028889996 -0.034516905
-0.0040072384 0.037179552 -0.053021785 -0.016488777 0.066412896 0.009074866 -0.1411213 -0.009590479
0.00387883 0.022783447 -0.016816175 0.0048560384 0.03009791 0.0123834135 -0.008384123 -0.036748607
0.02211337 0.047717303 0.036200475 -0.05440987 0.052810334 0.015982518 -0.0017754787 0.0013609084
-0.050917663 -0.035404082 -0.011389168 -0.028053483 -0.017814986 0.027531678 0.010411606 -0.06975657
0.0021335662 -0.016873293 -0.007352319 -0.005393101 0.0016387533 -0.046091326 0.0020645894 0.00373323
-0.0084591955 0.0076520047 0.007461269 0.0064845798 0.005570706 -0.006427753 -0.0027981377 0.004930769
0.0017255798 -0.02447608 -0.018752147 0.024724834 -0.005714836 -0.015568154 0.019387934 0.019534236
0.0713792 -0.027931705 0.01166508 -0.005745058 0.027364982 -0.003680759 -8.7614484e-05 0.014029977
-0.007043255 -0.01567771 -0.033059794 0.045092043 0.020030752 0.010102322 -0.03514019 -0.047078717
-0.004869381 -0.013609357 0.008909263 0.0014222038 -0.008296007 7.714174e-05 0.005257147 -0.018686457
0.00458285 0.007765839 0.041599873 0.011508647 -0.008023463 -0.010080104 -0.010046191 0.0058717397
0.03228333 0.017219536 0.020242473 0.031338796 -0.009854666 -0.0057011764 -0.022505363 0.0069433353
0.0015316716 -0.0062942943 -0.0033996655 0.014760048 0.0066578193 0.0008262397 -0.0104238605 -0.0007510589
2.1339318e-05 0.00066818384 0.002196061 0.0011038564 0.0064590583 -0.0013705218 0.00031033612 0.00095525413
0.00022327504 -0.0191246 -0.0062056147 0.011659504 -0.0007802668 -0.003206866 0.011977118 -0.0019848745
-0.019288966 -0.00069218065 -0.011055626 -0.000431307 -0.006934476 0.0018331968 0.00091928436 0.0050770035
-0.0014731658 -0.0034951004 0.00990577 -0.0031474167 -0.022442633 -0.012876997 -0.0038733396 -0.005113633
00000000: dc94 093c ae00 5abc bc3a 43bc a3e5 bb39
00000010: 5900 d73b ebe3 c43b b33c 81bb fb03 6bbc
00000020: 44de a9bb 3989 a73b 0443 923c 11b4 413a
00000030: 5021 99bb 262a bf3b 58db 66ba e256 2fbb
00000040: 0d72 773c 18c3 9fbc ced1 193c edbe 1c3c
00000050: 6460 12bc 8431 cbbb e93a fbbb 56c6 593b
00000060: e8fb b7ba 611d 183b f964 9b3c 64ff 5c3c
00000070: c83d 90ba a9e6 66bb 1f2e 2f3c ba1e e73a
00000080: 4158 0bbb 10cd 4938 5567 95bb 75d9 11bc
00000090: cc18 553c 144c 2e3b 3baa 22bb 93e2 183b
000000a0: a567 c6ba c521 3a3c 6248 c4bb 22e7 4f3c
000000b0: a18d deba abac 203b 4300 4a3c f657 2cbb
000000c0: 0da2 b0bb 87a3 dabb ca26 2bbc 05a6 263a
000000d0: 741b 2a3b 04f3 92bb 1eef ec39 d74f d1bb
000000e0: fccb f4ba 1117 e43b 8d28 43bc 4cd7 29bb
000000f0: e2de 913b 7ed3 4abc ff7f edbb 90f5 91bb
00000100: a961 d33c 650f 093b 302c 9dbc da6c 9bbc
00000110: 9e0c 543a d41a 97bb 6ad5 19bd b995 9fbd
00000120: 2809 dcbc 49c6 973c ce37 e43c 7b3b dabd
00000130: 54b5 8bbb f7f0 463c 7dda 043c 1d6f 52bc
00000140: b783 d23c 39c6 d3bd 2674 66bd 1f4b b5bd
00000150: 62a9 c23c 05d3 1c3d 57d6 203d 6e49 893c
00000160: 99bb f73b 6799 323c c2e1 953d 5590 22bc
00000170: 0d2d 41bb af9d 19bd f909 3f3d af5b c3ba
00000180: f1d6 3fbc fd06 0a3b a9fb a23d c59f 11bc
00000190: 233d 87bc 1844 3d3c fd5e 9d37 e202 bd39
000001a0: b67a cf3a 8fb9 303d 7949 85bc 56a3 803b
000001b0: 1b55 f53b fa0f dabc 5d65 da3a d57b a33c
000001c0: 8575 293d e0d8 5ebd 14d8 11bd 3c67 e13a
000001d0: a511 8c3d 5cab d2bc 5f55 3dbb 9961 0dbd
000001e0: 274f 83bb 9649 183d 5f2d 59bd 7913 87bc
000001f0: 7c03 883d bfae 143c 1a82 10be 6221 1dbc
00000200: f833 7e3b 5aa4 ba3c 13c2 89bc 671f 9f3b
00000210: e48f f63c cde3 4a3c 905d 09bc b585 16bd
00000220: 1927 b53c 3873 433d f346 143d e2dc 5ebd
00000230: a64f 583d c5ed 823c 2eb7 e8ba 8260 b23a
00000240: 0a8f 50bd df03 11bd a299 3abc 6bd0 e5bc
00000250: bcf0 91bc 1d8a e13c 7195 2a3c 88dc 8ebd
00000260: 4dd3 0b3b dc39 8abc b9eb f0bb 9cb8 b0bb
00000270: 70cb d63a 42ca 3cbd 104e 073b 35a9 743b
00000280: 7098 0abc abbd fa3b a97d f43b 997c d43b
00000290: 788a b63b e69f d2bb f660 37bb 4a92 a13b
000002a0: da2c e23a 0f82 c8bc 1a9e 99bc bc8b ca3c
000002b0: 8543 bbbb 9211 7fbc 72d3 9e3c 4306 a03c
000002c0: 422f 923d 08d1 e4bc e41e 3f3c 0a41 bcbb
000002d0: 872c e03c e438 71bb abbd b7b8 fddd 653c
000002e0: 1bcb e6bb 8a6e 80bc b569 07bd 6fb2 383d
000002f0: 8817 a43c 3684 253c 29ef 0fbd 9dd5 40bd
00000300: 548f 9fbb c8f9 5ebc 28f8 113c 3e69 ba3a
00000310: faeb 07bc 28c7 a138 2544 ac3b 5714 99bc
00000320: bb2b 963b 9478 fe3b a164 2a3d c48e 3c3c
00000330: d874 03bc 0527 25bc c798 24bc b967 c03b
00000340: 863b 043d fc0f 8d3c 8bd3 a53c 1c5d 003d
00000350: 7775 21bc efd0 babb 2b5d b8bc eb84 e33b
00000360: 5fc2 c83a 5e40 cebb eccc 5ebb 21d4 713c
00000370: d629 da3b 0298 583a d7c8 2abc b6e2 44ba
00000380: d601 b337 0f29 2f3a caeb 0f3b 46af 903a
00000390: 82a6 d33b 15a3 b3ba 9cb4 a239 056a 7a3a
000003a0: f01e 6a39 31ab 9cbc 7858 cbbb 8107 3f3c
000003b0: d28a 4cba 492a 52bb ad3b 443c ab14 02bb
000003c0: e503 9ebc 7573 35ba a822 35bc 0c21 e2b9
000003d0: 9a3a e3bb e147 f03a 21fc 703a fe5c a63b
000003e0: 3e17 c1ba 0e0e 65bb d04b 223c e444 4ebb
000003f0: 9dd9 b7bc 0afa 52bc dbd7 7dbb 4390 a7bb

pre_model.lstm.bias_ih_l1 f4 [256]
0.03949978 0.10349178 0.19544542 0.1204406 -0.057571072 -0.031462945 0.06225246 0.12656401
-0.09591006 0.1004741 0.17868137 0.056437727 0.07028049 -0.05433898 -0.11196832 0.108952135
0.1133999 0.06916698 -0.023592833 -0.027963618 -0.027411684 -0.008687709 -0.046766225 0.15794483
-0.03102104 -0.009170894 -0.0069723628 0.0075748023 0.007667053 -0.032616265 0.1341944 0.022831643
0.014461991 0.008370003 0.098739415 0.0946426 0.0033899248 0.0111419875 0.010160556 0.08954253
0.00641814 -0.023007335 0.079213664 -0.033352554 0.062384427 0.038384564 0.04733876 0.006022146
0.068850726 0.11161693 -0.020665603 0.0034752942 -0.08482874 0.08559334 7.9209785e-05 0.440986
-0.040243667 -0.06631536 -0.08343575 -0.008129621 0.014895314 0.017697994 0.055889696 0.36837608
0.056407697 0.22140253 0.22786087 -0.01461563 0.13374078 0.011553827 0.09762484 0.24762678
0.13524577 0.041811075 0.3099319 0.15461545 0.27657112 0.06332252 0.090105146 0.17649361
0.18986335 0.2695253 0.3658998 0.11097359 0.13143338 0.14850426 0.2269297 0.24310085
0.03838511 0.043583028 0.027171548 0.18720315 0.07285841 -0.001832995 0.06856842 -0.012494066
-0.0029123337 -0.0022223587 0.19066335 0.0770892 0.20549199 -0.0019167892 -0.0055939383 0.0027093287
-0.010792187 0.19582827 0.122260705 0.08156701 0.012115991 0.11441305 0.1311556 0.014235512
0.16618226 0.15834284 0.07575496 0.053610668 0.04979708 0.031545687 0.004620589 0.0031866329
-0.009890998 0.096003614 0.0799603 0.07535517 0.10172512 0.052442458 0.15111001 0.15513074
0.022381533 0.06277936 -0.051495794 0.0004894061 -0.040592015 0.09713696 -0.014308455 -0.010317368
0.014947009 0.067662105 0.003583629 0.08613712 0.01098533 -0.013907548 -0.023851112 0.009086115
0.008242466 0.013438091 0.026714884 0.066127576 0.10505059 0.078426816 -0.045263585 -0.10727304
-0.05405744 -0.0055462182 0.03544341 0.020052044 0.04656046 0.020534607 -0.027440703 -0.055887785
0.035906564 0.0083052395 0.018835837 -0.017588584 -0.043128427 -0.00394986 -0.009009969 0.012848895
0.007455497 -0.01065643 -0.0042098504 0.032604445 0.008859841 -0.06955669 0.052488398 -0.1172573
0.07517108 -0.060005065 0.03145543 -0.058874533 -0.017896783 0.008400367 0.010637882 0.012940312
-0.046951015 0.053041853 -0.022139417 0.11165748 0.006625729 0.104676135 -0.001904708 -0.025870468
0.047474552 0.18157895 0.21071503 0.12161715 -0.05229241 -0.014745326 0.0829723 0.47117972
0.01137548 0.05234587 -0.02308981 0.07585813 0.12348181 0.039060414 -0.05509589 0.09253863
0.118117295 0.44620436 0.0024472703 -0.03715831 0.0022463507 0.07804997 0.06752506 0.117796116
0.0061322344 -0.0006647389 0.0644101 -0.059565548 -0.040970303 0.013476023 0.14168848 0.02270631
0.01457331 0.008415712 0.17427018 0.10318076 0.21982004 0.01128436 0.010201589 0.09049968
0.0063423314 0.0043021007 0.17300524 -0.04255892 0.06355134 0.015443697 0.039036818 -0.019790117
0.014565346 0.12534791 -0.03161483 0.0010133049 -0.0033085654 0.08945193 -0.0013191518 0.44511005
-0.03331384 0.015332064 0.036240753 0.016254362 -0.044435985 0.06978377 0.036421552 0.44501027
00000000: 85ca 213d 80f3 d33d d822 483e 90a9 f63d
00000010: a5cf 6bbd 4adf 00bd 6ffc 7e3d ff99 013e
00000020: 7e6c c4bd 5dc5 cd3d 40f8 363e 3f2b 673d
00000030: 38ef 8f3d 8d92 5ebd a64f e5bd 4c22 df3d
00000040: 353e e83d 6ba7 8d3d c245 c1bc f513 e5bc
00000050: 788e e0bc e556 0ebc f18d 3fbd 4abc 213e
00000060: d61f febc 8441 16bc 6b78 e4bb 0c36 f83b
00000070: e73b fb3b a298 05bd 426a 093e 6d09 bb3c
00000080: fdf1 6c3c 5622 093c e437 ca3d fbd3 c13d
00000090: 8029 5e3b e28c 363c 7678 263c 1362 b73d
000000a0: 434f d23b e179 bcbc c63a a23d b09c 08bd
000000b0: d086 7f3d 2239 1d3d 4ae6 413d 6c55 c53b
000000c0: 9c01 8d3d 6b97 e43d e94a a9bc c3c1 633b
000000d0: b1ba adbd 904b af3d 6e1d a638 ebc8 e13e
000000e0: 8bd6 24bd 59d0 87bd 5de0 aabd 1a32 05bc
000000f0: 7a0b 743c 62fb 903c 98ec 643d ca9b bc3e
00000100: c20b 673d 58b7 623e 5c54 693e 6576 6fbc
00000110: 58f3 083e 434c 3d3c 88ef c73d e091 7d3e
00000120: de7d 0a3e 1742 2b3d 65af 9e3e 8353 1e3e
00000130: bb9a 8d3e 3daf 813d 0c89 b83d beba 343e
00000140: 8a6b 423e 38ff 893e 3857 bb3e 1f46 e33d
00000150: 7996 063e 8011 183e 4260 683e 6eef 783e
00000160: b539 1d3d 1e84 323d de96 de3c 2fb2 3f3e
00000170: ca36 953d 1b41 f0ba 9a6d 8c3d e9b3 4cbc
00000180: dadc 3ebb fea4 11bb 413d 433e f1e0 9d3d
00000190: 7e6c 523e c63c fbba 5b4d b7bb fe8e 313b
000001a0: b7d1 30bc 3587 483e d263 fa3d 9b0c a73d
000001b0: 2682 463c 6451 ea3d a74d 063e 113c 693c
000001c0: af2b 2a3e a024 223e 6b25 9b3d dc96 5b3d
000001d0: 06f8 4b3d 0d36 013d 4f68 973b d4d6 503b
000001e0: da0d 22bc 8b9d c43d 3ac2 a33d d053 9a3d
000001f0: 4255 d03d e7cd 563d 95bc 1a3e 98da 1e3e
00000200: 7a59 b73c 7792 803d 41ed 52bd 7d4b 003a
00000210: d043 26bd beef c63d 036e 6abc 2e0a 29bc
00000220: 4de4 743c 6e92 8a3d 51db 6a3b a968 b03d
00000230: d0fb 333c 7cdc 63bc 6863 c3bc eedd 143c
00000240: 680b 073c 702b 5c3c 2cd9 da3c e56d 873d
00000250: c424 d73d 3d9e a03d 4f66 39bd f8b1 dbbd
00000260: 566b 5dbd 0dbd b5bb 1c2d 113d 2f44 a43c
00000270: 2eb6 3e3d 3138 a83c 53cb e0bc 97ea 64bd
00000280: c312 133d b312 083c 9d4d 9a3c ef15 90bc
00000290: 6fa7 30bd d46d 81bb 8d9e 13bc 2c84 523c
000002a0: 3e4d f43b 4f98 2ebc c9f2 89bb 3d8c 053d
000002b0: de28 113c bd73 8ebd 13fe 563d 9824 f0bd
000002c0: 4cf3 993d dfc7 75bd 69d7 003d 6c26 71bd
000002d0: 469c 92bc b1a1 093c 834a 2e3c 9a03 543c
000002e0: b54f 40bd 6a42 593d b95d b5bc adac e43d
000002f0: a51c d93b 7160 d63d 65a7 f9ba 4eee d3bc
00000300: ad74 423d d5ef 393e aec5 573e 6a12 f93d
00000310: 9130 56bd 6196 71bc 62ed a93d 783e f13e
00000320: 3960 3a3c 9f68 563d d726 bdbc 825b 9b3d
00000330: 08e4 fc3d d0fd 1f3d 3aac 61bd e584 bd3d
00000340: 7be7 f13d e674 e43e 6262 203b 5033 18bd
00000350: 8337 133b aad8 9f3d 944a 8a3d 173f f13d
00000360: e9f0 c83b df41 2eba 71e9 833d 01fb 73bd
00000370: 7ad0 27bd 8aca 5c3c c916 113e 9502 ba3c
00000380: e4c4 6e3c 0ee2 093c e273 323e 6f50 d33d
00000390: 8118 613e 09e2 383c 9124 273c e557 b93d
000003a0: 55d3 cf3b a3f8 8c3b 4928 313e 4352 2ebd
000003b0: 3427 823d 8f07 7d3c 12e5 1f3d e21e a2bc
000003c0: 7da3 6e3c 345b 003e 8d7e 01bd dfd0 843a
000003d0: 84d4 58bb 9332 b73d 64e7 acba 77e5 e33e
000003e0: 1874 08bd 5633 7b3c 2f71 143d de27 853c
000003f0: 8202 36bd cbea 8e3d c42e 153d 63d8 e33e
