experiments/lstm/final_model_s5.pt (torch, 395217 bytes, 14 tensors)

start_conv.weight f4 [32, 2, 1, 1]
00000000: 06aa ec3e c57f 8abe 91db 1f3f 903f 183f
00000010: 2a56 183f d416 15bf 43a5 e1be 58e6 b43e
00000020: 0003 0abf 1ce5 393f d89a 0e3e b0a3 873e
00000030: 5ff3 15bf fd71 0f3e 65a6 a43e 6306 473e
00000040: 2f93 233f 7a6b 7f3e 439f 1dbf 2b01 e73e
00000050: 23e5 833e ae4b ebbe 6f6f 15bf 318d c63e
00000060: b9f4 2c3f d5bd 23bf d6e4 c83d 5067 473e
00000070: 9b0e bebe 5ffd 9ebe bbcf f1be a3b6 c0be
00000080: 633e 26bf 1850 5b3d b3e2 da3e 7ac1 e33e
00000090: f66d 263f 4115 26bf 4d42 f4bc 4903 4f3f
000000a0: 4731 223e ac4d b2be 9104 22bf 5fb0 b23e
000000b0: f863 103f 38f7 413f d159 163f cc8a 743e
000000c0: 56f2 033f 5817 42be f758 143f 9948 81bd
000000d0: 749b 39be d073 a9be d6b9 a53e 95fe 7b3e
000000e0: e8f8 e53e cf52 f0be 838f c4be 8a79 393f
000000f0: c281 e7be 2a18 fdbe a7cc 5cbe df64 c0be
0.46223468 -0.27050605 0.62444407 0.5947199 0.59506476 -0.5823796 -0.44071397 0.35331988
-0.5391083 0.7261522 0.13926256 0.2649207 -0.5857448 0.14008327 0.321582 0.1943603
0.6389646 0.24943343 -0.6157114 0.4511808 0.25760755 -0.45956177 -0.5837316 0.38779595
0.6756092 -0.63961536 0.09809272 0.19473004 -0.37120518 -0.31052682 -0.47228798 -0.3763934
-0.64938945 0.05354318 0.42751083 0.44483548 0.6501154 -0.6487618 -0.02981677 0.8086439
0.1583911 -0.34824884 -0.6328822 0.34900185 0.5640254 0.7576785 0.587308 0.23881072
0.5154165 -0.18954217 0.5794825 -0.06312675 -0.18125707 -0.3309617 0.32368344 0.24608834
0.44916463 -0.46938178 -0.3839074 0.7245108 -0.45216185 -0.49432498 -0.21562444 -0.3757696

start_conv.bias f4 [32]
00000000: e23b e6be c98d 0b3f 2ce8 d53d 305e 713e
00000010: af03 d33e e6c0 d3be 2e88 003f 8026 a8be
00000020: 62e0 f5bd fa7d ea3e 5834 283f 3390 033f
00000030: 3537 ed3e 1237 213f 547b 77be a304 5bbd
00000040: 7a6d 8bbe 937f 74bd 678f 63bc eca1 463e
00000050: 5f6a fc3e 99af 0abf a015 d9be 3f40 65be
00000060: 413e 063e 939b 79be 1dc4 c5be bea3 21be
00000070: 88ee 96be 8577 fbbc a433 01bf 2710 17be
-0.44967562 0.5451322 0.10444674 0.23571086 0.41213748 -0.41358107 0.50207794 -0.32841873
-0.12005688 0.45799237 0.6570487 0.51391906 0.46331182 0.62974656 -0.2416814 -0.05347122
-0.2723196 -0.059691977 -0.01388917 0.19397706 0.49299905 -0.5417419 -0.4239931 -0.22387789
0.13109685 -0.24375753 -0.38626185 -0.15785119 -0.2947886 -0.03069664 -0.5046942 -0.14752255

lstm.weight_ih_l0 f4 [256, 32]
00000000: c758 1dbd 000d 823c c557 223d 68cb 0c3d
00000010: 90db e6ba b38b 35bd 58c1 80bb 8df6 23bd
00000020: 3817 3dbc a877 48bb cc7f 053d ef0e 173d
00000030: f848 253d 003c e43c 368e d2bc 8b6d df3c
00000040: 4f1f 6abd 1737 14bc fc4a c53c ee9f 043d
00000050: f833 e43c 1277 36bd b910 04bc 87ec 21bc
00000060: 70bc 9a3c 932e f9bc 3498 853b f21f aabc
00000070: d30b 0fbd f327 3f3c c0a9 1fbc 4c46 d5bb
00000080: 3b71 86bd d0ed e23b 8b0f 4cbc 6cb0 87bb
00000090: 05dc 703c 2d07 33bd e464 6ebb 417c 79bc
000000a0: b779 bb3b 4bcc cdbc e4b6 af3d eb5b eb3a
000000b0: 9ce7 733c 12b8 ad3d 1d3d c3bc 90a3 a53a
000000c0: ffec b2bb 0be4 c0bb 24e5 ce3b 1fd2 35bb
000000d0: 28fe 673d 0c0b 8abd 68b0 cfbd 3b1e cdbc
000000e0: 8e39 253c 678a 22bc 05e7 1dbd bf73 61bd
000000f0: 9540 06bd 28dc 07bd 49df dfbc 996b c53a
00000100: 3775 8c3c d6e9 7f3d 7594 2b3d 5961 e13c
00000110: d311 a43d c547 b53b 3738 273c c927 08bd
00000120: d923 7e3d c741 9c3d 3108 eabc fcfe ba3d
00000130: 0665 653d 188c c9bb 6dc1 83bd bda7 96bd
00000140: af37 99bd 81e3 92bd 0444 25bd 9eaa 1bbd
00000150: abc3 0dbd 13b2 a8bd 3cb8 8fbc acbd 93bd
00000160: 9208 2a3c 5ba9 d03c 4aea 393c a79a 383d
00000170: 7bb6 833d 02bb 93bd bad0 25bd e997 a63a
00000180: 4089 293d 39a2 2e3e 132f e4bd 5875 ad3c
00000190: efd6 b33d 5640 a73d 2152 12bd 4de2 a2bc
000001a0: d37b b83c 80b9 4f3d 30b3 0abe 450a 643d
000001b0: dbf5 8ebc 0e71 493d d7ad 75bd 9e10 86bd
000001c0: 0112 f63b 21b9 543d c184 213d 2ce7 2a3e
000001d0: 0898 10be ccb4 303d 633c a63d 3839 2a3e
000001e0: 2a42 923d 2c47 cabc 991e 25be 4e38 d73d
000001f0: 51a9 a5bd 391e 273e d3c0 53be 43ba 97bd
00000200: ba36 7ebd 2103 c83d 644a d6bc f98d 3c3d
00000210: 8121 d93d 7464 37bd d2cf c73c 5863 37bd
00000220: f5db 733c f08b bf3d 8221 4f3d 2fd1 273d
00000230: ffbb 273c 9c02 123e 741a 98bd c99a c1bc
00000240: b3bb e6bc f860 db3c 7ff0 47bc 3ef3 d73d
00000250: a35f 813d 29f8 2ebd 824a 41bc d305 0fbc
00000260: ed5a d03c 6ff7 51bd f4ad d0bd 1313 9fbc
00000270: 219c 8abd 4307 063d afe2 90bd 4b5a 91bd
00000280: df4e 6dbd c5b5 00bd e280 9dbc 4f76 773c
00000290: f665 f9bb adfc 54bd 3cd5 e73c e866 a2bd
000002a0: 31d8 f7bd b874 813d 751a dc3c 803d 17bc
000002b0: 09e9 02bd bfde 8a3c 6cfb c63d 6820 c73d
000002c0: 96e3 b83d 733a b5bd 7a36 46bb 364a bcbd
000002d0: 9563 b03c bbbf fbba 606d 30be 1e09 98bd
000002e0: 45a4 3fbd 1ee8 81bd 94c4 183d d244 b1bd
000002f0: 4dcb 0b3c 942f 23bd 041f ea3c 8e5d 883d
00000300: 09f9 11bd b782 a3ba 83fb 24bd 94be f73c
00000310: c1b6 f5bc ef14 d8bb ea77 603c 77f6 3dbd
00000320: 73e1 0abd 9d38 853b e9c5 f63c 8c4c 32bc
00000330: 56b1 083c e21e c4ba 4a54 2cba 1608 fd3c
00000340: d89f a03c f41d 70bc 3890 5cbd 9c47 723c
00000350: f417 d53c 9ffb a7bb 6ad4 083b 06a4 a1bb
00000360: cd29 853c 04cc d6bc 467e 5bbc 9872 0fbc
00000370: ed92 d3bc 6155 40bb 8b98 d9ba dedd 1fbb
00000380: bf83 e5b8 155d 3c3c 82da b53c 6d27 b13a
00000390: 9eee 03bd 644d adbc d8a1 a43c c06c 4fbc
000003a0: 9729 2cbc 241a 193c 45ed 513d d443 843c
000003b0: e64b fe3c 5f7c 5a3b 7434 afbc 3ae6 5ebb
000003c0: e50f 92bc b4b5 78bb 94b0 fc3c ac37 67bc
000003d0: bcae 033d 8098 a2bc d6ca d8bc ab59 2bbc
000003e0: 583d d53c 97da 1a3c 70cf 3e3a 8341 73bb
000003f0: 40ea d73b 5eb4 b5bc 1369 57bc 5ccf ceba
-0.038414743 0.01587534 0.039634485 0.03437367 -0.0017613042 -0.04432268 -0.0039292984 -0.04003005
-0.01154118 -0.0030588899 0.03259258 0.036879476 0.04035279 0.027860641 -0.025702577 0.027273914
-0.057158764 -0.009046338 0.024083607 0.032379083 0.027856812 -0.044547148 -0.008060628 -0.009883053
0.018888682 -0.030417716 0.004076982 -0.020767186 -0.034923386 0.0116672395 -0.009745061 -0.006508624
-0.06564566 0.006925322 -0.012454878 -0.004140904 0.014700894 -0.043708015 -0.0036376053 -0.015227378
0.0057212966 -0.025121829 0.085798055 0.0017956471 0.014886763 0.08482374 -0.023832852 0.0012637246
-0.005460381 -0.00588656 0.006313937 -0.002774365 0.056638867 -0.06740388 -0.10141069 -0.02503883
0.010084523 -0.009920693 -0.038550396 -0.055042025 -0.032776434 -0.03316894 -0.02732815 0.0015061974
0.017145736 0.062478863 0.041889627 0.02751224 0.08011212 0.0055322372 0.010206274 -0.033241067
0.062045906 0.076297335 -0.02856836 0.09130666 0.056004547 -0.0061507337 -0.064333774 -0.07356212
-0.07481324 -0.07172299 -0.040348068 -0.03800451 -0.03461043 -0.0823709 -0.017543904 -0.072139114
0.01037802 0.02547138 0.011347363 0.045069363 0.0643129 -0.07213403 -0.04048226 0.0012710068
0.041390657 0.1705407 -0.11141791 0.021174118 0.0878123 0.08166568 -0.035722855 -0.0198833
0.022519981 0.050714016 -0.13544917 0.055673856 -0.017451217 0.049180083 -0.05998024 -0.06546138
0.0075094705 0.051934365 0.039433245 0.16689748 -0.14120495 0.04314117 0.081169866 0.1662339
0.07141526 -0.02469214 -0.16124953 0.10508786 -0.08088935 0.16320123 -0.20679025 -0.074085735
-0.06206391 0.09766222 -0.02615852 0.046033833 0.106020935 -0.044773534 0.024391089 -0.044772476
0.014883985 0.09352863 0.050569065 0.040970977 0.010237693 0.14258808 -0.074269205 -0.023633378
-0.028165674 0.026779637 -0.012203335 0.10544442 0.063170694 -0.042717133 -0.011797549 -0.008729416
0.025433982 -0.05126136 -0.10189429 -0.019418275 -0.067680605 0.03272177 -0.070744865 -0.070973
-0.057936545 -0.03142335 -0.019226495 0.015103891 -0.0076110316 -0.051998783 0.02829992 -0.07929784
-0.12101782 0.063210905 0.026868084 -0.009230971 -0.03196052 0.016951917 0.09715924 0.09722978
0.090277836 -0.08849039 -0.0030244873 -0.09193842 0.02153186 -0.001920692 -0.17229223 -0.07423614
-0.04678752 -0.06343101 0.037296847 -0.086557046 0.008532357 -0.039840296 0.028579243 0.06658469
-0.03563789 -0.0012474869 -0.040278923 0.030242242 -0.02999437 -0.0065942924 0.013700465 -0.046377625
-0.03390641 0.0040655867 0.030123668 -0.010882508 0.008343061 -0.0014962817 -0.00065738393 0.030887645
0.01960747 -0.014655579 -0.053848475 0.014787581 0.026012398 -0.005126431 0.0020878562 -0.004932883
0.016255284 -0.02622033 -0.013396805 -0.008755349 -0.025826896 -0.0029347765 -0.0016601247 -0.0024393718
-0.000109441105 0.011496802 0.02219892 0.0013515778 -0.032209985 -0.021155067 0.020096704 -0.012660205
-0.010507963 0.009344611 0.05125167 0.016145624 0.03104205 0.003333829 -0.021387316 -0.0034011737
-0.017829845 -0.00379501 0.030845918 -0.014112394 0.03214906 -0.019848108 -0.026463907 -0.01045839
0.026030228 0.00945153 0.00072788354 -0.0037117905 0.006589204 -0.022180732 -0.01314761 -0.0015778351

lstm.weight_hh_l0 f4 [256, 64]
00000000: 61c3 0b3c acad 19bc ed68 543d 4f53 843c
00000010: 87b6 0b3c 1628 fbba e67b 9bbb 0d32 80bc
00000020: 6e97 6d3b 03c0 c53b 6e9a 65bc 3567 3fbb
00000030: c4b2 5f3d 56eb 5abc f535 403d 7fc2 29bb
00000040: d163 dfbb d5f6 303c 670f 40bc 3b30 09bc
00000050: 061e 21bc 03f1 043c e93d d33b c6f6 393c
00000060: 0607 0cbc a26a 21bb 8d6e 273d 13b6 19bc
00000070: 97fd b73c 2b0c 2ebc f849 333c 5569 15bd
00000080: ed25 473b 8546 203c de51 633b 73c0 32bc
00000090: f234 593c b3de 023c 1b27 6cbd 45b0 08bc
000000a0: b34d 20bc 6915 dcbc a3b6 32bc e841 563c
000000b0: c123 10bc 8c78 ec3b 79e9 01bc 0768 04bc
000000c0: 5b75 cd3b e762 5f3b 79de 683d 4372 4a3c
000000d0: f9dc bf3b 2c15 443c 06b9 433c 6ace 063d
000000e0: 6bc1 3dbc caa0 193c 3895 dc3b 886a 593b
000000f0: 6547 d3bb 3da7 1b3c dea2 e0bb 3f1d 7e3d
00000100: 6144 073c b325 05bc 1310 143d 687a 1d3c
00000110: 116b 1f3c ecb2 c83c a307 413b c232 9cbc
00000120: 00e3 9cbc c50b 323c d67b f9bc 0561 70bc
00000130: abd6 223d 1e46 7fbc f6b1 663d 0e03 17bc
00000140: 8b99 d6bb 1389 f33c 9bac 63bc 43b1 68bc
00000150: 3604 20bc 4a34 c0bc 6411 b03c c1e4 c93b
00000160: 1d81 173d 278e c0ba 0959 113d 27d6 223d
00000170: 94ec 733d c918 5fbc 23bb d33a 2bf0 193c
00000180: 93e4 b63c 6a59 2b3c 6d46 053b 26cc c1bc
00000190: 99b6 f93c 351c 1fbb febf 92bc 4a6e 62bc
000001a0: 9a27 90bc f288 eabc bdb2 60bc 856a 5fbd
000001b0: 6927 d6bb bc30 363c 1f2b 86b7 e13b cbbb
000001c0: 04ac 343c 4db8 60bc ab04 163e 9ac4 6e3c
000001d0: 51e0 403c a907 963b 4ea3 bf3b 3fc7 563d
000001e0: 15f1 fb39 8bff 783a 12e1 7b3b 7191 983c
000001f0: 3c3c 6fbc 4639 3f3c 93e0 d13c 9425 693d
00000200: a342 103b 6cb4 3f3d 4e5c b03c 1840 9abc
00000210: 0043 21bd 401b a23d e3b8 ce3c a9d8 303c
00000220: 81ff 22bd 6101 973c eac3 96bd c23e 8238
00000230: 445d d6bc a888 c23c 41a6 b83c 74af 39bc
00000240: 12f4 563d 3b51 013d 5c18 7c3c 032c 123d
00000250: ae16 513d 419f 3ebd e5d2 123d 245a 343c
00000260: ac21 043e c188 d13c ac1f 80bc 63bf 493e
00000270: 3a47 5a3e b4c5 24bd 118f 14bd 681f b73d
00000280: 8c3c 443d a7f4 e3bc ddad abbc 0e83 dc3c
00000290: 6a91 303d e335 3bbd 9f81 ae3c 5ca4 9b3c
000002a0: b7da a0bb 6c38 46bd 8b79 d63c 2885 3abe
000002b0: d23f 083a 8da0 103d 0fca 7d3c 1ec6 0f3d
000002c0: 8771 e1bc f741 91bd 40d5 b93d 8b48 26bd
000002d0: f0bd 3abc 1de5 673c 68a0 49bd 004f 813d
000002e0: f243 0d3d fcf6 06bd 0fa2 39bd 6880 1b3c
000002f0: c88f 04bd cc92 cbbc 83ab ea3d ab68 24bd
00000300: 19c8 653c 8873 1abd d48f c33b 8a17 98be
00000310: ba07 02bd bf5a ff3c 013f cd3c 8d5d 15bd
00000320: 0847 1cbd c0e5 273d c2ad 6abc 146d b03c
00000330: 4bc5 e83d 4af9 1c3c 3a8b a83b 04e7 ba3d
00000340: d165 bd3c 6cb3 143d c950 0cbd 3fca 2f3b
00000350: a80d e63c c62c 933c a7a7 d23c 0b27 1d3d
00000360: 58f2 cf3d 9633 a13d 61ae 113d 6a0b 893c
00000370: e866 013e a10a bdbc 1a8a b1bc b044 2e3d
00000380: 3d99 e73c c608 803b 0047 81bd 5b81 d1bc
00000390: 4d8c de3d 685d 17bc 2db0 28bd ccf7 a0bc
000003a0: 6c82 99bd 5546 023d 364a 95ba dc11 c9bd
000003b0: f03a 78bc 8bb6 213e d135 383d 5820 16bb
000003c0: e344 833d c390 88bd aca5 393e 3e29 553c
000003d0: 70a1 983a bde0 81bd 1f8b c33c 1aa5 e8ba
000003e0: 5643 c33c 723a 7c3c 7256 1dbc 05a8 af3c
000003f0: deb1 b9bd 6c21 193b da05 603d f7dd 35bd
0.008530469 -0.0093797855 0.051857878 0.016153006 0.008527405 -0.0019161727 -0.0047449945 -0.015648866
0.003625359 0.0060348525 -0.01401387 -0.0029205803 0.054613844 -0.0133617725 0.046926457 -0.0025903282
-0.006817319 0.010801037 -0.011722422 -0.008373315 -0.009833818 0.008114102 0.0064465893 0.011350339
-0.008546596 -0.0024630208 0.040876914 -0.009381789 0.022459788 -0.010623018 0.0109429285 -0.036477406
0.0030387596 0.009782438 0.0034686248 -0.010910141 0.013257252 0.007987666 -0.05765448 -0.008342807
-0.00978415 -0.026865678 -0.010907802 0.013077237 -0.008797587 0.0072165187 -0.007929199 -0.008081443
0.0062700934 0.003408605 0.05685279 0.012356344 0.0058551994 0.011967938 0.0119459685 0.032911696
-0.011581759 0.009376714 0.0067316554 0.003317507 -0.00644772 0.009500322 -0.006855353 0.06203961
0.008256049 -0.008126664 0.036148142 0.009611703 0.009730116 0.02449938 0.0029454015 -0.019067172
-0.01915121 0.010867064 -0.030454557 -0.014671569 0.039755505 -0.015580682 0.05632206 -0.009217037
-0.0065490655 0.029728448 -0.013896133 -0.014202419 -0.009766629 -0.023462433 0.021492667 0.006161303
0.036988366 -0.0014690802 0.0354853 0.039755013 0.05955179 -0.013616749 0.0016153794 0.009395639
0.02232579 0.01045833 0.0020336166 -0.023656916 0.030482577 -0.0024278287 -0.017913815 -0.01382024
-0.017597008 -0.028629754 -0.0137144895 -0.054544944 -0.00653546 0.011120018 -1.5994125e-05 -0.0062022065
0.01102734 -0.013715816 0.14650218 0.014573241 0.011772231 0.00457855 0.005848325 0.05243611
0.0004805407 0.0009498528 0.0038433713 0.01862404 -0.014601763 0.01167137 0.02561978 0.056920603
0.0022012375 0.046802923 0.02152839 -0.01882939 -0.039370537 0.07915354 0.025234645 0.010793843
-0.03979445 0.018433275 -0.073615864 6.2105726e-05 -0.02616752 0.023746803 0.022540214 -0.011333335
0.052478857 0.031571608 0.015386667 0.035686504 0.05104702 -0.046538595 0.035845656 0.011007819
0.1290347 0.025577905 -0.015640102 0.19701914 0.21316233 -0.040227607 -0.03626925 0.08941537
0.047909304 -0.02782662 -0.020956928 0.02691796 0.043107428 -0.045705687 0.021302043 0.018999271
-0.0049088853 -0.04839365 0.026181003 -0.18214858 0.0005197498 0.035309363 0.015490069 0.03510105
-0.027519954 -0.0709266 0.09073877 -0.040596526 -0.011397824 0.014153746 -0.04922524 0.06313896
0.034488626 -0.032950386 -0.045320567 0.009491064 -0.032363683 -0.024850272 0.114584945 -0.04013888
0.014024758 -0.037707835 0.0059680734 -0.2970546 -0.03174565 0.0311712 0.025054457 -0.03646617
-0.03815368 0.04099059 -0.014323654 0.021536388 0.11365756 0.0095809195 0.00514355 0.09126094
0.023119839 0.036303923 -0.03425673 0.002682343 0.028082684 0.017965686 0.025714708 0.038367312
0.10153645 0.07871167 0.03556669 0.016729075 0.12636912 -0.023076357 -0.021672297 0.042545974
0.028271312 0.003907296 -0.0631237 -0.025574377 0.10866604 -0.009238578 -0.04118364 -0.019649409
-0.07495579 0.031805355 -0.0011389914 -0.098178595 -0.015150771 0.15792291 0.0449732 -0.0022907462
0.064096235 -0.06668236 0.18129605 0.013010321 0.0011644792 -0.063416936 0.023870049 -0.0017749399
0.02383582 0.015394794 -0.00960313 0.021442423 -0.090671286 0.0023365868 0.05469308 -0.044401135

lstm.bias_ih_l0 f4 [256]
00000000: d60f 5e3d c716 3b3d 1a8d b93d 0438 053d
00000010: fe7b 0f3e d4cc df3b 5956 813d 9f79 6d3d
00000020: 1434 05ba a157 c73d 6762 57bd 63f0 8c3d
00000030: 931a 833d 498d 1a3d 910b c93d 8c2b 663d
00000040: b1a9 163d 5933 493d d2ee 5d3d dfac 823d
00000050: 34c9 ba3d 34a9 123d e803 813d f097 083d
00000060: ff35 093d 9e9d 613d b040 07bc 12ea 10bd
00000070: c194 9cbd 2ebc c03b b5e9 2e3d 8341 1d3e
00000080: f7ea 65bc f1d6 b13d b4c9 783d c284 4e3a
00000090: 7822 b23c 86ed 9f3c 9f48 7d3d 43ec 7e3d
000000a0: cfd9 223d 7a7f 923d 1df3 863d 83fd 4a3d
000000b0: 321b 3f3d 5d81 a93d 1e3d d63d be3e 153e
000000c0: 9137 dd3d 23fd 64bc 1592 2f3e dc7c 333d
000000d0: 70b9 d53d f99a 7b3d 2d74 a13d 8213 0a3c
000000e0: 8da8 233e 5855 0c3e fd6b 7f3d fab7 cebd
000000f0: cd53 903d ac45 883d 0ee9 393c 5a74 d23d
00000100: 4b46 8cbd 3e92 8b3c b85c 113e cda2 923d
00000110: 2762 2cbd 93f2 24bd bdef 6b3a 30d2 17bd
00000120: 40d3 1d3d 6f60 903c 477f 24bd 7fbc 54bd
00000130: 6806 31bc b6d8 96bd ceb2 1dbd 0786 c03c
00000140: c294 81bc b8fc 8b3b 0fcb 03bd 5cee 5abd
00000150: 7383 453d 8c3d 043e d264 dfbc 4a25 d2bc
00000160: e57b b5bd 4eeb 433a 01e8 183e 03e4 303d
00000170: 9d4f a63d 04a4 d1bb 1d52 febc 6721 173e
00000180: a901 973c f66a 78bd e7e0 71bc a626 aebc
00000190: 2b61 883b 3635 afbd 12c6 b33d c224 55bd
000001a0: e943 c4bc c0d4 23bd 22ea 36bd b664 123c
000001b0: c653 eebc 6d68 2b3d 2e1f 563d 1236 79bc
000001c0: 79c6 98bd 6501 13bd 23c4 633e e9ff 09bb
000001d0: c722 64bd 85f4 eebc b3c0 13bd 295e 56bc
000001e0: 1767 5fbb c765 05bd df78 64bd c2de b5bd
000001f0: 6ee8 16bd 6ca9 43bd 725e 31bd 1170 053e
00000200: e4e6 33bd 8b97 cebc 99b2 a1bb 3b1b c63d
00000210: ba74 ea3d 21ec 75bd 3a83 1b3d 3e66 b9bd
00000220: 0fd5 a1bb c143 16bd 018a 963c 6dd5 a1bd
00000230: 6296 873d 5bda b5bd fc6e cc3d 7990 cf3c
00000240: 4f08 86bc 779a 713d d47c 69bc d853 c73c
00000250: 9b82 f3bc a279 00be 061b 353c 1d6c acbd
00000260: aa05 0cbe e908 ab3c 31f5 5abc b32b 08be
00000270: 9eb0 df3c e5bc e83c 12bb c23c 7ce6 993d
00000280: 583c 92bd 5131 de3b c8fb a63d e5e8 e03d
00000290: 7526 d7bc 025c 143d 3272 293c 9d76 983d
000002a0: de2f bebd c56f 573d bae4 1f3c fc25 a2bc
000002b0: ff98 a6bd 8cec efbd b88f 8cbd 48ca 903d
000002c0: 8a7e 48bd ca1f d63d f407 c3bd 4bd8 8bbd
000002d0: 4b1d 8e3d ca1f 0fbd be5f 73bd b46f 8cbc
000002e0: e8a6 733d a0ae b03d 45f6 3e3d c582 e0bc
000002f0: b7ba f93d 0049 ce3c 16c6 0bbe 1eaa d8ba
00000300: 5ba1 bb3c cb50 e13d c637 0d3d 5cd6 103e
00000310: 2d91 d63d 2f94 3a3d 3082 a33d 44da 833d
00000320: 7fe3 2c3d 0a45 a73d d2d2 7ebb fd06 a53d
00000330: 8bca c33d c850 783d ec80 063e 484c 133e
00000340: 9967 bc3d 93eb d13c 7d2f 963d 7b0b 793d
00000350: 50da 323e 0c2b 033e 4cbb 663d 7c5c 323d
00000360: 3556 863d 6291 bd3d e706 f73d 45d3 8c3d
00000370: 2686 c93c c491 293d 3fdd 903d 4780 4f3c
00000380: 8fb1 1abc 7ffe dc3d 4a92 8b3d 6735 2e38
00000390: 18aa 323d 9df8 163d a57c 113e 22af 183d
000003a0: 1b7d 693d ae08 143d 2f7f a33d 8435 58bd
000003b0: 236c 9c3d ad20 883d 796a 643c 882e 113e
000003c0: c95a d23d b7b1 fa3c 401e 713d aca5 743d
000003d0: 847d 7f3d 531c 203e c143 873d 3006 4fba
000003e0: d34e 423e 597e 0b3e e493 3d3d 7693 ec3d
000003f0: 1cbb b53d 5be1 e63d 80ce 8d3c ee8e 993d
0.05421432 0.04567602 0.09060116 0.032524124 0.14012143 0.0068298373 0.06315298 0.057977315
-0.00050813076 0.09733511 -0.05258408 0.06881788 0.06401553 0.037732396 0.09816659 0.056193873
0.036782924 0.049121235 0.054182835 0.06380629 0.09120408 0.035805896 0.06299573 0.033348024
0.03349876 0.055081956 -0.008255169 -0.035379477 -0.0764556 0.0058818078 0.04270335 0.15357022
-0.014033071 0.08683575 0.060739234 0.0007878059 0.021744952 0.01952244 0.061836835 0.062237035
0.0397585 0.071532205 0.06589339 0.049558174 0.046656795 0.08276627 0.10460876 0.14574715
0.10801614 -0.013976368 0.1714557 0.043820247 0.1043576 0.06142709 0.07883487 0.008427503
0.15982266 0.13704431 0.062358845 -0.100936845 0.07047234 0.06653914 0.0113470685 0.102760985
-0.06849345 0.017037507 0.14195526 0.07159958 -0.042085793 -0.0402704 0.00090002624 -0.037065685
0.03853154 0.017624108 -0.040160444 -0.051937576 -0.01080475 -0.07365553 -0.0385006 0.02350141
-0.015818004 0.00427207 -0.032176074 -0.053449973 0.048221063 0.12914103 -0.027269755 -0.025652546
-0.08861522 0.0007473723 0.14932252 0.0431862 0.08120654 -0.006397726 -0.031045014 0.14758836
0.018433409 -0.06064888 -0.014763094 -0.021258663 0.004161974 -0.08555071 0.08778013 -0.052037008
-0.023958163 -0.039997816 -0.04465688 0.008935144 -0.02909268 0.041847635 0.05227583 -0.015210645
-0.07459731 -0.03589 0.22242789 -0.0021057075 -0.05569723 -0.02916933 -0.036072444 -0.013083973
-0.0034088546 -0.032567766 -0.055779334 -0.08880378 -0.036842756 -0.047768995 -0.04330296 0.13031031
-0.043921366 -0.025218746 -0.0049346206 0.096731625 0.11448045 -0.060039643 0.037966944 -0.09052704
-0.0049387286 -0.03668571 0.018376352 -0.07902036 0.0662048 -0.088795386 0.09982106 0.025337445
-0.016361384 0.0589852 -0.014250953 0.024331972 -0.029725363 -0.12546399 0.011053806 -0.084190585
-0.13674036 0.020878272 -0.013364122 -0.1329792 0.027305897 0.028410384 0.023770843 0.075146645
-0.07140416 0.0067807813 0.08153492 0.10981921 -0.026263455 0.036220558 0.010342168 0.07444499
-0.09286474 0.052596826 0.0097591225 -0.019793503 -0.081346504 -0.117150396 -0.0686335 0.07069832
-0.048948802 0.10455282 -0.09523001 -0.06828364 0.06939181 -0.034942426 -0.05941748 -0.017143108
0.059485346 0.08627057 0.04662158 -0.027406106 0.12193816 0.025181293 -0.13649783 -0.0016530191
0.022904089 0.11001738 0.034477018 0.14144272 0.10476909 0.045551475 0.07983816 0.06438115
0.042209145 0.08167465 -0.0038882983 0.080579735 0.095601164 0.060623914 0.13135117 0.14384568
0.09199447 0.025625026 0.073332764 0.060801964 0.17466092 0.1280939 0.056330964 0.04354523
0.065594114 0.09256245 0.120618634 0.06876234 0.0246001 0.04139878 0.07073449 0.012664861
-0.009441747 0.10790729 0.06815012 4.1534568e-05 0.043619245 0.03685819 0.14207704 0.037276395
0.057004075 0.03614109 0.07983243 -0.05278541 0.07637813 0.066468574 0.013941401 0.14177907
0.10271222 0.03060232 0.05886674 0.05972831 0.06237556 0.15635805 0.0660472 -0.00078973453
0.18975382 0.13622417 0.046283618 0.115515634 0.08873579 0.11273452 0.017310381 0.07497965

lstm.bias_hh_l0 f4 [256]
00000000: 15e3 5c3c aa9f bd3d b6cb 9b3d 798b 013d
00000010: 1121 ad3d dccd fa3c d038 1d3d 4ec5 713d
00000020: 6a6b 863d 4462 603d f3cc d2bc 10b3 533d
00000030: 78a7 8a3b da7d 4c3c e489 b13c 8867 cd3d
00000040: 02ee 7b3d b12d a0bd 1ae2 583d 86b1 8a3d
00000050: fbf0 f03d de3b 14bd c6fe 1dbd 6881 143e
00000060: 9b6b 0cbd d76d c43c 0c38 b33d c862 00bd
00000070: 5630 c8bc 6f25 d23c c573 013e 9796 4a3e
00000080: 401a a53c 9532 a53d 81f9 3c3d 6e77 193c
00000090: 3a31 cc3b 69ee 983d f58f 013d 2637 613d
000000a0: 355b 8a3d 9077 abbd c17f 4e3d 59bd 053d
000000b0: ebff b03d 4095 423d 5af7 bc3c ce25 8f3d
000000c0: 4d27 133e d6bf e6bb 0f0e 893e b437 243d
000000d0: b5e8 cc3d 11c0 8a3d 05a3 883d caa0 373d
000000e0: d643 fe3d 31f8 0a3e 7d97 0b3e 833a 3a3c
000000f0: 6ec7 ab3d bee5 b23d 87b5 7b3d 4db9 593c
00000100: f128 91bc 9e90 0c3c 0c52 923d 5712 aabb
00000110: 738f 7ab8 ee8b 3dbd 8387 78bd 3d1d dfbc
00000120: cd2d bfbd ed38 a1bc aa0d fbbc a866 74bc
00000130: 49ce 193e 0f8c 95bd ffac b73d 90c3 4c3d
00000140: d35c 08bd a358 e13d 5f95 1ebd 7679 65bd
00000150: 147e 4a3c 03c4 833d 442d 913c 6cb6 36bd
00000160: 3ca1 953c b878 f2bc 70f9 3d3c aa99 febc
00000170: 43fa 113e 9765 493c 044e 5abd 799b c63d
00000180: 0dfe 56bd eef6 3ebd e7ff e7bc 067e 2cbb
00000190: cf28 f5bb a4ff aabd 1b76 2d3e 6362 77bd
000001a0: 6d0a 22bd 92b4 2c3d cef3 8fbb 40f3 113c
000001b0: 17f9 e4bb b9f1 8d3d ac35 003d 3f33 c9bc
000001c0: a70b aebd 87c5 4ebc 13f2 333e 9f06 8dbc
000001d0: 960b a2bd c823 30bd ae97 3fbd 390b 6f3c
000001e0: 731c c2bc b07e e3bc 705f 4abd fa0e ca39
000001f0: 5ad2 a0bb 58ca 3dbd aeb5 77bd 0466 d73d
00000200: e80d 30bd 753d 343c 9c20 16bc 2c3d 363e
00000210: b93d b73d e651 3ebd 2671 373d 742f 33bd
00000220: 9396 e03d f1a9 44bd 3221 07bd 5dfe 9c3d
00000230: 1f1c b43d 2b28 70bd 4e7d ffbc ed67 bbbd
00000240: 4198 2e3d f380 5dbd 85de b2bc 8920 4abb
00000250: 9b7a 1b3d 90b3 4e3d fbb6 943b 188d b9bd
00000260: 9c1e 29bc 2c50 4c3d 9b10 7b3c 2cd5 473d
00000270: e17b 2f3d 0934 ce3d 6835 02bd e65a 243e
00000280: 7a6f 023d 170b 483d acbf a538 60e4 97bc
00000290: c4b3 8fbc eec8 94bc 79a2 b6bc 3549 09be
000002a0: 9946 eb3b 8e8c cdbd f222 1b3c b9ad 51bd
000002b0: 3eb1 ba3d 010f 0cbd d912 b5bc f907 d4bd
000002c0: 3e36 dbbc 7435 873d 0002 f03c 6a24 173d
000002d0: 00d3 3a3d 2b8e f039 30d5 1abc 51db 52bd
000002e0: 7bb9 8bbd 5b10 413c 27fd 30bd 2342 bdbd
000002f0: 96dc eb3d 1ab7 c6bd 991e 993d 20bb c63d
00000300: 4d4e 0a3d 7fbe c93d ca2f 1c3e d0a4 02bd
00000310: c7f5 2b3e a506 673d 89f5 783d 9bb8 703d
00000320: 9824 03bd 40aa a43d 7028 38ba 60a0 bf3d
00000330: 4860 c53d 4f88 893d ce54 143d 6dd1 503e
00000340: 65ac 4e3d 7c5c 323c 48bd 953d 7580 a93d
00000350: 48de ef3d 52ea 363d 2438 debc 3188 d73d
00000360: 5912 7f3d f667 953d 3944 2dbd e012 86bc
00000370: 4a5e e23d 95ee 1a3c b5e4 bf3d c4f7 0e3c
00000380: 372c c73d ab0f d73d b027 793d 5388 b93d
00000390: 10d7 ec3c 78a1 233d 7aa4 f53c 6118 c43c
000003a0: 3212 813d 63a9 6d3d 3199 c33d ff81 d8ba
000003b0: 5d5b d13d 5530 c33d 1432 873d de0b 043e
000003c0: 51f9 f73d a4c6 a83c 6bc4 b93d d4df 593d
000003d0: 0459 943d e8d1 ae3d ebd9 773d 3d10 9d3d
000003e0: 4dc6 303e cea2 083e c064 fb3d d16c 9d3d
000003f0: 66e0 473d cd2c 973d 4d0b 813d 0901 343c
0.013481875 0.09258969 0.07607214 0.031627152 0.084535725 0.03061574 0.03838426 0.059026055
0.06563456 0.054781213 -0.025732493 0.05168444 0.0042313896 0.012481177 0.021672197 0.10029513
0.06150628 -0.07821215 0.052950002 0.06772141 0.117647134 -0.036189906 -0.03857305 0.1450249
-0.034282308 0.023978157 0.087509245 -0.031344205 -0.02443711 0.025652615 0.12641819 0.19784008
0.020154119 0.080662884 0.046136383 0.009366853 0.006231454 0.07467348 0.03163143 0.054984234
0.067556776 -0.08372414 0.050414804 0.03265128 0.086425625 0.047505617 0.023067165 0.069896325
0.14370461 -0.0070419116 0.26768538 0.040092185 0.10005323 0.06774915 0.066717185 0.044831075
0.124152824 0.1357124 0.13632007 0.011366489 0.083876476 0.08735226 0.061452415 0.013288808
-0.017719718 0.008579401 0.071445554 -0.0051901746 -5.9738242e-05 -0.046276025 -0.06067611 -0.027235622
-0.09334908 -0.019680465 -0.030646164 -0.014917053 0.15020098 -0.07302105 0.08968543 0.04999119
-0.03329165 0.11003234 -0.03871667 -0.056024037 0.012359161 0.06433871 0.01772178 -0.044607565
0.01826536 -0.029598579 0.011595115 -0.031079132 0.14255624 0.012292287 -0.053297058 0.09697623
-0.052488375 -0.04662221 -0.028320266 -0.0026320233 -0.0074816714 -0.08349541 0.16939585 -0.060396563
-0.039560724 0.042164393 -0.0043930775 0.008908093 -0.0069877016 0.069308706 0.031301185 -0.024560569
-0.08498316 -0.012620336 0.17572813 -0.017215071 -0.07912366 -0.043002874 -0.046775512 0.014590078
-0.023695206 -0.02777037 -0.049407423 0.000385396 -0.0049078884 -0.04633555 -0.060475998 0.10517505
-0.042982012 0.011000981 -0.009163048 0.17796773 0.089473195 -0.046464823 0.04478564 -0.043746427
0.1096622 -0.04801363 -0.032990642 0.076657034 0.08794426 -0.058632057 -0.03118768 -0.09150682
0.04262567 -0.054078054 -0.021834621 -0.0030842146 0.037958723 0.050464213 0.0045384145 -0.090601146
-0.010322239 0.049881145 0.015323783 0.04878728 0.04284275 0.10068519 -0.031789213 0.160503
0.031844594 0.0488387 7.903515e-05 -0.018541515 -0.017541774 -0.018162217 -0.02229427 -0.13406833
0.0071800468 -0.10036574 0.009468781 -0.051191065 0.091158375 -0.034193996 -0.022103714 -0.10353083
-0.026759263 0.06601992 0.029297829 0.03689996 0.04561138 0.0004588229 -0.009450242 -0.051478688
-0.06822487 0.011783685 -0.043210175 -0.0924113 0.11516683 -0.097028926 0.07476539 0.0970366
0.03376608 0.09850787 0.15252605 -0.03189546 0.16792975 0.05640282 0.060781036 0.058769803
-0.03201732 0.08040285 -0.00070250686 0.09356761 0.09637505 0.06715452 0.03621369 0.2039239
0.050457377 0.010886308 0.07311493 0.08276454 0.11712319 0.04465706 -0.02712638 0.10524023
0.062273357 0.072952196 -0.04230139 -0.016366422 0.110531405 0.009456296 0.09369794 0.008726064
0.0972523 0.10501035 0.060828865 0.09059205 0.028911144 0.03994891 0.029985655 0.023937406
0.063022986 0.058022868 0.09550703 -0.0016518234 0.10222504 0.09530703 0.066013485 0.12895152
0.121081 0.020602532 0.09070667 0.053191975 0.07243541 0.0853613 0.060510557 0.07669113
0.17263146 0.13343355 0.12275076 0.07686771 0.048797987 0.07381592 0.063009836 0.010986575

lstm.weight_ih_l1 f4 [256, 64]
00000000: b5ff f7bc c6d0 1f3d 21a6 653d f47b 893d
00000010: 7b32 9bbc a969 88bc 6953 90bc 5d96 943c
00000020: 2965 513c e903 31bd b28b 21be 10ce 213c
00000030: de9a 32bd a2ac 03bc eca5 033d 3afe bcbd
00000040: 939f 813c 50f6 cb3d 3d84 283c 67c8 e73b
00000050: 3e5f 8c3c b267 4abd afcb 9b3d a04c 1abc
00000060: 9458 f6ba f91f 1cbd fc45 6cbd 9d5b 143d
00000070: f783 edbb 9676 e5bc 6e33 f8bc f291 7dbd
00000080: f8e3 e83d cafb b9bc 2854 013d 95db b63b
00000090: 6c46 bb3c 7eb0 3a3c ce57 24bc 441b 6a3c
000000a0: 5eaa ca3c c0b3 053d 4eb1 4d3c 9dc9 333d
000000b0: 5bda 0a3d 15f8 9bbc af76 053c 60ec 013d
000000c0: 659c 70bd 4796 e9bb c126 5f3d 0556 af3a
000000d0: 1f4c 04bd fdff 6e3c 8cb9 82bc 0755 473d
000000e0: cee8 4fbc a9c3 bfbc f7b3 e3bc 2bc3 343d
000000f0: e2b9 35bc ade2 17bc b592 72bb 674d a83d
00000100: 3daa 9ebc ea34 e63c 2484 553d 78ec abbd
00000110: e10d 3cbc b887 833c 6a9f f03b cb3a b33c
00000120: 6da6 cfbc 3d98 e3bc c96e 6eba 7cc6 8e3c
00000130: 4eb0 7bbc 29b4 733c b7a7 be3c 7dfb 84bd
00000140: da72 143d e78d f33c bdb7 243d 88dd 203d
00000150: 5049 cb3c 05bf 5ebc 0089 3fbc 4cf3 03bd
00000160: d902 843d fea8 3a3d d884 05bd 1129 36bc
00000170: b08c b63c d75b 083d 9aea 59bd 7ad8 1fbb
00000180: 33c7 fcbc 4c44 e3bc ee4b eaba 7748 65bc
00000190: f41a f2bb 8262 a3bc 62ca b93c 6828 b73c
000001a0: 4df7 d33c 2ec3 3ebd d51c dd3c 9633 b6bd
000001b0: f503 aa3c 2612 233d cfd2 403c 614c 143d
000001c0: fa0f e3bc ba1d 32bb e8e8 723b 6fb4 c0bc
000001d0: e41f 42bd 31b9 28bd 462b bdbc 89fd abbb
000001e0: 2d60 493d 42a1 55bd d3a1 c3bc 3178 d2bb
000001f0: 44f7 f43c 0426 3cbd d3e4 fd3c 7799 6fbd
00000200: ef1c 2b3b afd0 253b 3e34 ad3d fafa 663c
00000210: 44bd b4bc eb03 9a3c d99a d73c 5da0 47ba
00000220: f832 eeba 0fce 8c3b ea44 64bc d0a4 0bbc
00000230: f649 593d cea0 44bb 0bf2 ccbc fa8b d0bc
00000240: c95c 8f3c d3ec 273d 177f 663c 2cfd 063c
00000250: 0be6 1a3c 2735 76bd 6710 eb3c 464e 4a3b
00000260: a6f8 703d 7b22 973c 7e71 8bbd 90f7 433d
00000270: 59dd c23c b58b cdbb 1edb 77bc 11eb 043c
00000280: 8f42 a23c b246 c9bb 300b 71bc f348 e8bc
00000290: 24f0 bd3c c112 89bc bd00 933c df93 a53b
000002a0: 41e8 6bbc 76bc 69bd a214 843c ddc6 72bd
000002b0: e15d 87bc 71a8 133d f0a2 0cba 7d3a 933b
000002c0: cc48 00bc b2fe d7bc 8405 643d 4a22 6b3b
000002d0: 4950 03bc 0ffe c9bb 7494 04bc 3156 843b
000002e0: 5c49 063c 2aaf 76bc 0481 08bc 3340 4a3d
000002f0: 5dd7 24bc f56b 51bc 02eb 2c3d f232 21bc
00000300: 8eb9 1e3c 3ee4 2abc df3b 85bc 7a69 d23a
00000310: fef6 f23c 5f23 913a 70fb 0abc c42c 65bc
00000320: 38f8 2cbb f9d0 1b3c d011 80bc 7e8e 1fbc
00000330: c334 1ebd 41a8 34bc dc06 1bbb 6f23 4fbb
00000340: 7004 d7bb ed12 b33c 0e05 3ebc e7f6 04bc
00000350: c1d8 0bbc 3fc0 13bd 846a 953c 1451 773b
00000360: d5f2 1d3b c93f 68bc b753 0ebd d288 503c
00000370: c329 60bc c13f a3bc 8ae0 003c 9f49 3f3d
00000380: 5812 e83c c2ae eb3b ec61 363c 05e3 903c
00000390: ff5a 6a3c 05c0 353c db9d 1abc f759 18bc
000003a0: e790 47bc a602 8d3b baf6 02bc 9232 4fbb
000003b0: f691 15bc d762 a2bc e49f a03c d518 16bc
000003c0: b9bf 023c c8d9 173b 84cc cb3a 6707 3b3c
000003d0: fcc9 103c 37e7 c03b 6ba5 403c 88d7 d6bc
000003e0: db2f 3dbc f2d5 2c3c 7458 e93b 0df1 013d
000003f0: 1f35 35bb db52 103c 4d09 803b eb7c 41bd
-0.030273298 0.03901746 0.056066636 0.06713095 -0.01894497 -0.016651945 -0.017617898 0.018138105
0.012780466 -0.04321662 -0.15775946 0.009875789 -0.043604724 -0.008036764 0.032140657 -0.09228177
0.015823161 0.0995909 0.010285434 0.0070734504 0.017135259 -0.049415298 0.07607209 -0.009417683
-0.0018794709 -0.03811643 -0.05768393 0.03622018 -0.0072483975 -0.028010648 -0.030297961 -0.061906762
0.113716066 -0.02270307 0.0315744 0.0055803754 0.022860728 0.011394618 -0.0100307 0.014288727
0.02473944 0.032642126 0.01255448 0.043893445 0.033899646 -0.019039193 0.008145972 0.031719565
-0.0587429 -0.00712851 0.054480318 0.0013377076 -0.032299157 0.0145874 -0.015957616 0.048665073
-0.012689782 -0.023408728 -0.027795775 0.04413144 -0.011091681 -0.009270352 -0.0037013714 0.08217888
-0.019368285 0.028101403 0.052127972 -0.08394712 -0.011477918 0.016055927 0.0073432224 0.02187862
-0.025347913 -0.027782554 -0.0009095488 0.01742863 -0.0153618585 0.0148744965 0.023273332 -0.0649328
0.036242343 0.02973075 0.04021429 0.03927377 0.024815232 -0.013595347 -0.011690378 -0.032214448
0.06445856 0.04557132 -0.032597393 -0.011118189 0.022283882 0.03329071 -0.05320225 -0.0024390505
-0.030856704 -0.027742527 -0.0017875412 -0.013994328 -0.007388467 -0.019944433 0.022679511 0.022358134
0.025874758 -0.046572857 0.026991287 -0.08896558 0.02075384 0.03981223 0.011769011 0.036205653
-0.02771758 -0.0027178363 0.0037065092 -0.023523537 -0.047393695 -0.041192237 -0.023091923 -0.0052487296
0.049163986 -0.05215574 -0.023880875 -0.0064230193 0.029903062 -0.045934692 0.030992901 -0.058495965
0.0026109775 0.0025301387 0.0845723 0.014097923 -0.022062905 0.018800696 0.026318954 -0.00076151435
-0.0018173149 0.004297025 -0.013932446 -0.008523181 0.05304905 -0.0030003074 -0.025017759 -0.025457371
0.017500298 0.040997338 0.0140683865 0.008239072 0.009454261 -0.060109284 0.028694345 0.0030869409
0.05883088 0.018449059 -0.06808756 0.047843516 0.023787187 -0.006272758 -0.015127925 0.008112685
0.019807128 -0.0061424607 -0.01471214 -0.028355097 0.023185797 -0.016732575 0.017944688 0.005053028
-0.014398635 -0.057064496 0.01612312 -0.059271682 -0.016524257 0.03604931 -0.0005364856 0.0044930563
-0.007829856 -0.026366565 0.055669323 0.0035878592 -0.008014747 -0.0061643193 -0.008092035 0.004038595
0.008196201 -0.015056411 -0.008331541 0.04937763 -0.010061112 -0.012782087 0.04221631 -0.009838806
0.009687794 -0.010430394 -0.0162639 0.0016053163 0.02965879 0.0011073163 -0.008482799 -0.013987724
-0.0026393067 0.009510272 -0.015633494 -0.009738563 -0.038624536 -0.011026443 -0.0023655212 -0.0031606813
-0.0065618083 0.02185961 -0.011597885 -0.008115507 -0.008535565 -0.036072012 0.018239267 0.0037737535
0.0024101038 -0.014175364 -0.034747805 0.012727933 -0.013681832 -0.019927861 0.007866034 0.04670107
0.02832906 0.0071924636 0.011131745 0.017686376 0.014303922 0.011093144 -0.00943705 -0.009298793
-0.0121805435 0.0043032942 -0.0079933945 -0.0031615836 -0.009129038 -0.019822521 0.019607492 -0.009161194
0.007980281 0.002317058 0.0015548621 0.011415339 0.008837219 0.005886938 0.011758189 -0.02622582
-0.011547054 0.010549055 0.00712114 0.031724025 -0.002765007 0.008808817 0.0039073587 -0.04723827

lstm.weight_hh_l1 f4 [256, 64]
00000000: f5f5 953d 0327 22bd 45e2 ef3c 3dae 74bc
00000010: e7ca 023d ce4d 383d 58ed efbc 3d54 bb3c
00000020: 3655 313c a41a 6a3b bbd1 8cbd ef73 36bd
00000030: 70c2 0dbd 959d ff3b 9e4e d1bc 9642 87bd
00000040: eeed 9cbc 443c c5bc 4635 00bd 079f 263d
00000050: 7e01 a43b cef2 d6bc 4ec2 de3c 46ec c33c
00000060: 78fe 0d3d 0058 dbbc a9c2 00bd b14f 68bd
00000070: 1a33 733c eea7 a33b d3c6 033c 9df7 2fbd
00000080: 4127 c53c 4699 1e3d b33e 5abc 78aa 86bc
00000090: 9130 d1bc b846 053c ff4f de3c ec13 853d
000000a0: 3897 953b 10af a6bc 038f 16bd 4e3e 78bb
000000b0: 490d af3c 4b35 6fbb 9bc7 f7bc cd1f 02bd
000000c0: f695 16bc 67f1 523c de3d 053c 0b45 07bc
000000d0: acd7 5cb8 037c 99bc 1d49 473c a028 33bd
000000e0: 6517 d7bb a925 bdbd 543d e0bc 5db9 6bbd
000000f0: 295c 423d 8c64 6dba 5efa 2f3c c442 a93b
00000100: d69b 12bd a5e8 05bd 0acb 483c d44f 413c
00000110: 9b92 0e3d cc97 3abd 7de2 32bc 8c99 bbbc
00000120: 0562 913b 3fa2 adba 87f8 b8bc 1dce e9bc
00000130: 27f0 6dbc 0670 2dbc 8e36 913c 736a abbb
00000140: ac39 133d 9ce8 1dbc 46bf 5dbc 618e bc3b
00000150: 9e27 4bbd b413 903c e169 803c 6bb7 06bd
00000160: 684c 1ebd 1ccf c4bc 6a91 72bd 5299 fabc
00000170: bc93 8cbd a43d 43bd 2c40 a5bc bd66 70bd
00000180: 3e8b 063d 09bf b93c 87d8 403d bd3b a23c
00000190: 12d2 a7bc 51cb 32bc 96e9 95bc c33f e83c
000001a0: 8366 44bb 7bd6 2dbd 6373 c93c 3eb6 11bb
000001b0: fa89 43bc 4a07 633c 0301 17bb 4ae7 0a3c
000001c0: 057a bfbc a655 48bc 6ae3 8abd 022a 55bc
000001d0: e6ea f7bb d86c 36bd 7c4a a53c 730e 343b
000001e0: 32f4 9cbc 571e 7a3c aeb8 9bbc 1020 39bd
000001f0: e802 813c 99d8 3d3b 5184 13bd 8cf3 fe3b
00000200: cdf0 533d ec8f 2cbd a42d f9bc c94d 22bc
00000210: b971 173c 34d6 51bc 4750 4a3d 088c a1bb
00000220: 254b 47bb 576d 0a3d eeca 06bc 4251 aa3c
00000230: 6776 0bbd ef07 1a3c 2ea0 fb3c 197c 663d
00000240: 31b9 653c 4e58 7a3c b21c 263d 22af 993c
00000250: 23fe 0e3d 9ef8 cbbc 1bbd 80bc dd0f d73b
00000260: 22bd 0c3c f0fd 2bbc bd78 e83c 4911 40bd
00000270: dd15 42bd 4fa3 083d 4501 863b 9a52 cfbc
00000280: 9fb4 073d b947 ddba 40e2 923b b47b 81bb
00000290: bd8e db3c 51c3 6c3b 3d47 44bc bd18 ec3c
000002a0: c047 d83b 2be7 423d 7700 34bd b4d7 ea3b
000002b0: 5588 bd3b 5963 9c3b 8eab cabc cf44 eebb
000002c0: 63ba f23b f7f2 373c ae58 b93a adfe 32bc
000002d0: edf2 563b 4ae8 2c3d 9479 9ebb 3584 efbc
000002e0: a22f 93bc 70a9 cdbc 6c0e 0ebd ef0b 35bc
000002f0: 6591 b73c 97ce f7bc a7fa 6c3c 76d9 993c
00000300: a2ef 2ebc 2f4f 4e3b 6955 673c e94a 90bb
00000310: 0962 c5bb 5ea7 8139 ffd9 953c faaf 7abb
00000320: 885d 51bb 327e 2bbc 9408 4cbb 6ac0 f9bb
00000330: 829a 60bc d03c 903b 58c2 ccbb f571 93bc
00000340: a2a5 15bb 61ac 09bc 2f85 11bb 7c79 3dbc
00000350: f076 84ba 1ad4 8ebb 7898 a73b 271d c6b8
00000360: 28ab 4f3b 0f2a 1f3c 7fec 27b9 24d5 47bc
00000370: 0c57 2e3d 51e9 69b8 d806 c8bb 2d01 9b3b
00000380: f55d 6937 71c0 7d3b 6e20 31bb 1769 aeb9
00000390: 3360 f13b 7674 ba3a f069 33bb 9e68 d5bb
000003a0: ff20 20bc 4ee5 90bb d1a2 05bc 7ad7 3f3b
000003b0: 3f02 a23a 4aad 11ba 30c6 283b fb97 5eb8
000003c0: 4786 9f3b 0472 133b b316 54bc a004 8f3b
000003d0: 8e62 a43a fdda 153b 005b c339 27b8 51bb
000003e0: 4f7b 05bc d753 a4bb c97c 013c 2b97 3f3c
000003f0: bac2 6cbc 840f 92bb 7b2b 733b 24e7 c1bb
0.07322303 -0.039587986 0.029282698 -0.01493412 0.031931784 0.044996075 -0.029287979 0.022867316
0.0108235385 0.0035721445 -0.068759404 -0.044544157 -0.03460926 0.0078007677 -0.025550183 -0.06604497
-0.019156422 -0.024076588 -0.031300806 0.040679004 0.0050050607 -0.026238825 0.027192261 0.023916375
0.03466651 -0.02677536 -0.031435642 -0.056716625 0.0148437265 0.004994384 0.008043009 -0.04296075
0.02406657 0.03872039 -0.013320613 -0.016438708 -0.025535854 0.008134536 0.027137754 0.064979404
0.004565146 -0.020347148 -0.03675748 -0.0037878933 0.02136864 -0.003650027 -0.030246546 -0.03176861
-0.009191027 0.012874938 0.008132426 -0.008256207 -5.2652947e-05 -0.018735891 0.012163428 -0.043739915
-0.006564068 -0.09235699 -0.027372994 -0.057549823 0.047451172 -0.0009055815 0.0107408445 0.00516543
-0.035793148 -0.03269257 0.01225544 0.011798818 0.034807783 -0.04555492 -0.010918257 -0.022900365
0.0044367337 -0.0013247206 -0.022579445 -0.028540665 -0.014522589 -0.0105857905 0.017726209 -0.0052311956
0.035943672 -0.009637978 -0.013534373 0.0057542776 -0.04959833 0.01758752 0.015675487 -0.032889765
-0.038647085 -0.024024539 -0.05922071 -0.030590687 -0.068641156 -0.047666207 -0.020172201 -0.05869173
0.032847635 0.0226741 0.047081497 0.019803876 -0.020485912 -0.010912732 -0.018299859 0.028350716
-0.0029968328 -0.042440873 0.024591153 -0.002223387 -0.011934752 0.013856718 -0.0023041375 0.008477995
-0.023373613 -0.012227451 -0.06781657 -0.013010504 -0.007565844 -0.044537395 0.020177118 0.0027474433
-0.01915941 0.015266023 -0.01900896 -0.045196593 0.015748456 0.0028968214 -0.03601486 0.007780498
0.051743317 -0.042129442 -0.030417271 -0.009906241 0.009243422 -0.012807418 0.049392965 -0.004930023
-0.003040978 0.03379568 -0.008227093 0.0207907 -0.034048464 0.009401306 0.030716028 0.056270692
0.014021204 0.015279843 0.04055471 0.018760268 0.034910332 -0.024898823 -0.015715173 0.0065631703
0.008590015 -0.010497555 0.028377885 -0.046891484 -0.04738413 0.03335887 0.004089507 -0.025307942
0.033131238 -0.0016882337 0.0044825375 -0.003951514 0.026801461 0.003612716 -0.011979875 0.02882039
0.00660035 0.04758374 -0.043945756 0.007166827 0.0057840743 0.0047725854 -0.024740007 -0.007271386
0.007407473 0.011227361 0.0014140808 -0.010924977 0.0032798604 0.042213716 -0.0048362706 -0.029237846
-0.017967049 -0.025105208 -0.034681723 -0.0110502085 0.022408197 -0.030249877 0.014464057 0.018780451
-0.01067725 0.0031480303 0.014119484 -0.0044034612 -0.0060236496 0.00024729496 0.018292425 -0.0038251863
-0.0031946618 -0.010467099 -0.0031133043 -0.0076218145 -0.0137087125 0.0044017807 -0.0062487535 -0.017998675
-0.002283432 -0.008402915 -0.0022204628 -0.011564609 -0.0010106247 -0.0043587806 0.0051146112 -9.446806e-05
0.003168771 0.009714617 -0.00016014463 -0.012196813 0.042563483 -5.576882e-05 -0.0061043315 0.004730365
1.3909758e-05 0.003871944 -0.0027027386 -0.00033266164 0.007366204 0.0014225382 -0.0027376376 -0.0065127155
-0.009773492 -0.0044218665 -0.008156494 0.002927272 0.0012360289 -0.0005557133 0.0025752895 -5.3070467e-05
0.004868302 0.0022498379 -0.012944865 0.004364565 0.0012541579 0.0022866123 0.000372611 -0.0032000632
-0.008147075 -0.0050148773 0.007903286 0.011693756 -0.014450723 -0.004457416 0.0037104774 -0.0059174467

lstm.bias_ih_l1 f4 [256]
00000000: 25d4 033e 90cf 7c3d 2e4e a7bd e8ce 0dbd
00000010: ce0d a8bd e521 9e3d 5231 af3c 9d1f a03d
00000020: 7b39 383d 147c 9f3b a39c 833c 4b3e 2b3d
00000030: 2e35 f53c e212 0bbc 79ff ad3c 2098 ff3d
00000040: 83dc f43b ef84 423d f25b 243d be9c 893d
00000050: ef41 bb3c 7d25 fbbc 1d82 c4bc dc4a b23c
00000060: a79b 23bd d062 29bd fae0 b43d 3608 293d
00000070: 297d 9a3d 1e35 eb3d cc97 07bd 7357 0c3e
00000080: 70f2 863a e535 e53c 2cf1 b4bb a174 aa3b
00000090: f4c7 5c3c 16ad c5ba 31b2 843c fb5e 5a3d
000000a0: fdc4 8e3d a1dc 193e 5ad0 da3d adeb e9bc
000000b0: b5a9 a4bc 5ea0 1ebc c576 9c3c d766 d43d
000000c0: 6db4 963d 507a 29bc 9f7e 013e 1893 ac3c
000000d0: 17e1 64ba 8320 ed38 afe4 4fbd 6b15 79bd
000000e0: e52a 0d3e 96af 5e3c 279f b1bc ae0d 4e3d
000000f0: 80a7 603d 1edf 0a3c db62 1d3d ed18 c6bd
00000100: 11ef 563e e3f4 153e 5223 433d 1685 1fba
00000110: 5b6f e73c 7c82 423e 99b5 3abd 0c19 b23d
00000120: f4a7 c53d 984e eb3c b3df 393e bd90 7c3b
00000130: 2044 173e a329 fb3c 91a2 cd3d 90d3 2e3e
00000140: 0c2c 55bc c6f1 963d 290f cd3d a33c 3b3d
00000150: 1c3b 5e3c 957e 5f3d fab7 1f3e da79 153d
00000160: aae2 463d bc5b d93b 8606 943d e732 b33d
00000170: 02ca 4e3e 9efb b83d 9b90 593c c291 963c
00000180: 132d e63d 26b3 c83c cd4a 8e3d e5a5 183c
00000190: f3ab 9f3c afbb cfba 7a90 f43d 25ef 7c3d
000001a0: 65cf 113a 59b9 483e 6de9 893d 4f6e 173c
000001b0: 14af bfbb a7ce c9bc b41a 50bd 1917 063e
000001c0: 6755 c73d 0e3b a83c 500f 2e3e 15df 463d
000001d0: c18a 66bc 4202 0b3e 8aa1 ea3c b6cd 153d
000001e0: cedb 6e3e 1340 bc3d c282 a73d 9d9e 893d
000001f0: 8b18 573e 2cc5 723c 37d4 5f3d af07 823d
00000200: fae3 6fbd 18cc c2bc c0d8 a7bd 4527 c63d
00000210: cf73 4b3d d0fe d03d 24a8 c7bd 33d7 7b3d
00000220: 664f afbd 0ed1 6cbd 4f88 a83d 599f 6dbd
00000230: 4c89 b63d fc7a 723d 25f9 0bbd 748d e33d
00000240: e82a 80bd 5675 723d b385 9abd 2699 993b
00000250: 6a93 813d 9214 683d 2907 613d 2290 21bd
00000260: 69d1 613d 7970 a53d 3d5c f0bd 6f84 893a
00000270: 1dd3 2e3d c870 85bd 8d8b 923d 8083 dc3c
00000280: 5f43 8e3d 2882 e83b bbc2 6a3d ae13 b93c
00000290: ffe7 d03d 99c6 293d ca73 acbd 0312 8d3d
000002a0: fc69 84bd df1e 8dbd c063 b139 6c80 683d
000002b0: fed5 08bc 97b5 573d c20d 7abc 94da 5e3c
000002c0: 3a47 bdbd f05b b03d ec44 e7bd 0b18 89bc
000002d0: 9f3c a5bd d06c 1abd eda7 d83c 711d 3b3d
000002e0: 863f b43d fb87 bdbd c862 8ebd 36df 18bd
000002f0: ff96 9e3d fdf0 9fbd 6179 39bc 6b26 11bd
00000300: cf05 193d c2f2 953c dbb1 a4bd 134f 62bd
00000310: a163 093c 8221 52bc 370f 1dbd 0fa6 cf3d
00000320: 53ab 4bbd ca1f b53d 3a32 95bc 5c58 ae3d
00000330: 14da 5d3c 708b 9fbb 8097 933d 91dd c03d
00000340: d64e 483c 2557 0f3d 14c7 67bd ad36 6f3a
00000350: 5173 063d 3960 10bd 3b1c 63bd ca32 a83d
00000360: 3e93 99bc 62d3 5d3d 7358 4a3d 632e 9c3d
00000370: d790 013e ae5d 633d 9687 78bc 6f3d d03d
00000380: f6ea c93d 542f 913d 3bc4 f23c b799 e33c
00000390: 0fff 343d 1100 073c 72c4 923d b15f 41bd
000003a0: 7da7 1ebc 3de9 083e 03c6 83bd 640b a1bc
000003b0: c4a6 4d3c 4683 b5bc d1cb 9d3c 2a6d d43c
000003c0: d72f ff3c b200 a4ba 7686 fc3d 73ce 11bd
000003d0: 0076 863c 2daa 843d 7bcc 1fbd b9d0 58bb
000003e0: ba33 4f3b 0d48 83bd 508c bd3d 9238 b03d
000003f0: 236e 883d d464 c3bc 36f0 1abd 4272 86bd
0.12873895 0.061721385 -0.081692085 -0.03462115 -0.08205758 0.077213086 0.021385822 0.0781853
0.044976693 0.004867086 0.016065901 0.041807454 0.029932585 -0.008488389 0.021239983 0.124801874
0.007472576 0.047490057 0.04012675 0.06719349 0.022858588 -0.030657524 -0.023987824 0.021764211
-0.039943364 -0.041354 0.088319734 0.041267596 0.07543404 0.11484741 -0.03310375 0.13705234
0.0010295641 0.0279798 -0.005521914 0.0052018915 0.013475407 -0.0015081491 0.01619825 0.053313237
0.06971166 0.1502557 0.10684271 -0.028554762 -0.020100454 -0.009681789 0.019099602 0.10371178
0.07358632 -0.010344103 0.12645958 0.021066234 -0.0008731051 0.000113070964 -0.0507552 -0.06081144
0.13785894 0.013591668 -0.021682335 0.050306015 0.05484724 0.008476047 0.038424354 -0.09672723
0.20989634 0.14644198 0.047641106 -0.00060852 0.02825134 0.18995088 -0.04558334 0.086961836
0.09651175 0.028724 0.1815174 0.003853842 0.14772081 0.030659502 0.10040773 0.17072892
-0.01301099 0.073703334 0.10012657 0.045712125 0.013563897 0.054564077 0.15597525 0.03649316
0.048556007 0.00663325 0.07227807 0.08749943 0.20194247 0.09032367 0.013279106 0.01838005
0.11239066 0.024499487 0.06947861 0.009316896 0.019491171 -0.0015848781 0.11941619 0.061751503
0.0005562215 0.19601955 0.067339756 0.009242608 -0.0058497284 -0.024634672 -0.050806716 0.13094749
0.09733086 0.020535972 0.16998029 0.04855259 -0.014071167 0.1357508 0.028641481 0.036573134
0.23326036 0.09191909 0.08179237 0.06719706 0.21005456 0.014817517 0.054645743 0.06349122
-0.058567025 -0.02377896 -0.08195639 0.09675459 0.04967099 0.102048516 -0.09748867 0.061484527
-0.08560066 -0.057816558 0.08229124 -0.058013294 0.08912906 0.05919932 -0.03417315 0.111109644
-0.06258184 0.05919393 -0.07545032 0.004687446 0.06326945 0.056660242 0.05493847 -0.039444096
0.05513135 0.08078093 -0.11736343 0.0010491739 0.042681802 -0.06515652 0.071555234 0.026918173
0.06946444 0.007095594 0.057314616 0.022592392 0.102005 0.041449163 -0.084205225 0.06888201
-0.064655274 -0.06890654 0.0003383439 0.056763098 -0.008351801 0.052663412 -0.015262069 0.013601918
-0.09242101 0.08611286 -0.11292443 -0.016735097 -0.08068203 -0.037701428 0.02644726 0.045682374
0.08801179 -0.09254452 -0.06952435 -0.037322246 0.07743644 -0.07809637 -0.011320443 -0.03543703
0.037359055 0.018304233 -0.08041736 -0.055251192 0.00838557 -0.012825372 -0.038344588 0.10139095
-0.049723934 0.08843954 -0.018212426 0.08512947 0.013540763 -0.004868917 0.07206631 0.094172604
0.012225827 0.034995217 -0.05658634 0.0009125274 0.032824818 -0.035248015 -0.055446845 0.08212812
-0.018746968 0.05415667 0.049400758 0.07626035 0.12652908 0.05550926 -0.015169045 0.101679675
0.09859268 0.07089105 0.029634586 0.027783258 0.044188555 0.008239762 0.07166375 -0.0472104
-0.009683487 0.13370223 -0.06434252 -0.019658752 0.012551967 -0.022157323 0.019262226 0.02593096
0.031150742 -0.0012512414 0.12330334 -0.035597276 0.016413689 0.06477771 -0.039013367 -0.0033083393
0.0031616525 -0.06410227 0.09255278 0.0860454 0.06661632 -0.02385179 -0.03782674 -0.06564762
